Contrast/BrainTGL/Save/latest_1_0.pth (torch, 572450 bytes, 25 tensors)

srl.conv.weight f4 [64, 90, 3]
00000000: 9335 623c c86a 0d3d e357 3d3d b5d4 8abc
00000010: 2bfd eb3b 27e4 a43c c106 273d 746a 5bbd
00000020: 8bbd 173c 604a 28bd d84c 303d 08e9 783c
00000030: bafc 0abd d419 30bd d97b 5fbd 90af 203d
00000040: 8697 ea3c 56d7 e6bc 4691 2dbb bacb 12bd
00000050: 8c2f 11bd 0759 f23a a937 2fbd ed5a 343c
00000060: 4fe1 de3c 0823 41bd 69c7 82bc 9bfa 6ebb
00000070: 90b9 193c 9c69 e0bb 67ea 3fbd 7b7f a5bc
00000080: e3a4 62bd e56f 02bc 6bf0 abbc 152f 423d
00000090: 251f cfbb 6470 d63c 7176 61bd 3934 28bc
000000a0: 9df0 0d3d dd19 e33c 7f5a d23b 3ab5 15bd
000000b0: 0a81 a53c 5a59 423d 3280 33bc eac1 cd3c
000000c0: 7b7f 1cbd 35c1 8d3c 1133 a03b d434 393d
000000d0: 26e7 d63c 2012 4c3d 2432 babb 7598 1c3b
000000e0: b6b2 42bb 4158 54bb 659a 29bd dd14 0cbd
000000f0: 0ef1 85bc d927 1dbd f036 55bd 20b5 d9bc
00000100: 2193 413b 33fb 5ebd b61d 043c 4026 533d
00000110: d193 9fbc ba6b 08bd 2d4f 093d d25c 66bb
00000120: 6260 903c 5ad5 28bd 5f57 1fbd e31d b9bc
00000130: a9ff 43bd 99cf b0bc 9ae3 59bc 9de2 7e3c
00000140: c764 2b3b 6d1e 37bd 351e 4fbb 8c00 9ebc
00000150: 72f5 5c3c 9707 133d 46da 0ebd bead 02bc
00000160: 1ba6 313c b348 083d 63db cebc 3d66 443d
00000170: 55a6 43bd 74f1 273d d2ec ecbb 8b4c 1d3d
00000180: 9dff 473d b4cd b2bc bad3 b5bc 203d ee3c
00000190: ad39 11bd 9b31 823b efad a53b c548 25bd
000001a0: b409 26bd 83e0 133d 632c 903c 1c31 2a3a
000001b0: cf7f e8bc 01d4 68bd 97d7 8e3c cde9 20bd
000001c0: e935 18bd aa55 26bc 4ea1 b83b 1bcc 1ebc
000001d0: 7a9a bdba 5897 373d 21ff 373d 4ce4 033d
000001e0: b60a ba3a 6ba5 293d c49d 70bb 4092 223d
000001f0: 30e6 953c a262 aabc 171e e6b9 261d 913c
00000200: 38bf a1bc 9f4d 29bc cb42 d3bb 39cf 073c
00000210: 7d1d 66bc dc40 ddba 68fc 053b 2555 9d3a
00000220: 8b2b e33a 3037 30bc 9cc0 ac3b 22a3 52bd
00000230: 13d9 77bc e999 1e3d 37c8 9fb9 7016 17bc
00000240: 1ff8 6138 ce4e 03bd 5a03 d63a 9204 123d
00000250: 1a36 eb3b 0e50 2abd dd16 72bc ac8f 0cbc
00000260: 4cb1 123d d3bc 33bc be26 873c 66c7 22bc
00000270: c997 5dba b4f5 44bd 1971 57ba acd2 4bbd
00000280: f1fe bd3c 5a0c 42bd 8d05 43bd 5d6b 113c
00000290: cc26 7ebc 67a4 053d a6c3 ee3c 1470 d7b9
000002a0: 4eb4 09bc f6cc 0b3d 9200 203c b8f6 383d
000002b0: b185 9f3c 3b29 2abd e72f 24bd eb54 363c
000002c0: 3480 9b39 e564 2e3d 78eb efbc ede5 8a3c
000002d0: e934 bd3c 1e3d db3c 3661 353c 6f86 bebc
000002e0: d301 393d 29d9 803b 2548 1d3a 3abf 0d3d
000002f0: e0ad 103c d08f 9c37 b55c e53a de38 e83c
00000300: 8f2f 0dba 4943 213d 96ad 313c 03a2 b83c
00000310: a540 15bd cd68 c03c e3ae 183d 8b38 d53b
00000320: 790e d83b 22c6 abba 3f04 a9bc 426c b9bc
00000330: 5944 2c3d 8731 c7bc a2dd 13bd 61bd ffbb
00000340: 5f2c 803c 9341 203d fbe8 41bd 5649 babb
00000350: d1be b8bb 3dfb de3b 3567 20bd ac56 4abd
00000360: 6d24 20bd 08cb 563d e67c cbbc 3429 1d3d
00000370: 8b31 0abb a767 143d 7af1 1fbd c3dd a33c
00000380: 1102 7bbc 0ff1 6bbc 6b50 10bd e645 8f3c
00000390: 4812 1cbd f3f6 25bd 9ad5 a33c 27f2 adbc
000003a0: 0822 4a3c d7f9 fb3c 6781 4e3d b5d5 4d3d
000003b0: 234d 023d 4da7 143c f6c8 383d a9cc 2f3d
000003c0: 35a9 d0bb c944 1abc f15c 933b 6a15 a4bc
000003d0: dc13 29bc 4856 033d d67d 49bd 2388 af3b
000003e0: 9dd3 05bd 7588 d03c b830 313d 05bf 3e3d
000003f0: 3a25 44bd 827c efbc d178 e5bc 9fca 53bd
0.013806718 0.034525663 0.046226393 -0.01694713 0.007201811 0.020128323 0.040777925 -0.05356832
0.009261499 -0.041086555 0.043042034 0.015192278 -0.033932425 -0.04299338 -0.05456147 0.03922993
0.028636705 -0.028178852 -0.0026484295 -0.03583882 -0.035445735 0.0018489667 -0.04277769 0.0110080065
0.027207045 -0.04715255 -0.015964227 -0.003646529 0.00938262 -0.006848527 -0.046854403 -0.020202389
-0.05533303 -0.007961248 -0.020988664 0.047408182 -0.0063208514 0.026176639 -0.055044595 -0.010266357
0.034653295 0.027722294 0.0064194794 -0.036549784 0.020203132 0.047448494 -0.010955857 0.02511688
-0.038207512 0.017304042 0.0048889 0.045216396 0.026233267 0.049821973 -0.0056822468 0.0023894582
-0.002970857 -0.0032401236 -0.041407008 -0.034199584 -0.016350295 -0.03836808 -0.052054346 -0.026575625
0.0029537159 -0.05443878 0.008063724 0.05155015 -0.019479664 -0.03330586 0.033522774 -0.003515054
0.017624084 -0.041219093 -0.038901683 -0.022597259 -0.04785124 -0.021583365 -0.013298893 0.0155569585
0.0026152597 -0.04470675 -0.0031603698 -0.01928737 0.013486253 0.03589591 -0.03487613 -0.007975994
0.010842825 0.033272456 -0.025251096 0.047949065 -0.04776605 0.041001752 -0.0072303796 0.038403075
0.048827756 -0.021826603 -0.022195686 0.029081881 -0.035455395 0.0039731986 0.005056135 -0.0403526
-0.040536597 0.036102783 0.01759929 0.0006492303 -0.028381256 -0.056842808 0.017436786 -0.03928547
-0.037160788 -0.01015226 0.0056344634 -0.009692217 -0.0014465593 0.044822067 0.044921044 0.032200143
0.0014193866 0.04141752 -0.003671513 0.039690256 0.018298239 -0.020798985 -0.00043891437 0.017714094
-0.0197445 -0.010333448 -0.0064471713 0.008289152 -0.0140451165 -0.0016880292 0.0020444635 0.0012003524
0.0017331702 -0.010755345 0.0052719843 -0.051425107 -0.015127438 0.038721 -0.00030476015 -0.009221658
5.387526e-05 -0.032057576 0.0016327903 0.03564889 0.0071780803 -0.041580252 -0.014775959 -0.008579176
0.035813615 -0.010970312 0.016497966 -0.009935236 -0.00084530987 -0.048085883 -0.0008218452 -0.04976146
0.023192855 -0.04737506 -0.047612716 0.008875695 -0.01551218 0.03262749 0.029146027 -0.000410915
-0.008404804 0.034131013 0.009765761 0.045157164 0.019472929 -0.041543227 -0.040084746 0.011128644
0.00029659423 0.04257669 -0.029287085 0.01695534 0.023096519 0.026762541 0.01107054 -0.023257462
0.045167755 0.0039321375 0.0005999825 0.034606196 0.0088305175 1.8663617e-05 0.0017498942 0.028347429
-0.000538581 0.03937081 0.010844609 0.02253819 -0.036438603 0.023487473 0.03727616 0.0065069846
0.006593522 -0.0013105313 -0.020631908 -0.02263463 0.04205737 -0.024315609 -0.036100037 -0.007804558
0.015646158 0.039125036 -0.047341328 -0.005685012 -0.0056379815 0.0068048523 -0.039160926 -0.049399063
-0.03909724 0.05243972 -0.02483983 0.038369372 -0.0021086659 0.036231663 -0.03904865 0.020003205
-0.015320317 -0.014400735 -0.035232943 0.017489385 -0.03810337 -0.040518712 0.019999314 -0.021233631
0.012337215 0.030758781 0.050416376 0.050252635 0.031811845 0.009073091 0.045113526 0.04291979
-0.0063678273 -0.009415814 0.0044971635 -0.020029742 -0.010319676 0.032064706 -0.049192272 0.005356805
-0.032672513 0.025455693 0.043259352 0.04656889 -0.047887065 -0.029234175 -0.028011711 -0.051706906

srl.conv.bias f4 [64]
00000000: d7e4 3f3d 6544 673d 4e95 fd3b b595 2dbd
00000010: a883 5ebc 4801 1cbd 7631 b63b c03b 2b3d
00000020: 6a39 363c a836 0dbb b5d4 7fbc 3648 39ba
00000030: f08a a73c 9baa 803d 013e 28bc 86b6 1a3c
00000040: d3cf 28bd b991 203d a086 f83c ca00 5a3d
00000050: c1fd 6cbc e9c2 83bb 59a5 263d ba22 343d
00000060: 51ec c4bc ac6c 3d3d c8e7 09bd 5a2d 6a3c
00000070: 9873 13bc d5fb 5b3d 4dbd 463d a738 303c
00000080: 9f04 1b3c d169 b93c 810d 653d 4460 453d
00000090: 10cc d23c 6dde c53b d1ca f8bc 091c 45bd
000000a0: 359e adbc 690f fe3c f1b1 56bd 78db 823d
000000b0: 475e 3f3d df99 353d b6a5 fabc 0f84 46bd
000000c0: c688 0f3c 9be9 e7bb c8b8 583c 91b7 75bc
000000d0: cc5b 87bc a000 453b 6bc6 0abc cc92 213d
000000e0: 2839 febc 1b0d 2f3d 9012 d3bc 946e 3abd
000000f0: ec9f 2a3d 342f fb3b 3411 0dbd eb93 e83c
0.046849098 0.05646171 0.007738746 -0.0423791 -0.013581194 -0.03808716 0.0055600954 0.04180503
0.011122087 -0.002154747 -0.015614678 -0.000706795 0.020451993 0.062825404 -0.010268689 0.009442931
-0.04121382 0.039201472 0.030337632 0.05322341 -0.0144647965 -0.004021038 0.04068503 0.04397843
-0.024038466 0.046246216 -0.03366831 0.014293039 -0.008999728 0.053706963 0.048520375 0.0107556945
0.009461551 0.022633465 0.05592108 0.04818751 0.02573207 0.006038478 -0.030370148 -0.04812244
-0.021193603 0.031013208 -0.052415792 0.063895166 0.04672077 0.044336196 -0.030596595 -0.048465785
0.008760637 -0.0070774085 0.013227649 -0.014997379 -0.016523264 0.0030060187 -0.008470158 0.039446637
-0.031033114 0.042737108 -0.025765687 -0.04551561 0.04165642 0.007665539 -0.034440234 0.028390845

graph_pooling.F f4 [90, 64]
00000000: a8b2 dbbd 5183 1d3e d992 9abd acba 3e3e
00000010: d882 b2bc e91a 06bb 31d4 973b 17c2 ffbd
00000020: 8d63 643d 82fa 20be 299b e6bd 4efe cdba
00000030: 4990 32be 3718 d3bd 643c 08bd deeb a5ba
00000040: 7975 0abe dde2 873d b496 273e 7aa9 96bd
00000050: 3d6a 9cbd d886 f5bd 1fb4 f0bc d5ec b2bd
00000060: fc65 34bd f217 08bd 7ec9 23be 1e20 26be
00000070: 5884 1cbe 8e9b 8b3c ff5e 943d e8d8 213c
00000080: 858f 023e ec30 cc3c cea2 77bc cb14 08be
00000090: 72e8 fdbd c659 823d 3766 6a3d 1432 93bd
000000a0: 9a7d 3bbe f877 de3d a990 3ebd 0c1b 3ebe
000000b0: b23d d03d 895d 7e3d 146e 513d b6c8 a6bb
000000c0: 0d21 453e 8207 413e 9ffd 6b3d 87f2 26bc
000000d0: 0091 2fbc fbbd 6fbd 6eaa 7d3c 9d8c 08be
000000e0: b2c0 51bc 8ffe 1f3e 48c6 7bbd 625b c73d
000000f0: 60e7 a63c a13d 0fbe 946c 213e fecf 0d3e
00000100: 4896 e53d 0357 5ebd 6ce5 09be b7b5 353e
00000110: 108c 40bd 7ed3 1ebd 2a37 88bd 7f4d 553d
00000120: 0942 d2bc 139d 55bd 7c33 e0bd d317 52bc
00000130: 8356 40be 984a 923d 4e30 313e 4954 9cbd
00000140: 374f 053e d846 3cbe 56b0 f6bd 0ddf 433d
00000150: 330b eabc 7e7f 273d 8d27 f23d 19dd bbbd
00000160: fa1e 903d 8064 013e 567e 283d 55f2 2a3e
00000170: d4a0 3c3d e2ac 7abc efac eabc 92dc 1ebb
00000180: 37ac 35be 72d7 3abd 92a9 16be 0314 1ebe
00000190: 0322 ee3c 9913 a1bb 7138 063e 148d 073b
000001a0: 837a 3d3e 888a 2dbe d88e 3cbc d7fd 34be
000001b0: 9435 ba3d fbf3 13be 2bb7 dd3d b318 3239
000001c0: 1ea8 91bd 6bb2 1dbe 0633 5cbd eb03 7dbd
000001d0: 5ca7 a13c 55ae 093d bd87 28be c7ee 41bd
000001e0: 21a4 2d3e 35ff fdbc a800 3c3e f80b 0d3e
000001f0: 8ac3 2c3e 4e6d 833d 68c5 4a3d 485a 1ebd
00000200: bb5c c9bd 6af3 43bd 0c9b 9d3d f301 19bd
00000210: e575 243e 1444 953d 6979 b2bd 43dd 8ebd
00000220: 07ea fa3d 7973 8abd 118c 2c3e 54dc 3a3e
00000230: dc13 6e3d f58a f7bd 5c03 d53d ae77 c83d
00000240: c6b7 c7bd 18a4 29bd d7fd 53bc a1fb f8bd
00000250: 2850 c13c 561b 84bd ed2e 883c db49 0dbe
00000260: 8723 ed3d ae74 20bd bd61 053e 4d49 153e
00000270: e1c5 e83d 296e 3a3d bf78 793d a512 d13c
00000280: b531 cdbd 7912 1b3e ecaf 093e 164f e7bc
00000290: 35c4 88bc f9a8 e63c b608 173e da72 a1bd
000002a0: 4b48 1f3e 5e26 143e 68ab 3fbe 915f 9f3d
000002b0: dae9 903d cbb7 46bc a8de 04be 8425 0e3e
000002c0: fddf 21be b1be 21be a335 0c3e 6bf5 fb3c
000002d0: f0d3 3ebe 868f 0c3b a3de e8bd 0d48 04be
000002e0: dc3f 2fb9 d2a9 a0bb 16f7 8e3a 9fd7 463e
000002f0: bfff a63d f3b8 78bd 422f 8c3d b525 b0bd
00000300: 92e1 f8bd 4d92 3ebd 6e59 abbc 5881 39be
00000310: f8be 1ebe 0e58 49be 0bce a83d 7fcb 843c
00000320: aaee 1d3c 8d8d 633c 1ae2 49bc aecc 0bbe
00000330: 0d49 053d 73d1 713d 351e 66bd 75de f5bd
00000340: 001b fabd f740 c4bd f80e 1b3e 31f0 a33b
00000350: cea9 75bc 6141 ae3d ef67 1abd 71ca 86bb
00000360: d12b b53d a3d2 dc3d 8107 28bd c998 a0bd
00000370: 0c6b f93d 4178 1fbe 4340 3c3e f475 34bd
00000380: 8bb9 dabb bb84 553d 9cae 93bd 602e f6bc
00000390: c723 87bc d0f9 ecbd 5d7d a1bd e433 3d3e
000003a0: 5a3d 3e3d 19a3 ab3d 7a9c 133e e2c2 413e
000003b0: d115 d13d abea e03c 99ff 02be ec99 ec3c
000003c0: d84f 093e 5f8f 19be 2c9b b0bd 7ae5 a9bd
000003d0: 6c7f 373e 3cca d03d 89fe 893d 4627 25bd
000003e0: 2791 99bd aac5 36be 5c26 ed3d 05c1 c5bd
000003f0: 77b6 883d 66b0 5cbd 5e6b debd 1219 373e
-0.10727435 0.15382124 -0.0754754 0.18625897 -0.021790907 -0.0020462817 0.0046334495 -0.124881916
0.055759 -0.15720561 -0.11260063 -0.0015716047 -0.17437853 -0.10307353 -0.033260718 -0.0012658795
-0.13521375 0.066350676 0.16366082 -0.07356544 -0.07637451 -0.1198861 -0.029382763 -0.087365784
-0.044042572 -0.03322596 -0.15994832 -0.16223189 -0.1528486 0.017041948 0.072446816 0.009878375
0.12750061 0.024925672 -0.015114499 -0.13289182 -0.12397851 0.06364779 0.057226386 -0.07187286
-0.18309632 0.10862726 -0.046524677 -0.18565005 0.101680174 0.06210092 0.05113037 -0.0050898446
0.19250889 0.1885052 0.05761492 -0.010189659 -0.010715723 -0.05853079 0.015482528 -0.1333489
-0.01280229 0.1562445 -0.061468393 0.09734227 0.020374 -0.13988353 0.15764076 0.13848874
0.112103045 -0.0542822 -0.13466424 0.177451 -0.047008574 -0.038775913 -0.06651147 0.05207586
-0.025666254 -0.05215175 -0.1094732 -0.012823063 -0.18783002 0.07143134 0.17303583 -0.076332636
0.130185 -0.183864 -0.12045352 0.04782014 -0.028569793 0.04089307 0.1182395 -0.091730304
0.07037158 0.12635994 0.04113611 0.16694005 0.046051815 -0.015300008 -0.028646914 -0.0024240357
-0.17741476 -0.04561562 -0.14713123 -0.15437321 0.029068952 -0.0049156663 0.13107468 0.0020683454
0.18503766 -0.16947377 -0.011508666 -0.17674957 0.090922505 -0.1444854 0.10825952 0.00016984604
-0.07112144 -0.15400092 -0.053759597 -0.061771315 0.019733123 0.03361352 -0.1645803 -0.047346856
0.16957141 -0.031005481 0.18359625 0.13774097 0.16871467 0.064173326 0.049504668 -0.038660318
-0.0983214 -0.04783956 0.076955885 -0.037355375 0.16060598 0.072883755 -0.087145634 -0.06975796
0.122516684 -0.06760306 0.16850306 0.18248111 0.058124408 -0.12087051 0.104010314 0.09788452
-0.09751849 -0.041416258 -0.012938938 -0.121573694 0.023597792 -0.064505264 0.016623938 -0.13797705
0.11579042 -0.039173774 0.13025565 0.14578743 0.113658674 0.045515213 0.060906168 0.025521586
-0.100192465 0.15143766 0.13446015 -0.028235953 -0.016695121 0.028156744 0.14749417 -0.07883234
0.15554921 0.14467761 -0.1871773 0.077819 0.07075854 -0.012128781 -0.12975562 0.13881499
-0.15808101 -0.15795399 0.13692336 0.030756673 -0.18635535 0.0021447851 -0.113705896 -0.1291811
-0.0001671309 -0.0049030567 0.0010907378 0.1941819 0.081542484 -0.060723256 0.06844951 -0.08600942
-0.12152399 -0.046526242 -0.020916667 -0.18115747 -0.15502536 -0.19662496 0.082424246 0.016210316
0.0096394215 0.013888729 -0.012321973 -0.13652298 0.03254037 0.059037637 -0.05618115 -0.12005321
-0.12212181 -0.095827036 0.15142429 0.0050029983 -0.014994098 0.08508564 -0.037696775 -0.0041134884
0.08846248 0.10782363 -0.04102278 -0.078416415 0.12178621 -0.15573217 0.18383889 -0.0440578
-0.0066749505 0.052128535 -0.072110385 -0.03005141 -0.016496552 -0.115710855 -0.07885239 0.18476826
0.04644523 0.08380718 0.1441516 0.18921998 0.10209239 0.027455648 -0.12792815 0.02888199
0.13409364 -0.14996098 -0.08623347 -0.08295722 0.17919701 0.10194823 0.06738002 -0.040320657
-0.07498389 -0.1784884 0.11579582 -0.09655956 0.066754274 -0.053879164 -0.108603224 0.17880657

dtgl.gcn_layers.0.linear.weight f4 [64, 64]
00000000: ac1d c5bc ca77 d73a 203a c13d d519 71bb
00000010: 4849 72bd 0365 b4bc 27cb edbb c79a 553d
00000020: 8249 8e3d 1fb0 dbbd 4885 a83d ad72 7a3d
00000030: 2aa8 f7bb ff39 e03d f23a 963d a6a5 0ebd
00000040: 2ad3 3f3d fce2 c23c bca6 edbd 759f fbbd
00000050: e61c 633c b343 d5bd 3b2e 813d 5761 a3bb
00000060: 7437 5ebd bb1c f2bc 31bf b1bd a2ab a4bd
00000070: 4f46 823c 122d a23d 1168 d63d 2fa8 ac3d
00000080: ceb5 bf3d 27e0 053b a900 7b3d 881c aa3d
00000090: 3f45 5a3d cae4 5b3d 3127 d1bd 87e0 d3bd
000000a0: dd77 56bb 962d e2bd c098 b8bc 6b92 4ebd
000000b0: 1be6 33bc 38f3 8dbc bb22 fcbc cac2 033c
000000c0: 71f5 c23d 8e11 803d 34d9 afbd a6c7 cebd
000000d0: 71a6 2e3d ca0a c13d f0c8 e9bd 8d3e d9bd
000000e0: 40ac 3e3b d71f 893d ebdb f0bd e4c0 2fbd
000000f0: cfcb c3bd 59cf 31bc bc24 13bd 5bac d2bd
00000100: ea5a 9cbd e461 9b3d 04d0 553c 7214 17bd
00000110: 0d10 be3d 0bd0 afbd d4a7 36bd a29e e63d
00000120: c357 abbd 1117 203d 6710 0abd 3353 f13d
00000130: 7c23 543d 05ab ee3d 3a48 ddbd c74a d73a
00000140: ed2a 903c 240f ca3c 0872 0d3c 7529 d23d
00000150: c6d5 a6bc e047 8dbd 6ff9 6bbd 1405 d2bd
00000160: 4692 22bd dc31 19bd a955 e83d 4475 813c
00000170: 1fd3 013d fefd 20bd 9119 e83d 2544 e33d
00000180: 1d1f d43d f537 6f3d 4471 e9bc 875e 853d
00000190: 0451 bf3d 28a8 e23d cf8d b73c 7e9d c0bd
000001a0: 4680 9bbc 1376 5ebd ce9e 303d 2ee3 09bc
000001b0: fe13 b23d 7be6 13bd d728 9c3d d0bf f23b
000001c0: d201 c43d 72b2 b5bc b705 a1bd e1ec 0c3d
000001d0: d00c 94bc cb32 f93d 132b d8bd a7c8 cdbc
000001e0: aefb fe3d 798b d3bd c3da 9e3d 1e3f debc
000001f0: 08cf 04bc 59f0 193d f20a fb3d 997c a53c
00000200: 57af d0bd 4126 c13d 722d 8f3c 2482 07bc
00000210: 1a4f 23bd 49ad 623d daae d53d 1b9f 043d
00000220: f46f 98bd 344c c5bd 3413 ffbb ffb2 8b3d
00000230: d290 5b3d 3035 a93d 2d17 4abd 98e8 a6bd
00000240: b3a5 f13d 4a9f 933d 2563 d0bd 8b24 ce3d
00000250: 07ff e6bd 88ff 2e3d 94ed c03d 0622 debd
00000260: 1a30 b2bb 23fc 223d 1c0d 10bc de6d d33c
00000270: e5b7 c63d 6810 01bd 08ad e23d 6485 293d
00000280: 6b03 adbc 1ac9 113b a6fb 973d c6a2 2c3d
00000290: 5852 723d 817f a1bd b38c 2ebd 3931 9bbc
000002a0: a086 e73d 737e 3cbd c89e c83d ab6b 40bd
000002b0: ad41 603d cabb 83bc 4531 183d 9da5 2ebd
000002c0: 5e38 39bc 81e8 c5bd dd49 9a3d 0158 973d
000002d0: 5955 26bd e2c7 d13c 05ba c03b 4836 9cbc
000002e0: f4f2 793d 2959 edbd 6e63 2fbd c4d2 a43d
000002f0: 09b8 ce3c c9cf 8fbc 6cd5 d23d 9e15 8bbd
00000300: 56a9 ffbd 51bd 83bd a17c e3bd f602 e7bd
00000310: 2cd2 11bc 4113 8d3d b6a1 db3d 5278 d6bd
00000320: b6cd 3a3d bf13 cebd ffba d1bc f0ad 993d
00000330: ab73 04be 7c95 75bd 376d b5bc fe9e c1bd
00000340: 6ac2 e6bc b68e b33d bf7c 7b3d 6165 1dbd
00000350: 57be b93d 8edd da3d aaaf d7bd 6511 583c
00000360: 6bb5 703d 70d5 833c 1c02 9b3d 4b50 913d
00000370: de2a f3bd d6e3 e43d bc74 65bd a44c 60bd
00000380: 3ee7 e83d 43a0 ea3d 6234 55bd 26e5 70bd
00000390: 0b85 b73d 4bb1 ce3d 14a6 a83d 17fc 06be
000003a0: a05f 3c3d 1122 83bc c6ed 993d 1ecc 9ebc
000003b0: 79d0 103d 4c62 80bd 3f3d a53d 8811 fd3c
000003c0: b3a3 e6bd 8e00 7e3d c597 c9bd f62a 67bc
000003d0: b358 843d e6df 0abd 0ef8 aebc 5b0f d13d
000003e0: f20f c5bd 2cf7 c1bd 5105 c93d b2bc 873d
000003f0: 859c b8bc 39b8 d2bb 019f c93d 683f 883d
-0.024062 0.0016438898 0.094349146 -0.0036789079 -0.059151918 -0.022020822 -0.0072568837 0.05214956
0.06947614 -0.10726952 0.082285464 0.06114452 -0.0075578885 0.10948562 0.07335462 -0.034825943
0.04683224 0.023789875 -0.11604068 -0.122862734 0.01386187 -0.10413303 0.06307646 -0.004985969
-0.054252103 -0.029554715 -0.08679045 -0.08040549 0.015902666 0.07918753 0.10469068 0.08430516
0.09360848 0.0020427795 0.061279926 0.08306223 0.053288694 0.053684987 -0.10212553 -0.103455596
-0.0032725253 -0.11043851 -0.022533774 -0.050432604 -0.010980154 -0.01732789 -0.03077828 0.008042047
0.095194705 0.06253348 -0.0858635 -0.10096674 0.0426392 0.09425886 -0.11415279 -0.10607634
0.0029094368 0.06695526 -0.11760696 -0.042908564 -0.09560358 -0.010852658 -0.035923705 -0.102867804
-0.07634528 0.075870305 0.013050083 -0.036884733 0.09280405 -0.08584603 -0.044593647 0.112607256
-0.083663486 0.039084498 -0.03370705 0.11783447 0.051791653 0.11653713 -0.10804792 0.0016425484
0.017598594 0.024665423 0.008633144 0.102618136 -0.020365607 -0.06898475 -0.057610925 -0.10254875
-0.03969028 -0.037401065 0.113444634 0.015802987 0.03169548 -0.039304726 0.113330014 0.11096982
0.10357497 0.058402974 -0.028496392 0.0651217 0.093416244 0.110672295 0.022406487 -0.09405039
-0.018982064 -0.054311823 0.043120198 -0.00841598 0.086952195 -0.036108475 0.07624977 0.0074081197
0.0957066 -0.022179816 -0.07862418 0.034405593 -0.018072516 0.12167891 -0.10555091 -0.025120093
0.12450348 -0.10329337 0.07756569 -0.027129706 -0.008106001 0.03758273 0.12257947 0.020201014
-0.101896934 0.094311245 0.017477725 -0.008270774 -0.03987036 0.05534104 0.10433741 0.032378297
-0.07443228 -0.09633675 -0.0077842716 0.0682125 0.05360491 0.08262098 -0.04933851 -0.081498325
0.11799183 0.07208116 -0.1017516 0.10065564 -0.11279111 0.042724162 0.094203144 -0.10846333
-0.005437863 0.039791238 -0.008792188 0.025809225 0.09703044 -0.031509787 0.11068159 0.041386977
-0.021119794 0.002224511 0.07421045 0.04214742 0.05916056 -0.078856476 -0.04261465 -0.01894437
0.113049746 -0.04601903 0.0979591 -0.04697768 0.054750133 -0.016080756 0.037156362 -0.04263841
-0.011304943 -0.09663487 0.075336196 0.07389832 -0.040608738 0.025608007 0.0058815503 -0.019068852
0.061022714 -0.115892716 -0.042819433 0.08048013 0.02523424 -0.017555134 0.10294613 -0.067912325
-0.1248347 -0.064325936 -0.111077555 -0.11279862 -0.008900207 0.06888438 0.10724203 -0.10472168
0.045606337 -0.1006236 -0.025601862 0.07503879 -0.12934749 -0.059957013 -0.022146804 -0.094541535
-0.028168876 0.08767454 0.061398264 -0.03842676 0.090695076 0.106867895 -0.10531552 0.013187741
0.058766764 0.016092986 0.07568762 0.07095393 -0.11873411 0.11176269 -0.05601953 -0.05476059
0.11372231 0.11456349 -0.05205191 -0.058812283 0.08960923 0.1009241 0.08234802 -0.13182102
0.045989633 -0.016007455 0.07516055 -0.01938444 0.035355065 -0.06268749 0.080683224 0.030892149
-0.11261692 0.062012248 -0.09843401 -0.014109364 0.064622305 -0.033904932 -0.021358516 0.10208007
-0.09622182 -0.094709724 0.09815467 0.06627788 -0.022535572 -0.0064306525 0.09844781 0.06652719

dtgl.gcn_layers.0.linear.bias f4 [64]
00000000: bf78 1d3d 44a6 f2bc a2b0 bfbd 06aa e0bd
00000010: e487 ed3c 6b7e 12bd 419c d0bd 8634 a9bd
00000020: 6368 763b e2cf 87bd 0169 d9bc 70f8 083d
00000030: 30a8 ddbd d0e6 67bb 0564 9dbd 4d42 8bbd
00000040: 3d9b afbd 641d 9b3d 7a05 66bd d4bb f4bd
00000050: 1d68 ad3d 6bf4 d1bd bf07 85bd 9a55 ecbd
00000060: 3259 ca3c 0ba6 cc3d d3b1 1e3d 9b85 83bc
00000070: 7d77 79bd 76cd ba3d 7473 b03d 1c80 b7bd
00000080: 219a 56bd 1756 e03d 1c7f f7bb fbcb d43c
00000090: 85bb 253c af35 60bc 8a4d e5bb faba c2bd
000000a0: 0960 27bd 3166 bfbd 854d dfbd 23f6 b23d
000000b0: c368 2f3d fe00 aabd 897b 4e3c 7c28 ffbc
000000c0: 425e e43d 6fd3 71bd 4098 8c3b 16b1 42bd
000000d0: b09e be3d d4c4 f0bd 1b81 9cbd 416d a1bc
000000e0: 7d15 9dbd 8b84 8bbc df33 833d 9d8e c63d
000000f0: f23a ff3c b95f 72bc a488 3c3b 81e7 f73d
0.03844523 -0.029620297 -0.09359862 -0.109699294 0.028995462 -0.035765093 -0.10186053 -0.08261971
0.003759884 -0.066314474 -0.026539328 0.033440053 -0.10823095 -0.0035385378 -0.07685093 -0.06799755
-0.08574531 0.07573965 -0.056157567 -0.11949888 0.08467124 -0.10251697 -0.06495618 -0.11539765
0.024700735 0.09992608 0.038743805 -0.016054919 -0.06090497 0.0912122 0.08615771 -0.08959982
-0.052393083 0.1095392 -0.0075529944 0.025976172 0.010115509 -0.013684674 -0.006997769 -0.09508319
-0.04086307 -0.09345663 -0.109034576 0.08738353 0.042824518 -0.083009705 0.012602695 -0.031147234
0.11150791 -0.05903953 0.0042906106 -0.047532164 0.09307611 -0.11756292 -0.076418124 -0.019705417
-0.07670114 -0.017030975 0.06406378 0.0969517 0.031156037 -0.01479333 0.0028767968 0.12104703

dtgl.gcn_layers.1.linear.weight f4 [64, 64]
00000000: d6be 61bd 5d0e a53d 9eb8 b93d b0d0 5d3d
00000010: e2ca b8bd cc0a b33b 7f29 19bd 62fe 80bc
00000020: f737 cf3d 6458 b13c cc74 983a 9bf4 dbbd
00000030: fa9f b9bb 33a4 d63d 30d0 84bd 34c9 583d
00000040: 90f7 5c3d d276 a5bd 62da c23d ca35 8c3c
00000050: d9fe 213c 4923 de3c ee6b caba f15e a33d
00000060: 2ef5 5e3d 7063 80bd ca9b e5bd 7757 7cbd
00000070: fbff 9f3b 1b4b ad3d d7f9 7f3d 58e3 e9bd
00000080: e790 283d 91f6 783d a25d ebbd 2605 573d
00000090: 5d0b dcbd b6b4 743d 57fb b5bd 597e ddbc
000000a0: 15f9 eabb 1214 75bd 50dc 903d 2968 b7bd
000000b0: d50d 8fbd 110c d7bd 1e8a d03d e52f c1bd
000000c0: 7082 e03c e827 91bc 7780 adbc 0105 6bbd
000000d0: ddbb aabd 1110 8b3b 56f8 103b 2f26 25bd
000000e0: 9367 4a3d d6d6 4c3d 8708 a23d 331a bf3d
000000f0: d3d9 9c3d 8aae f53c deec 523d 7e0c 533d
00000100: e1bd f73d dbbb d4bd 7c2f 16bd 8a8e de3d
00000110: 3f97 e6bd c258 c1bd b28d f6b9 ad66 5c3d
00000120: f87f f5bd b426 cb3d 8290 93bd 9b52 be3d
00000130: 3eb3 083d c571 a5bd 81db b4bd 25a8 603d
00000140: 83fd b63d bc1f d03c a097 3e3d 0e92 b43d
00000150: fe3f 9d3b 13bb 5c3c bd77 01bb fc16 97bc
00000160: 2db0 65bd 9cce 6ebc d52c 29bd b369 f03c
00000170: 8ee8 d1bd 007d 8a3d c840 313d e3e5 fd3c
00000180: 384d 94bc 3ffd 723c 6eb8 963c 1a60 663c
00000190: c194 7dbc 7f89 94bd eb8b 433d 2940 0c3c
000001a0: bbb5 8a3b 8ba3 b4bd 7a9a b63d be9e c73d
000001b0: 9655 c5bd f747 293d 8d77 c33b f9ea 85bc
000001c0: 6431 b9bd 3412 9e3d 7496 2e3d ca78 63bd
000001d0: 4f2c 4b3b 3544 6dbd 2fcc c1bd 06df a33d
000001e0: 6f0e 39bc 5a18 943d 74ca e93c eaf1 b4bd
000001f0: c695 80bd d858 debd 7700 a6bc b100 f3bb
00000200: c247 dabd eb2a 43bd e2e2 a6bd 41f4 6bbd
00000210: e9a6 b2bd f633 8cbd b0bc 10bd 79cc a0bd
00000220: 56db 33bd d79f 01be 28a9 d0bc e117 d7bd
00000230: f38a 8c3d 6236 d9bd 4647 a3bd 2ec0 03bc
00000240: 50ab c83d 000c 573d 365d 8f3c 4f1f c9bd
00000250: 5406 923d befa c33b f267 c1bd 57a9 71bd
00000260: c0cc a33d a7ac e23d c51f dc3d 03d8 4a3c
00000270: 6d99 783d 4ff1 253d ef01 ac3b b5bb 3a3d
00000280: bdfc 02bb f2e8 d73d 57a8 ef3d 3ba1 c03b
00000290: b7b4 5fbd dc16 5dbd 7262 2bbc b318 7a3d
000002a0: 848b d53c 3363 943d ead7 b13d 8baa 313d
000002b0: c316 e3bc f569 89bd ff03 0e3b 0ce0 bc3c
000002c0: 2419 d7bd 2007 d73d 3497 a8bd 1278 533c
000002d0: e67f b1bc 22b4 843d b403 e53d f91c b2bc
000002e0: cf06 09bc 0228 81bc 6988 5f3d 0e13 4c3c
000002f0: c4e9 8a3d 20d4 92bd 4bfa 8c3c 5d76 623d
00000300: 6533 aebc 3ef5 b2bd 315c b0bd a19d cb3c
00000310: 35d2 0dbd c48e 003d 5ac8 ca3d cd58 b7bd
00000320: 177e 553d 9034 d93d c858 a0bd 6f8c 71bb
00000330: 625c 9c3c 6bd8 d1bd 2584 c43d 86f3 eabd
00000340: 77cb af3d babd cbbd 51ea cbbc 5c28 dc3d
00000350: ad7f 86bc 5760 c33d 9bb7 303b 9636 d2bd
00000360: e166 83bd a1bb 8c3d 2172 e3bd 26dc 203d
00000370: 2549 01bd 9139 fdbd 448f cb3d e7e5 c63d
00000380: 929a 92ba 7b81 d5bd 0cba ecbd bab2 01be
00000390: 14d8 c33c 97fd c939 7199 a8bd 6652 a43d
000003a0: 0a60 79ba 6de6 05be 1263 b33c 2672 b93d
000003b0: c235 83bb b976 e43d 9b92 20ba a58c 1d3d
000003c0: 4865 d33d 76ea 19bc d312 98bc 99de ddbb
000003d0: 3819 ef3c 22e0 eb3d 3342 e83d cc7b 9bbd
000003e0: 9ca0 f23c a48e 5fbd e6b3 22bb a7db c9b9
000003f0: dafa ca3d 4411 3ebb add7 d2bd 4dd5 143a
-0.055113636 0.0805938 0.09068416 0.054154098 -0.09023072 0.0054639336 -0.03739309 -0.0157463
0.10118096 0.021648593 0.0011631488 -0.10740014 -0.0056648226 0.10480537 -0.06485021 0.052926257
0.05394703 -0.08079304 0.095143095 0.017115492 0.009887421 0.027116435 -0.0015443543 0.07977093
0.05443304 -0.06268966 -0.11211355 -0.06160685 0.00488281 0.08461591 0.062494125 -0.114203155
0.041153815 0.06078202 -0.114924684 0.052495144 -0.10744355 0.059742652 -0.0888583 -0.027037786
-0.007170806 -0.059833594 0.07073271 -0.08955414 -0.0698506 -0.10500348 0.10182594 -0.09432963
0.027405947 -0.017719224 -0.02117942 -0.05737782 -0.08336613 0.0042438586 0.0022120676 -0.040319618
0.049415182 0.05000957 0.07911783 0.09331169 0.07658734 0.029990453 0.051495425 0.051525585
0.120967634 -0.10387393 -0.03666638 0.10867031 -0.11259317 -0.09440757 -0.00047026348 0.053808857
-0.11987299 0.099194914 -0.07205297 0.092930995 0.033374064 -0.080783404 -0.088309295 0.054847855
0.08935072 0.025405757 0.04653132 0.0881692 0.004798888 0.013472336 -0.0019755207 -0.018443577
-0.056076217 -0.014575627 -0.04130252 0.029347276 -0.102494344 0.06762123 0.04327467 0.030993408
-0.018103227 0.014830886 0.01839849 0.014060998 -0.01547736 -0.07252788 0.047740858 0.008560219
0.0042330897 -0.08820256 0.08916183 0.097470745 -0.09635465 0.041328397 0.0059651793 -0.016347395
-0.09042624 0.07718316 0.042623952 -0.055535115 0.0031001752 -0.057926375 -0.09462773 0.08001523
-0.011294945 0.07231207 0.02853892 -0.08835204 -0.06278567 -0.10856789 -0.020263894 -0.007415854
-0.10658218 -0.04764835 -0.08148743 -0.057605986 -0.08723242 -0.06845848 -0.035336196 -0.078515
-0.043910347 -0.1265863 -0.025471285 -0.105026014 0.0686244 -0.10606076 -0.07972579 -0.008041425
0.097983 0.05250168 0.017500501 -0.09820425 0.07130113 0.0059808185 -0.09443654 -0.058999386
0.07998037 0.11068087 0.10748247 0.012380603 0.060693193 0.040513333 0.005249254 0.045589168
-0.001998707 0.10542478 0.1170203 0.005878595 -0.054615702 -0.05397688 -0.010460483 0.06105871
0.026067503 0.07245483 0.086837605 0.043375533 -0.027720815 -0.06709663 0.0021669862 0.023056053
-0.10502842 0.10499406 -0.08231965 0.012907045 -0.021667432 0.0647967 0.11182347 -0.02174233
-0.00836344 -0.015766148 0.05457345 0.012455715 0.067828685 -0.07169366 0.017209193 0.05528866
-0.021264741 -0.087381825 -0.08611334 0.024855437 -0.034624297 0.031386152 0.09901495 -0.08952484
0.0521222 0.106057286 -0.07829434 -0.0036857387 0.01908702 -0.102463566 0.09595517 -0.1147223
0.0858373 -0.09948297 -0.024892004 0.107498854 -0.016418302 0.0953986 0.0026964906 -0.10264318
-0.06416107 0.06871725 -0.11105753 0.03927245 -0.031563897 -0.123644955 0.09939435 0.09711819
-0.0011184982 -0.10425087 -0.11558923 -0.12665835 0.023906745 0.00038526647 -0.082323916 0.08023529
-0.0009512907 -0.13076182 0.021897826 0.09054975 -0.004004211 0.11155457 -0.00061253615 0.038464207
0.10322052 -0.009394279 -0.018563664 -0.0067709205 0.02918683 0.11517359 0.113407515 -0.07591972
0.0296176 -0.054579392 -0.0024826466 -0.0003850136 0.099111274 -0.002900199 -0.10295043 0.0005677536

dtgl.gcn_layers.1.linear.bias f4 [64]
00000000: ee18 dabb 5012 40bd f91b d63d 3fb8 3abd
00000010: 3a35 803d 9bf1 893d a9b1 d93d e715 febc
00000020: 2ab5 f0bd f53d a53b 5570 bebb c88d c83c
00000030: d82a b63d e872 bf3d 65b4 d8bd 5fbd 833b
00000040: 1c09 b3bc 21b9 efbc 2464 c93d 54fb b33b
00000050: 40ee 503d 1abd 6cbd 50cd 4c3d 6024 90bb
00000060: 8135 c0bc 2bcc 3abd 7dde 5ebc b08f ac3d
00000070: cd5f 8b3d c824 e7bd aa90 f13c e54e c93d
00000080: 9d90 bbbd fc5b 013c 7b8a 713d 4692 f43d
00000090: 87cf 05bd 9088 b03c dc68 19bd 405a ecbd
000000a0: 2a1b 4e3d 6bb5 37bd 058f 9bba 2bb3 f33d
000000b0: d1f3 aa3d cc67 0f3d 6aa2 c23d 405f 9bbc
000000c0: 0f09 db3d 1e0a 76bd f8ee ce3d fa26 663c
000000d0: e215 e13d 2a87 53bc 2c96 223d b7f0 f83b
000000e0: db35 abbd 3579 c43d 59a6 793b 058c bebd
000000f0: 6f4b a9bd b437 aebd f270 c3bd 10ab 5fbc
-0.006655804 -0.046892464 0.10454554 -0.045585867 0.06260152 0.06735536 0.10629589 -0.031016303
-0.11753304 0.0050427862 -0.005811731 0.024481669 0.088948905 0.093480885 -0.105812825 0.0040203775
-0.02185493 -0.029263081 0.098335534 0.005492607 0.051008463 -0.05779753 0.05000049 -0.0043988675
-0.023463013 -0.045604866 -0.01360285 0.08425844 0.06805382 -0.11286312 0.029487927 0.09829501
-0.09158442 0.007895466 0.058969956 0.11941962 -0.032668617 0.021549493 -0.037453517 -0.11540651
0.050318874 -0.044850748 -0.0011868185 0.11899408 0.083472855 0.035011098 0.09503634 -0.018966317
0.10695087 -0.060068242 0.101041734 0.014047379 0.10990502 -0.012910644 0.039693996 0.007597055
-0.083598815 0.09593431 0.0038093536 -0.0930405 -0.08266341 -0.08506718 -0.09543027 -0.013651624

dtgl.lstm_layers.0.weight_ih_l0 f4 [256, 64]
00000000: a7fa 77bb cdad e6bd d82e f5bc 91cb f33c
00000010: 0cfd 38bd dfd2 983c 2af3 923c 5375 4bbc
00000020: 3d8e 813c 9a4a f1bd f4ac 633d b074 8ebd
00000030: d57d f03d 1917 c13d 4023 bebc d0a0 eb3d
00000040: 27bc fe3c a2b7 08bd d4e5 eb3d f18f cc3c
00000050: 242e c7bc 6773 c23b de1a 8c3b b7a0 ee3c
00000060: 4974 f63b f0ad 803d a72e 31ba 5e2c b4bd
00000070: 1932 c33d dc3f 3f3d e65c 22bd 8281 9f3c
00000080: 7b8f 8f3d 818b a43d d3a1 0c3d eaee b4bd
00000090: 1d91 c13d 9d52 6539 353c 39ba 0e67 0ebd
000000a0: ca4f 353d 6cf2 4bbd b894 f5bc e8e3 36bd
000000b0: 0bcd b638 bfbc cfbc 17f8 d03d 54d8 a4bb
000000c0: c55a 57bc 0605 92bc fd11 cf3d f9a3 c93d
000000d0: cd50 c4bc e5fe ed3d 8e03 68bd b5cc 42bd
000000e0: 620d bb3d 2cdc d5bd 857a 043e 5591 e6bb
000000f0: 58c7 afbd 6c67 bdbc 5294 a7bd 3f6b 42bd
00000100: a2ec d7bd a570 433d 6602 4d3d 1c60 c0bd
00000110: e157 aebd 11f6 23bd f213 c83b 7464 d83d
00000120: 3c42 ea3c 576e 853d 45fe 133d 042f eabc
00000130: 4152 4ebc 75dd 3db9 d6c6 72bd 23e8 64bd
00000140: 860e af3d f1ac 503d 9d1d 81bd ce7b 003d
00000150: b8b6 17bc 3122 923c 9e6b 063c 4908 ecbc
00000160: 1e27 8b39 3ad1 2ebd bdc4 34bd 545d ac3d
00000170: a821 c93d 8572 3a3d 2f93 fa3c 7b3c 673d
00000180: 7493 ce3c b924 20bd d9fd 75bd 26d9 61bc
00000190: 41d6 f93c 4b8b 423d 497a 85bc 8579 a23d
000001a0: 98e3 c03c 9c34 ae3d 4a33 15bd 6fdf 25bd
000001b0: bf50 8abd de41 e73d 3c75 debd 6312 b7bd
000001c0: 5ef5 b83d 7d8c 743c 8eae 6f3d 8e6b 183d
000001d0: a94e ab3c 8a50 bfbc a83a 38bd 2724 c6bc
000001e0: 6a3a 33bd 7643 7dba 374e da3d 3307 9f3d
000001f0: 8fa4 363d ec50 61bd 2914 d3bd 5a05 27bc
00000200: 9f9a a93d fe70 f73c 84eb ee3c d7f9 7d3d
00000210: 2e10 383c 9918 78bd 4179 d03d c720 a7bd
00000220: 07fa b5bd ade9 fc3b 0ef5 94bd 383a b5bd
00000230: 4b6e fa3c 8a21 c0bd 8d7e d93d fa10 bf3d
00000240: 6af1 2abd 65e8 fe3b 3267 17bb bb86 b43d
00000250: 01a8 a3bd 05a8 c2ba 2e70 e03d 6c58 a4bd
00000260: 4d98 60b9 af73 35bd 2eef e5bd 6419 ea3d
00000270: f8c8 083a ef5f 5bbd 601b d03d 0707 26bc
00000280: 9e26 20bb efa6 58bd 0e14 febc 052f c1bd
00000290: 4af3 1fbd 0fe8 ac3d 5729 4a3d 4d42 fb3c
000002a0: f728 a9bc bf2e d43d 226a ac3c e07c 443a
000002b0: 7626 c43d fd97 0dbd 1aaa 8fbd 25ce 96bc
000002c0: e377 d53d 8bb1 d2bc dd57 bbbd 24a5 65bc
000002d0: af72 3f3d bfcf e03d 7af2 69bc 4432 65bb
000002e0: a0a4 13bb 1dd7 91bd e976 d73c e76e 513d
000002f0: d225 453c b958 4cb9 0b27 3cbd 4eb6 8ebc
00000300: 6a70 80bd 351f a43c 572f b63d a2bb d1bd
00000310: a8b1 19bd a076 e03d 10e3 a43c 06c1 ccbd
00000320: 717a a53c 2e6e 66bd 3905 df3c 331c da3a
00000330: 821a cf3d e6b0 5c3d 37c0 df3d 37cd b93d
00000340: a8f4 15bd edbe 6f3b a819 263c 1522 cb3d
00000350: f4e9 893d 5ddf c0bc c046 263d d0e3 1bbc
00000360: d9ad 9abd 27c1 ac3d e61c 83ba 1fb5 73bd
00000370: 5b6a 763c d1ce 85bd 1809 a13d 84db 2d3c
00000380: ba67 d9bd 91c9 113d a923 853c 2e3c 02be
00000390: 412b 163d 6fc5 0eba 8252 953c 381b 3d3d
000003a0: 86a9 bf3d ea8d bf3c 60ff 07bd 61c1 45bd
000003b0: fb0d a03d 7231 5b3d 810e d13d 8f44 c63b
000003c0: 5bd5 803d 627c ae3d 4cae babd a79c 04bd
000003d0: 4358 c33d b5b9 393c a871 77bd 2ece 72bd
000003e0: 7a3e 173c 5a4a 76bd 4ad7 a03d 3ad5 c93d
000003f0: 3875 a0bd f7f7 69bc 56d0 533c d327 603d
-0.003783861 -0.112636186 -0.029929563 0.029760154 -0.0451632 0.018655239 0.017938215 -0.012418109
0.015814895 -0.11781807 0.055584863 -0.0695585 0.117427506 0.09428234 -0.023210168 0.11505282
0.031095577 -0.03337825 0.115184456 0.02497098 -0.024313994 0.005934167 0.0042756638 0.02912937
0.0075211865 0.06283176 -0.0006758966 -0.08797525 0.0953104 0.04669176 -0.039639376 0.019470934
0.070097886 0.08034421 0.034334015 -0.08834632 0.09451506 0.00021869918 -0.00070661615 -0.03476625
0.044265546 -0.04979174 -0.029978141 -0.044650942 8.7166285e-05 -0.025358556 0.102035694 -0.005030671
-0.0131442 -0.017824661 0.10110853 0.098457284 -0.02396431 0.11620883 -0.056644015 -0.047558505
0.09133412 -0.10442385 0.12937362 -0.007036368 -0.08582944 -0.023120604 -0.08182587 -0.04746556
-0.10543181 0.047714848 0.050051115 -0.093933314 -0.08512855 -0.04002959 0.0061058933 0.10566035
0.028596036 0.06515186 0.036131162 -0.028586872 -0.012592853 -0.00018106944 -0.059271656 -0.055885445
0.08547692 0.05094618 -0.063044764 0.03136807 -0.009259872 0.01783857 0.008204369 -0.028812544
0.0002654129 -0.042680003 -0.044132937 0.084162384 0.098208725 0.04551937 0.03058776 0.056454163
0.025216796 -0.03909752 -0.06005654 -0.013784682 0.030497672 0.04749612 -0.016293662 0.07933334
0.023546025 0.08506128 -0.036425866 -0.040496286 -0.06753682 0.1129186 -0.108622044 -0.08939054
0.09031175 0.014926073 0.058516078 0.037211947 0.020911532 -0.023353834 -0.044977814 -0.02418716
-0.04375688 -0.00096612365 0.106594495 0.07765045 0.04459053 -0.055008814 -0.103065796 -0.010194147
0.08281445 0.030205246 0.029165037 0.062005844 0.011234326 -0.060570333 0.10179377 -0.08160549
-0.088855796 0.007718286 -0.07273303 -0.08848995 0.03057017 -0.09381397 0.10619841 0.0932941
-0.041734137 0.0077791684 -0.002310228 0.0881476 -0.079910286 -0.0014851099 0.109588966 -0.08024678
-0.00021419041 -0.044299778 -0.112272605 0.11430624 0.0005217935 -0.053558286 0.10161471 -0.010133511
-0.002443708 -0.052893575 -0.031015422 -0.094327964 -0.039050378 0.08442699 0.04935583 0.030671263
-0.020649416 0.103604786 0.021046702 0.00074954145 0.09577648 -0.034568775 -0.07014866 -0.018408844
0.10423257 -0.025719425 -0.09147618 -0.014016423 0.04674023 0.109771244 -0.014279002 -0.0034972588
-0.0022528544 -0.07121108 0.026301818 0.051131155 0.012032943 -0.00019488008 -0.04593567 -0.017420914
-0.06271441 0.020034412 0.08895748 -0.10240866 -0.03752294 0.10960126 0.020127803 -0.09997754
0.020199986 -0.05625742 0.02722417 0.0016640484 0.10112478 0.05387964 0.10925334 0.09072345
-0.036610276 0.0036582306 0.010137953 0.0991861 0.06734076 -0.023544008 0.040594816 -0.009514764
-0.0755269 0.084352784 -0.0010003119 -0.059498902 0.015040006 -0.06533588 0.078630626 0.010611419
-0.106154874 0.03559262 0.016252356 -0.12718269 0.036662344 -0.000544629 0.01822782 0.046168536
0.09358506 0.0233831 -0.03320253 -0.048280124 0.078151666 0.05351395 0.102078445 0.0060506533
0.06290694 0.08519818 -0.09115276 -0.032375958 0.09538319 0.01133578 -0.060411125 -0.05927866
0.009231204 -0.0601295 0.07853563 0.09855123 -0.07834858 -0.014280311 0.012928089 0.05472548

dtgl.lstm_layers.0.weight_hh_l0 f4 [256, 64]
00000000: aa2f 933d afe9 293d e49f 393d 0b16 72bd
00000010: d11b a53d 0cdb fb3b bed6 2dbb e9b8 573c
00000020: fe5c abbd de07 783d 937f c7bd 046b dfbd
00000030: 40d0 c0bd 1b02 afbc 1a92 d43d 12cd 1f3d
00000040: b720 e63d c652 f8b8 de35 ac3c 66d8 8abc
00000050: 4553 17bd 7307 953d 5345 b2bd 9690 323d
00000060: d154 953c fe61 3c3c 8abd 993c ecd0 613d
00000070: 873a 7abd dd5e dabd 27d5 1fbb c1b2 e6bd
00000080: e7ba 183c c101 583c 5c01 07bb 497f 84bd
00000090: 301e 4a3d d707 993d 0df9 47bd 9318 223d
000000a0: 50b8 6a3d d2d4 8cbd 177c 86ba a5e8 b03d
000000b0: 7c29 9c3d 198c 3a3d e922 33bd 5ab2 cfbc
000000c0: 574c ab3d 0175 9dbd 7e96 62bd 42ed 1e3d
000000d0: 3b48 223d 57c8 8b3d cda4 423c a97d 313d
000000e0: 8cfd 8e3c 6fb6 72bd 5858 bfbb d222 e13c
000000f0: 97ea e83c 8450 c6bd 352c 583c bb9c dabc
00000100: b743 8dbd b341 c33a d2dc 22bb 950b 86bc
00000110: c035 b3bd 7e80 a4bc a1d8 56bd d654 b5bc
00000120: 4729 2e3b b4f2 f9bc 257b d4bd c3a3 0b3d
00000130: 6e47 a13d e615 0dbd 8984 e6bd 537f a6bd
00000140: b15d 473d 8a10 cc3a 96e0 913d f3ab dfbc
00000150: 8e45 8d3d 1fab 8dba 09f6 1a3d 1ca4 96bd
00000160: cd91 d63c 744e 37bc b9cb d73d af6e 00bc
00000170: b1d1 bfbd 4a7d b93c 16e3 083d 32b3 83bc
00000180: f52f febc 500c 8a3d 8c6a 4a3d d07f 373d
00000190: ec3e da3d 03d4 4e3d 072e 95bc 9fb4 a4bd
000001a0: a364 433d b52e 243a d778 a3bd 2422 a5bd
000001b0: d4d3 543d d145 debd cbac 26bd b055 b93d
000001c0: efbc d4bd 6f0e df3d 5c07 2bbb 50df 30bd
000001d0: 5e5a 74bd 2269 983d 4e40 6d3d 9603 a7bd
000001e0: 20ef b1bd 1978 943b 2392 d9bd 965d 933d
000001f0: e845 5ebd 4550 8a3d af65 8c3d 35a0 86bc
00000200: c493 47bd 8440 b13d eaf5 4d3d 965c 463c
00000210: 1464 9fbd 82ef e6bb d755 de3d e8e5 15bc
00000220: 0876 babd 2625 2bbb 9509 213d 95f4 eabb
00000230: d6b7 c23d 7018 a4bd bfbd da3c 0013 723d
00000240: b8fe cdbd 1b71 e83d 19ae e0bd e60d d5bc
00000250: ccb5 e83d 158a 7fbd 4126 c73d dc2f b53d
00000260: 6732 57bd dda5 acbd ed02 d83c 52bf 743d
00000270: 0477 74bd e724 c6bc 6fc4 a23c 99f5 e6bc
00000280: 5562 cc3d 7413 03bd 3808 08bd 5e5e 8f3d
00000290: 8b90 133c f272 263a 48d9 ad3d 7466 56bd
000002a0: 4876 853d e6e6 183d 0e75 cc3d d0c4 8d3d
000002b0: bce4 b2bd 1809 d23a 0363 6ebd c86a 03bd
000002c0: f1b7 77ba 17be a13d fe92 d9bd d717 29bd
000002d0: c5c8 d33d b052 b8bc 7475 4abc 9218 14bc
000002e0: cb21 c13d 18a1 743d e489 bebd 5469 223b
000002f0: 51ba ab3c 2c3b 1c3d d501 033d 47d6 c43d
00000300: e9e5 1dbd 943b b13d 5adf a13d a6b7 38bd
00000310: f5a3 803d 0255 353c 817c f5b7 557b d53d
00000320: 39fa 983d 1e44 4ebd bc7a 59bc 2a08 783d
00000330: 7aa5 70bb d114 08bd ea22 863d e522 d9bd
00000340: 74de ff3c df82 a63c 5f77 89bd bc31 2e3b
00000350: 9f1f d43d f944 e2bd cfcb f5bc 4097 4d3d
00000360: 4ae8 7f3d ff62 9abc 8d90 c5bd 586f c93d
00000370: 931f 2e3d 1bac f23c fe89 8dbd 768e eebc
00000380: e307 49bd d5e7 c23d fbda 733d d705 853d
00000390: 6360 163b 4f0d cc3d 56a0 813d 284d 963d
000003a0: 00f9 51bd bd74 59bd a71b d0ba 3887 9fbc
000003b0: a98d 07bc b1b5 5e3d 2aed 9dbd f7c5 963c
000003c0: 2d3c 91bd 68a9 ddbb a5c8 e1bd eca6 3e3d
000003d0: 7380 24bb c2ad 84bb d772 1dbc f209 193d
000003e0: ef09 953d 195f d03a 12ff 313d c798 bcbb
000003f0: a505 e6bd 94c6 dc3d 4825 8c3d d136 abbd
0.071868256 0.041482624 0.0453185 -0.059103053 0.08061946 0.0076860245 -0.0026525701 0.013166645
-0.08367346 0.060554378 -0.0974113 -0.109090835 -0.094147205 -0.021363309 0.10379429 0.03901393
0.112367086 -0.00011840979 0.02102178 -0.01694889 -0.036944646 0.072768115 -0.08704629 0.04359492
0.01822892 0.0114979725 0.018767137 0.055130884 -0.061090972 -0.10662625 -0.0024388523 -0.11264563
0.009321905 0.013184012 -0.0020600175 -0.0646959 0.049345195 0.074721985 -0.048821498 0.039574217
0.05730468 -0.0687653 -0.001026037 0.086381234 0.076251 0.045543764 -0.043734465 -0.0253536
0.0836417 -0.07688332 -0.0553193 0.038800485 0.039619666 0.06825321 0.011880112 0.04333273
0.017454885 -0.059256013 -0.005839389 0.027482424 0.028432174 -0.09683326 0.0131941335 -0.026686063
-0.06897681 0.0014896899 -0.0024850857 -0.016362945 -0.087504864 -0.020080801 -0.052452687 -0.02213518
0.0026574896 -0.030511238 -0.103750505 0.034091722 0.07874952 -0.034444712 -0.11255748 -0.08129754
0.048673335 0.0015568894 0.071229145 -0.027303671 0.06898032 -0.0010808444 0.037832294 -0.0735552
0.02619257 -0.011188138 0.10536904 -0.007838889 -0.09366167 0.02264275 0.03341969 -0.016076658
-0.031028727 0.0674063 0.049418017 0.044799626 0.10656533 0.05049516 -0.018210424 -0.08042263
0.047703397 0.00062630634 -0.07982033 -0.080631524 0.051959828 -0.1085316 -0.040692132 0.09049547
-0.10387599 0.10891425 -0.0026096916 -0.043181717 -0.059656493 0.074419275 0.057922654 -0.08154981
-0.086881876 0.0045309183 -0.106235765 0.071955845 -0.054265887 0.067535914 0.06855332 -0.016433815
-0.048724905 0.086548835 0.05028335 0.012107035 -0.0778276 -0.0070475945 0.108562164 -0.009149052
-0.09104544 -0.0026114671 0.03931578 -0.0071702697 0.0950772 -0.080124736 0.026701806 0.05910015
-0.10058349 0.11349698 -0.109707065 -0.026007604 0.113628 -0.062387545 0.09724093 0.08847019
-0.0525383 -0.084300734 0.026368583 0.05975277 -0.059683815 -0.024187518 0.019869057 -0.028193282
0.09979693 -0.032000974 -0.033210963 0.07000421 0.00900663 0.00063495256 0.08488709 -0.0523438
0.06516701 0.037329577 0.09983264 0.06922305 -0.08735034 0.0016024439 -0.058199894 -0.032084256
-0.00094497117 0.07897585 -0.1062374 -0.0412825 0.10341028 -0.022500366 -0.012357105 -0.009039061
0.094302736 0.059723943 -0.09303644 0.0024782019 0.020962866 0.03814237 0.03198417 0.09611183
-0.038549338 0.08653942 0.07903929 -0.045097016 0.06281272 0.011067631 -2.9264253e-05 0.10423914
0.07469601 -0.05035793 -0.013273891 0.06055466 -0.0036719725 -0.033222977 0.06549628 -0.10602359
0.031234004 0.020326076 -0.06712221 0.0026579937 0.10357594 -0.11048312 -0.03000441 0.05019307
0.062477387 -0.018846033 -0.096467115 0.0983569 0.04251058 0.029623082 -0.069110855 -0.029120665
-0.049079787 0.09516875 0.059535008 0.064952545 0.0022945635 0.09963476 0.0632941 0.07338935
-0.051262856 -0.053089846 -0.0015877382 -0.019473657 -0.0082735205 0.054372493 -0.07711251 0.018404944
-0.07091556 -0.0067645796 -0.11024598 0.046545908 -0.0025100976 -0.004049034 -0.0096098995 0.037363
0.07277285 0.0015897482 0.043456145 -0.005755517 -0.11231545 0.10780063 0.06843048 -0.08360065

dtgl.lstm_layers.0.bias_ih_l0 f4 [256]
00000000: a717 383d a9f7 bc3d 62c1 783c 0856 7cbd
00000010: 796d 8d3a 0f65 58bd eedb ac3c 5fbc 8b3d
00000020: 3d5d f7bc 0d5f c7bb 9415 d03c e096 ec3d
00000030: 20c6 0e3d bfc3 803d 00e5 0a3d 3557 c13d
00000040: 4441 c43d 808c 36bc a3ff 1f3d 5daf a33b
00000050: 1974 6cbc d37d 5ebd 3932 c8bd fb16 ea3d
00000060: 39b9 3bbc 99ee 3cbd be03 84bd c835 86bc
00000070: 18bf 243d 35f7 38bc 14f7 91bd ea2d 1eb9
00000080: c9d5 a4ba c731 e3bd 170c babd c451 993c
00000090: cecc 99bb 84f5 dbbd e17c b63d 9f94 9abd
000000a0: 14bd c83c e651 d13c 3acb bf3d 252f a53d
000000b0: 00e7 44bc 594f 053c a9b2 d73d f520 803d
000000c0: 6ee3 893d 0df2 9c3d 15ee 42bd a585 7ebd
000000d0: b712 213d 9bac 1fbd 7946 65bd eefe bbbd
000000e0: 26ea 98bb 5e38 6cbd 1a5c 863d 47c5 563c
000000f0: fd2e e73d 33c9 463c e968 9e3d 60f9 d53d
00000100: 8ea9 df3d e1a9 9aba ff19 213d cb5b afbd
00000110: de9b a2b9 817b 1fbd 9ea4 6cbd 95a1 92bd
00000120: baea a13d e32a 98bc d5d0 9a3d 7c5b 0e3d
00000130: 077b 793b 6d20 c23c ca50 7e3d b3ec bf3d
00000140: ebee 863c b2c0 c33d 20be 6a3d 429f 883a
00000150: f2df 453c 13d5 1b3d 8536 a1bc ce6b 5abd
00000160: 439a 813c 6529 843d 486c f1bc f128 293b
00000170: 9081 65bb 108b 01bc 523d d53d 38f3 c6ba
00000180: 6139 80bd e8ec 9f3d a52b e23d d409 593d
00000190: 22ed c0bd bc5b b33d 795c 72bd eed5 66bd
000001a0: 8541 e23d cd27 8dbc c2c3 513d 2dba 35bd
000001b0: 5d8d 3bbd d9a2 9e3c 59cf babd 56b0 703d
000001c0: 95ba 0abd 75fb 29bb 78b1 3aba ba18 54bd
000001d0: 9226 a1bd 1046 7f3c 0912 cb3d 2f16 b9bc
000001e0: 4c42 543c 22ef 8e3c c8a0 553d 48aa bc3d
000001f0: c99c 513d 4b43 163d 7eff 4e3c faaa 4d3d
00000200: 0829 99bd 14ac 3fbd 6d95 a93c 93b2 55bd
00000210: a80d 5ebd 156c 0a3b 9867 453d 1534 e9bd
00000220: b654 47bd c1e6 6bbd d5e0 3a3c edeb e73d
00000230: 3360 d03c 8a3d 21bd 622b a2bd 665c 1c3c
00000240: 2b3c 963b a6ed 983c 0c67 c1ba a67b 19bd
00000250: 170d a4bd e665 a8bd 8815 a0ba b49a 1d3b
00000260: 6674 48bd fb25 d7bb 2aa5 9ebb fa94 d1bd
00000270: 6fd7 9b3b 2784 f3bc adfb 533d 94fd 57bd
00000280: 930a a83c f733 02bd d4e1 c43c fad1 843d
00000290: d1c5 c0bb bdb7 5ebd 908c f6bc 4fba c63d
000002a0: b9d5 1f3d 4a20 9f3d eb08 c3bc e060 0abd
000002b0: 9c35 81bd 1cb1 cd3d f12a 8c3d 375a dfbd
000002c0: 1a6a c6bc 2928 b83d ac71 9a3d cc30 ccbc
000002d0: f96a 88bd 6098 433d 740f ed3d 781b e2bd
000002e0: bf23 9bbd dbe8 eb3d e3dd dfbd 4c42 9dbc
000002f0: 62ce 593d dc99 aebd 67b9 e1bd 2d66 13bd
00000300: 6849 e3bd 0d32 e2bc 7cb9 e53d 592a 69bb
00000310: c0d5 823d ee3e 253d f9b2 2cbd 3b33 7f3d
00000320: 7482 bcbd fc22 ee3b 36a5 9bbd 1007 673c
00000330: 53b8 403d 5d8f d8bd 8ef9 83bc 1029 dfbd
00000340: 6e3b 6bbd 4711 a5bb deeb 9cbd fbfd 993d
00000350: 0550 82bd cafb ebbd ae97 423c e598 b2bd
00000360: b627 4a3b 591d d1bd eb12 c33d 45b0 9a3d
00000370: 67fc ecbd f5b5 713d 0792 2e3c af5a 95bd
00000380: e1fb eb3d 1ed6 cc3c fd04 febc ca0f a43c
00000390: d0c0 7ebc f826 aeba dc0a a0bd 2dd0 d43d
000003a0: 0ab3 07bc 35a9 b0bd cff3 b4bd dd50 61bb
000003b0: 5988 b43d 7723 f73a 36e0 983d 0bd3 d93d
000003c0: fcd3 aabd e6ed 16bd b3ea efbb dd5c 723b
000003d0: 4b3a 66bd 508f 733d d7ff 53bc 7eb9 b43b
000003e0: 6c47 a63c 799e d33d 69ad 19bb 5613 ea3c
000003f0: 1d8b 9abd e54b 6ebd fd33 d73d 5dcb e4bb
0.04494443 0.09226925 0.015182825 -0.061605483 0.0010790072 -0.052830752 0.021100964 0.06823038
-0.030195827 -0.006084329 0.025400914 0.115522146 0.034856915 0.062873356 0.033909798 0.094404615
0.09582761 -0.011141896 0.039062154 0.00499527 -0.014431977 -0.054319214 -0.09775204 0.114301644
-0.011457735 -0.046125982 -0.06446026 -0.016383067 0.040221304 -0.0112894075 -0.071272045 -0.00015085159
-0.001257592 -0.11093479 -0.09084337 0.018715747 -0.004693604 -0.10740188 0.089105375 -0.075478785
0.024504222 0.025551748 0.09364934 0.08065633 -0.012017965 0.008136594 0.105321236 0.06256286
0.06732832 0.07663355 -0.047590334 -0.062139172 0.03932449 -0.03898297 -0.05597541 -0.09179483
-0.0046665845 -0.057670943 0.06560536 0.013108558 0.11288259 0.012132931 0.07734854 0.10447955
0.10921012 -0.0011799895 0.039331432 -0.0856243 -0.00031015178 -0.038936142 -0.05777418 -0.071597256
0.07906099 -0.018575137 0.07559363 0.034755215 0.0038067715 0.023697102 0.062088765 0.09371319
0.016471347 0.09558238 0.057310224 0.0010423439 0.0120773185 0.038045 -0.019679317 -0.053325467
0.015820628 0.06453208 -0.029470578 0.0025811756 -0.0035019852 -0.00790669 0.104120865 -0.0015178686
-0.06260944 0.07808858 0.11043481 0.05298789 -0.094202295 0.08757731 -0.05917022 -0.056356363
0.11047653 -0.017230893 0.05121208 -0.044367004 -0.04578911 0.019364761 -0.0912158 0.058761917
-0.033869345 -0.0025937234 -0.0007121782 -0.051781394 -0.07868685 0.015580669 0.09915549 -0.022593586
0.0129552595 0.017448012 0.052155286 0.09212166 0.051174913 0.03668527 0.012634156 0.050211884
-0.07478529 -0.046794966 0.020701135 -0.052172255 -0.054212242 0.002112155 0.048194498 -0.11386887
-0.04866477 -0.05759311 0.011406143 0.11324296 0.025436496 -0.03936533 -0.07918431 0.009543514
0.0045848093 0.018668007 -0.0014755442 -0.037471436 -0.08010309 -0.082225606 -0.0012213448 0.002404851
-0.04893913 -0.006565807 -0.0048414664 -0.10233493 0.0047559063 -0.029726101 0.05175369 -0.052732065
0.020512855 -0.03178784 0.024033464 0.06485362 -0.0058829566 -0.054374445 -0.030096322 0.09703504
0.03902218 0.077698305 -0.023807963 -0.033783793 -0.06309053 0.100435466 0.06844128 -0.10905879
-0.024220515 0.08992035 0.075412124 -0.024925612 -0.066610284 0.047752738 0.11575213 -0.110403955
-0.075751774 0.11519023 -0.109309934 -0.019196652 0.053175338 -0.0852544 -0.11021691 -0.035986114
-0.110979855 -0.027611757 0.11217019 -0.003557822 0.06388426 0.040343218 -0.04216287 0.062304717
-0.092045695 0.007267354 -0.07599871 0.014100805 0.047050785 -0.105742194 -0.016110208 -0.10896504
-0.057429723 -0.00503746 -0.076621756 0.07519146 -0.06362919 -0.11522634 0.011876984 -0.087205686
0.0030846423 -0.10210676 0.09525093 0.07553152 -0.115715794 0.05901142 0.010654933 -0.07292687
0.115226515 0.025004443 -0.031008238 0.02002706 -0.0155489 -0.001328676 -0.07814571 0.10391269
-0.008282432 -0.08626024 -0.08835565 -0.0034380474 0.08815069 0.0018855174 0.0746464 0.106359564
-0.08341214 -0.03684797 -0.0073216795 0.003698162 -0.056207936 0.059462845 -0.012939415 0.0055152765
0.020297728 0.10332961 -0.0023449308 0.028573673 -0.07546065 -0.058177847 0.10507963 -0.0069822506
