Contrast/BrainGNN/save/model2.pth (torch, 403178 bytes, 30 tensors)

n1.0.weight f4 [8, 116]
00000000: 366b 1ab9 2403 b7bb 4943 8ebb 289a 353c
00000010: a343 79b9 3198 beb9 2f4b dc3c e764 58ba
00000020: 9ebb 1c3d 1ad9 3e3d afc3 e0ba acf9 05bc
00000030: 6b6c 323d cc87 8abb f1ca 9c3d 7372 38bb
00000040: 80ba 18bc 53e5 073d 8dd8 dd3b d65a 233d
00000050: 4cbd 88ba 820e b63d 41c1 993c 8231 183d
00000060: a79d c23c 9b97 c23c 4575 9fba 373c ceba
00000070: 9077 ebba 494c 4d3c 6420 10ba fcde 80b6
00000080: 69b1 dbba a748 b33c 8300 a73c f68d 0d3d
00000090: ec81 8fb6 ba43 153d 30d4 0bbb d662 39bb
000000a0: 1b9a d0ba 0629 9db8 e36f 7a3d a11a 2cba
000000b0: a31a 1db8 3c09 bf3d 5e0c b83d 6a70 1cba
000000c0: 7a58 5e3c 44c4 423d fd56 b23c ec22 3cbb
000000d0: 74f3 5f3d 5c9f e8bb 4467 20bb 6807 fdb6
000000e0: d800 c8bb cee9 f5b9 4496 a73d a1f4 093d
000000f0: 0387 b93c f00a c53d ea4c 9f3d f3f8 463d
00000100: 89f2 22bb 7c53 d2ba 33fc 20b9 e9ac a6ba
00000110: 8401 92bb c653 2abb 82ba bebb 107c dcba
00000120: 2f29 ccb9 650a 8b3c 91fc f0ba 16b0 1dbb
00000130: a9c9 583c e75b d93c 1bcf e03d 8be2 e83c
00000140: 40f9 6dbb 8da6 53ba 1a84 9dba a920 69bb
00000150: dbb3 08bb f566 1fbb b834 453c 92f3 80bb
00000160: cd27 54bb 47d2 993c f692 023c d988 c2bb
00000170: 5208 0eba 52b3 853c 9c3a e7bb a4b1 acbb
00000180: fc33 33bc e6b1 6cbb 027f 7a3c 8b48 743d
00000190: 5f8a 2db6 a6e1 6cb8 4492 b4b9 4e8a 03b6
000001a0: a0df 47ba f991 42b6 aa09 1fb8 a4a0 8eb9
000001b0: 7d3b 6ebb 6506 12ba a641 e9b8 92fb 65bc
000001c0: a641 6dbb a541 90bb 850c 97ba 3ba1 1e3c
000001d0: 8105 29bb 3a58 5cb9 18fc 923d a06a 833d
000001e0: 5911 84ba 35ef bdb8 0823 e1ba 1986 873d
000001f0: d1cb dabb 1f58 8bba 4b96 baba a551 c7bb
00000200: e3d1 d53c d81f a7bb b990 a63c 190f 993a
00000210: 304a 57bc 862b f5b9 6780 6e3d 796d 17bb
00000220: b230 c53c 0f96 84bb 9b8c a03c 829d 01bc
00000230: a53c 10ba a8a2 943d c877 5639 dcd1 48ba
00000240: ce4a 73ba 0c57 f53c 3be8 46b9 c473 d03c
00000250: e673 2c3b c0f1 12b9 a641 4bbb fa18 f7ba
00000260: 0585 763c 2c23 2bbb f90b ebba 3d8c 923a
00000270: 55fd b9ba a769 8f3c 0f7c 0f3d a9ab 2a3c
00000280: aec3 b33d 3576 233d 626a 25ba 35bf 1fbb
00000290: 42c6 a13c 1035 8ebb 60bc 683d 925c 333d
000002a0: 7421 a23c 7cda d73b 298b 543d 2ec0 36ba
000002b0: f96f 89b9 30b8 9fba 4bdc 3b3d a011 77bb
000002c0: 9848 0abc 47ac c63d a2a1 74bb f8ad a73c
000002d0: 2395 6bbc 62d7 6d3d 4e4e 4db9 8751 df3c
000002e0: b788 2b3d 2192 943d 04dd 1f3d dd08 fcb8
000002f0: 481c 9eb3 4631 b1b9 7b39 d8ba 189f 02bb
00000300: 5570 273c 9e8e 0c3d 31fc ecbb fd4a c9bb
00000310: 964c de3b 7adb af3a ecd6 673d 76d2 66bb
00000320: cdf3 d0bb a362 1e3d 9046 043d dbde bc3d
00000330: 7912 31b5 86fd 35bb 2ffd 413d 2317 ef3c
00000340: 7d61 233d c24a ac3c 92ae 8f3d cc26 32bc
00000350: 6b50 333d bfe1 233d aa5a 173d 6e52 63bb
00000360: 996f beba 71c3 d53c 8970 08b8 bb4d 2ab6
00000370: 8650 5d3a cb42 81b9 34bf 8bb8 b716 efb9
00000380: a447 893c b31b 64bb 006c aebb 0d7a 61bb
00000390: f299 48bb ecd7 73bb 1be7 243d a190 21b6
000003a0: dd12 473d fbbe d73b cb99 5dbb ea6b 833c
000003b0: 26b4 cfb5 8077 95b7 0610 bfb8 d2b0 d3ba
000003c0: b227 45b9 9ab5 1e3d 81bc d1b8 00f1 943c
000003d0: f5a9 6bb8 b68b bebb 70a7 493c 85ed 9fbb
000003e0: a091 60b6 ba30 5d3b f044 37bb b19b 2fba
000003f0: fc34 5e3d 5cae de3c 5830 52bb a052 74bb
-0.00014726524 -0.005585091 -0.004341517 0.011084117 -0.00023771687 -0.00036353015 0.02689132 -0.0008254782
0.038264863 0.046593763 -0.0017148162 -0.008177202 0.043560427 -0.004227614 0.076558955 -0.002814439
-0.009321809 0.033177685 0.0067701996 0.03988155 -0.0010432391 0.08889486 0.018768908 0.03715659
0.023756815 0.023753932 -0.0012165686 -0.0015734498 -0.001796471 0.012530395 -0.00054979906 -3.840656e-06
-0.0016761246 0.02188523 0.020385986 0.034559213 -4.276857e-06 0.036441542 -0.002133619 -0.002828767
-0.0015915068 -7.4939846e-05 0.06114186 -0.00065652473 -3.7456524e-05 0.09327933 0.08986734 -0.0005967679
0.013570899 0.047550455 0.021769995 -0.0028707338 0.054675534 -0.0070990752 -0.0024475614 -7.5408498e-06
-0.006103616 -0.0004690424 0.08182958 0.033680562 0.022647386 0.09621227 0.07778342 0.04857726
-0.00248638 -0.0016046609 -0.0001535274 -0.0012716326 -0.004455747 -0.0025989874 -0.0058205733 -0.0016821641
-0.00038940596 0.01697273 -0.0018385818 -0.0024061254 0.013231673 0.02653308 0.10977002 0.028428337
-0.0036311895 -0.0008073829 -0.0012017519 -0.0035572445 -0.0020859155 -0.0024322842 0.012036495 -0.003935286
-0.0032372356 0.018777026 0.0079696085 -0.0059367237 -0.000541811 0.016320858 -0.0070565473 -0.0052702
-0.010937687 -0.0036116778 0.01528907 0.059639495 -2.5859551e-06 -5.6476936e-05 -0.00034441252 -1.9601025e-06
-0.000762457 -2.899322e-06 -3.7917554e-05 -0.00027204037 -0.0036351376 -0.0005570411 -0.00011122534 -0.01403703
-0.003620246 -0.0044023567 -0.0011524117 0.009681995 -0.0025790634 -0.00021013702 0.07176989 0.064168215
-0.0010075971 -9.056778e-05 -0.0017176578 0.06617374 -0.006677129 -0.001063112 -0.0014235465 -0.006082731
0.026101058 -0.0051002316 0.020332681 0.0011677473 -0.013140246 -0.0004676247 0.058227923 -0.0023106022
0.024071071 -0.0040462087 0.019598296 -0.007911088 -0.0005502201 0.07257587 0.00020453252 -0.0007660666
-0.0009280861 0.029948734 -0.00018969264 0.025445826 0.0026314198 -0.00014013704 -0.0031014471 -0.0018852048
0.015046363 -0.0026113493 -0.0017932645 0.001118071 -0.0014189879 0.017506434 0.03503042 0.0104169035
0.08777557 0.039907653 -0.0006310103 -0.0024375443 0.019747857 -0.0043398216 0.056820273 0.043789454
0.019791342 0.0065873247 0.051890526 -0.0006971386 -0.00026214102 -0.001218563 0.045864385 -0.0037699714
-0.008440159 0.09700828 -0.0037327786 0.020468697 -0.014378819 0.058066733 -0.00019579494 0.027260555
0.04187843 0.072544344 0.039029136 -0.00012017947 -7.362593e-08 -0.00033796782 -0.0016496623 -0.0019931253
0.010219653 0.034315698 -0.007232212 -0.0061429725 0.006784032 0.001341685 0.05660145 -0.003522066
-0.0063767196 0.038668286 0.032293856 0.09222194 -6.596452e-07 -0.002776952 0.047360595 0.029185837
0.039887894 0.021031741 0.070157185 -0.010873508 0.043777864 0.04001021 0.0369517 -0.0034686583
-0.0014529108 0.02609417 -3.2529733e-05 -2.537722e-06 0.000844248 -0.00024654562 -6.663651e-05 -0.00045602556
0.016757794 -0.003480655 -0.005322933 -0.0034405023 -0.0030609337 -0.0037207557 0.04025946 -2.4075055e-06
0.048601974 0.006584046 -0.0033813592 0.016042668 -1.5475132e-06 -1.781783e-05 -9.110574e-05 -0.0016150719
-0.00018802172 0.038747407 -0.00010001008 0.018181324 -5.618665e-05 -0.0058149947 0.012307987 -0.0048806095
-3.3463366e-06 0.0033750967 -0.0027964674 -0.000669892 0.05424975 0.02718275 -0.0032072272 -0.0037280694

n1.2.weight f4 [7040, 8]
00000000: 518c e7bc 9b2b 4a3b d71b 2bbb 59e4 8fbd
00000010: 6373 353d a155 6abd f3e4 42bb 0393 dcbd
00000020: 7038 e3bc abe6 d1bd 0d63 173c 6ae3 b2bd
00000030: 56d8 b0b2 80f0 ae3d 2940 67bc 49a2 72ba
00000040: 73fb d4ba 3594 b7bc 943f 6f3d 5222 febc
00000050: c3a9 cabc d93e 7d3c 92e0 a23b 2cb9 1ebc
00000060: 3d52 98bb 1890 95bc 5896 d3bb 7416 8b3d
00000070: a0f8 3abb a864 fbb9 914b 043d 31f1 bf3c
00000080: 36b8 f9bb 816c 2d3b 12f2 833d 611c 53bc
00000090: 25e1 eb3d a7d8 f13b 5d5b b33c bd42 373a
000000a0: 3176 b13b a0a7 81bd f559 753c bc86 a4bd
000000b0: ef90 2abd b007 4e3d 1b87 5dbb 7335 d9bd
000000c0: d002 12bb 6daf c33b 104e 07bb a2a0 35bd
000000d0: 0434 983d fea6 afbd 14f2 d73a 8cc7 4cbb
000000e0: f1f1 8cbb 91f4 bfbd 6a29 853c dbd5 e1bb
000000f0: 7d3f 0a3b 8ba1 633b 5b8b 73bd 3c14 dc3a
00000100: 668e e1bd 3aa6 8d3d 865f b43c 409a b5bb
00000110: f69f 6d3c e057 05bd c580 3cbc 1268 e3bd
00000120: 6289 3abb b4f0 0bbb f76a 32bb d6aa cc3b
00000130: cf46 c93d 0e37 3cba f950 7ebc a929 aa3d
00000140: cd13 c23d dddb 813c 5874 933c a1a3 cc3b
00000150: d256 86bd 1cdc 9abd 3fea a83d 3452 60bd
00000160: ee62 a0bb 5ad7 eebd ed61 843a c7e5 143c
00000170: 22da 91bd d2c0 ccbc 3990 21bb 02c9 cb3b
00000180: 6e60 cc3d 979a abbc 4848 dcbb b2db 54bc
00000190: ed06 123c 6514 a1bb 4492 8c3a a92b 893b
000001a0: f393 b23b 089e 4a3b 383a 33bb de3b 4a3d
000001b0: 373e 98bc d1dd ed3c b9bb 2a3c d9bc 5d3c
000001c0: f495 24bc 7852 aa3c e8e5 76bd 4bf2 bbbd
000001d0: 8dd6 813d 9a76 a13d 847b 2f3d a7b6 bbbb
000001e0: fbbe 46bc 9ca7 803d a741 d03d b83c 37bb
000001f0: 62dd 123c 73f0 f8bb 2c0e ed39 4b0c 13bd
00000200: cc4e 1c3d b243 e73b 6743 7bbc 1a19 a03d
00000210: 4180 223a f774 ed3c 33d0 d83d 0fff ce3b
00000220: 0629 bf3b 3ead f2bb 2d38 89bd ba7c 96bd
00000230: 9ef7 e2bd bddb bd39 8aba d3bd 62ab f43d
00000240: 6df1 b03b a583 0c3d e309 813d 488e bc3d
00000250: 383a 26bc dc4d 8abd 9868 d33d 26d7 36bc
00000260: 58f5 17bd cb9b 76b8 eb57 c23c 1ebc 4937
00000270: 3877 0339 e2f1 c5bc 76cc 92bd 2d77 8fbb
00000280: 7f44 22bd 21d4 743d a40d 4a3b 8e39 a2b9
00000290: 2d5f 44bd eec1 03bd eb61 863c 43cd c7b9
000002a0: 20a7 85bb 0f11 813d d992 8d3d d419 b33d
000002b0: 5dab f83d a80f c23d 21a9 0ebb 79bd 8a3d
000002c0: ab6c fc3c cd84 20bc 6975 57bc b32b 073b
000002d0: 5b6f 62bd 3ec3 bbbd 0396 05bb afdb b83d
000002e0: 3ed1 7dbd 40a9 a0bd 63ee 1c3d 6b2c ce3c
000002f0: 4b71 6ebd 44e6 743d 5a4c dcba b2ab 1c3c
00000300: b84f c23a f789 153b 3d5f cb39 81e7 f3bc
00000310: 4ac5 50bb ec8c 623b 1ed0 a43d e628 97bc
00000320: 4d50 c6bb 2207 bcbd ea15 a4bc 4c0f 69bc
00000330: b310 b63c 0216 563c 9bb0 5abc 23d5 bcbc
00000340: 773e 39bc 45ba 41bb a9cc cf3b 1447 d43d
00000350: 7325 c8bd cdb8 bc37 f6b0 3d3d 9aae b4bc
00000360: 9f7b 173c 6ba7 01bc 52b9 9c3d 61fc 423d
00000370: 0c4e 55bc 2999 4e3b 37c6 a9bc 16b9 62bd
00000380: b8ff 53bc 1bfe 08bc b494 a83c 18fd 6ebc
00000390: abeb 9e3b f21d c43a 368a 00bc 6097 efbb
000003a0: 9a56 07bc 5bb0 eabc e5ee 973d 78b7 acba
000003b0: 5a88 4cbc d94c aa3d a6fa e8bb 08c5 a5bc
000003c0: f58d 453c 7a65 b2bd 4465 d0bb 5d6f d4bd
000003d0: fb82 32bb 2b00 cc3d 435b 7fbc 696b 71bb
000003e0: beb8 3cbb 1848 763b 73b1 b7bc bc64 ccbd
000003f0: 3def 9cbd acc1 5f3d 5dbc b83c 16cb 40bd
-0.02826515 0.0030848745 -0.0026109123 -0.07025976 0.044299494 -0.05721057 -0.0029738515 -0.10770228
-0.027736872 -0.102490745 0.009239924 -0.08734782 -2.0587475e-08 0.085419655 -0.014114418 -0.000925575
-0.0016249254 -0.022409538 0.058410242 -0.031022225 -0.024739152 0.015456879 0.0049706185 -0.009687703
-0.0046484754 -0.018257186 -0.0064571314 0.06791392 -0.002852954 -0.00047949445 0.03229863 0.023430439
-0.0076208366 0.0026462378 0.064426556 -0.012885184 0.11517552 0.0073805633 0.021894151 0.0006990841
0.005415701 -0.063308 0.014975061 -0.08033511 -0.041642126 0.0503003 -0.0033802453 -0.10605898
-0.0022279508 0.00597184 -0.0020645894 -0.044342645 0.07431796 -0.08576773 0.0016475343 -0.003124687
-0.0043013026 -0.09372819 0.0162551 -0.0068919486 0.002109497 0.0034733738 -0.05945907 0.0016790698
-0.110134885 0.06916471 0.022018205 -0.0055420697 0.01450347 -0.032554507 -0.01150531 -0.11103834
-0.0028463234 -0.0021353187 -0.00272244 0.006245951 0.09827959 -0.00071798346 -0.015522235 0.08308727
0.09476433 0.01585191 0.017999813 0.006245092 -0.065595284 -0.07561514 0.08247804 -0.054765895
-0.004894606 -0.11662169 0.0010099985 0.009087986 -0.07121684 -0.024994288 -0.0024652614 0.0062190304
0.0997933 -0.020947738 -0.006722484 -0.012991833 0.008912784 -0.0049157613 0.0010724743 0.004186113
0.005449766 0.0030916948 -0.0027347934 0.0493735 -0.018584354 0.029036434 0.010420733 0.013533794
-0.010045517 0.020791277 -0.06027785 -0.09177073 0.063397504 0.078839496 0.042842403 -0.005728561
-0.012130494 0.06281969 0.10168772 -0.0027959775 0.008963915 -0.007597023 0.00045214721 -0.035900395
0.038161084 0.0070576305 -0.015335894 0.07817288 0.0006198921 0.028986437 0.10586586 0.0063170264
0.005833748 -0.007405906 -0.06700168 -0.073480085 -0.110823855 0.00036212607 -0.10338314 0.11946751
0.005399874 0.034305234 0.06300714 0.092068255 -0.010145716 -0.06753132 0.10322684 -0.011159694
-0.037099212 -5.8796064e-05 0.023723563 1.2024333e-05 0.00012537546 -0.02416319 -0.07167904 -0.0043782205
-0.039616104 0.059772614 0.0030830884 -0.0003094193 -0.04794233 -0.032167368 0.016404113 -0.0003810917
-0.0040787607 0.06302082 0.069127746 0.08745161 0.1214206 0.094756424 -0.002176829 0.0677442
0.030813536 -0.009797287 -0.013150551 0.0020625412 -0.055281978 -0.09168099 -0.0020383603 0.09026276
-0.061967127 -0.07844782 0.03831328 0.025167665 -0.058213513 0.05978991 -0.0016807423 0.00956242
0.0014824783 0.002281783 0.00038790135 -0.029773476 -0.0031855875 0.003456886 0.08047508 -0.01845212
-0.006052053 -0.09181048 -0.02002998 -0.014224838 0.02222476 0.0130667705 -0.01334777 -0.02305085
-0.011306397 -0.0029560488 0.006341536 0.103651196 -0.09772768 2.2497401e-05 0.04631134 -0.022055913
0.009245782 -0.007913451 0.076525345 0.04760397 -0.013019096 0.0031524396 -0.020724399 -0.055352293
-0.012939386 -0.008361365 0.02057872 -0.014586709 0.004849871 0.0014962538 -0.007845452 -0.0073117465
-0.0082603935 -0.028648546 0.074186124 -0.0013177237 -0.012483681 0.08315439 -0.0071099577 -0.020235553
0.012057771 -0.08710761 -0.006359728 -0.10372803 -0.0027238715 0.099609695 -0.015585723 -0.0036837703
-0.0028796638 0.0037579592 -0.022423482 -0.09980151 -0.076628186 0.05462806 0.022550756 -0.047068678

n1.2.bias f4 [7040]
00000000: d7f0 25be 4583 05be eee2 663e 9085 e23d
00000010: 6662 85bc 96a3 cf3d 18b2 513e c97e 3a3c
00000020: 48cd 173e 308d 42be 5cb3 473d 76d2 f3bd
00000030: a56e 023d 32e5 623e 85b8 dcbd 817f 573e
00000040: 0ad2 503e 642a 073d e7ed 513e deec 3abe
00000050: 5a95 50be 3349 06be 2c76 3e3e 2065 1dbe
00000060: 43f4 f43d 03b6 c83d 12ae b53d 6188 8abd
00000070: 03e8 163d aeba 3a3d a0e5 c7bd d42b 8bbb
00000080: 3462 793d 936c 12bc 62a1 1f3e 2123 25be
00000090: 5851 ebbd 9e2d 053d f3d9 64be 0ac1 a7bd
000000a0: 5e41 c23c c603 1cbe ff3a 4f3d 59b5 6fbd
000000b0: d285 d6bd 131b 8d3d c01a 553e d2d0 05bd
000000c0: 1c04 0abd 9afa 2f3e 0159 bc3d e83a 503e
000000d0: 3d4b dfbd f651 793d 71dc b73d 7134 0b3e
000000e0: c1c8 3dbe 7b39 3b3e 4953 563e d346 c53d
000000f0: c592 503e 1b88 dd3c 08ac c63d d368 90bd
00000100: 99af c6bc 5c85 b83d 3812 bb3c d36a 7d3d
00000110: 56c1 bbbd b542 23bd 52ff 493e dd03 45be
00000120: 02e6 a03d d786 16be 421b 19be 9859 cebc
00000130: ecd9 a03d 5a17 803d cd5c 5c3e ea93 e6bd
00000140: 7f66 39be 58f1 133e 5d9a 2d3e 00dd 23bc
00000150: 8dbe 133e 30f5 8dbd 1eb3 4b3a 0f82 55be
00000160: d196 0cbe d30c 193e a7f1 8b3d 4304 213e
00000170: 5ef3 e6bd d059 13bd e036 19be ee4c eb3d
00000180: e127 81bd 83e6 99bd 3384 073e 1987 3abe
00000190: 3150 e0bc e2bc ed3c 2d6b c83d 7e1e d13c
000001a0: a225 133e 8262 0cbe 15f8 75bd c622 3abe
000001b0: 645c 47be 65bf 4bbd 9980 04bd 43f7 963c
000001c0: 2831 953d 4ae4 8ebd e196 4abb b3ed d33d
000001d0: 5301 593e fe2f 2e3e 786d 353e d7d3 e8bc
000001e0: 9bbf a5bd 6ff1 c73d 8e2e 303e 39d9 473e
000001f0: 77ce 093e c0d3 6b3c 0681 e43d 2a35 f83d
00000200: c1dd e2bd 3b59 79bc 26db 98bc 6b68 adbd
00000210: 5e5a e03c fd8e 01bd 1291 e8bc e87f 55be
00000220: 9411 023e 98d5 203e 3dcb 0d3e 3ee6 833d
00000230: 7fb5 133e 2484 58be e43c 083e dd51 fb3c
00000240: 1697 a2bb 81b4 ba3d 187c 27be 4e7f e83d
00000250: e872 063e 5bec e43d 0a07 a6bd c4da 9d3d
00000260: c50f 13be 1998 673d 5626 eebd ab10 de3c
00000270: aa9d 903c 21a3 4fbe 1e85 203e 7ed3 503e
00000280: 8b1f 5d3b deb0 44bb d45d 213e 3905 5ebd
00000290: 8937 35be 5768 25bd 35e8 013e d871 83bd
000002a0: 45b5 463e 562b 47bd 8939 6d3e 0531 0ebe
000002b0: cb2a 2e3e c5cb 38be f27b 3c3e ed1d 1bbb
000002c0: d31d e8bd 5fee d23d 4e37 e93d 978b 663e
000002d0: 59c6 ba3c 311f 3bbe 231d 8ebd 9b0c 503e
000002e0: 8e77 9dbd 3da1 e1bd 8667 3b3c 2515 253e
000002f0: 66bd b4bd c20b 783e 8e17 40bd 0dee 60be
00000300: c71b 293e 9c9c 623d feaf 65be 9dac b1bd
00000310: e662 95bc 54c0 89bd 992a 803d aabe acbc
00000320: a4c3 46be 28d2 043c 79b6 303e 3caa c13c
00000330: 0d5a f7bc b375 c53d e77c d53c 12ca 7e3c
00000340: c6c0 503e e662 0d3e 4d8f d5bd 69d0 503d
00000350: 6cb9 893d f58f 08be 0534 623d 6f9c 37bd
00000360: 3bc1 4e3e 6fe5 29be cb3b 71bc c4bc 1f3e
00000370: 790d 893d 6d1e 273e 487b dbbd e31a de3c
00000380: 0261 cd3d 1b0a cdbc f4a4 2bbd 07a2 303e
00000390: e0c3 60bc b1a9 db3d 5f24 bb3d 4c56 2abd
000003a0: 1640 913d a52d dfbd 6685 673d 56bd 21bd
000003b0: db06 16bd 2284 d4bd 10e0 d9bd 1a52 c73c
000003c0: 0d0c 2e3e 635c 03be 6b16 5d3e b2f2 dd3d
000003d0: 8934 213e 523d f0bd e85a 803b 7810 9e3d
000003e0: a295 febd 8c38 bc3d bd57 003e 7997 fd3d
000003f0: 66da 19bc 3b85 c9bd 431c 3ebe d834 51be
-0.16205154 -0.13038357 0.22547504 0.11060631 -0.016282272 0.101386234 0.20478094 0.011382767
0.14824402 -0.18999171 0.048755035 -0.119053766 0.0318438 0.22157744 -0.10777382 0.21044733
0.20392624 0.03299941 0.20500909 -0.1825442 -0.20369473 -0.13113861 0.18599766 -0.15370607
0.11960652 0.09800341 0.08871092 -0.067642935 0.036842357 0.045588188 -0.09760594 -0.004247168
0.06088467 -0.008937019 0.15588906 -0.16126682 -0.114901245 0.032514207 -0.22348766 -0.08191116
0.02371281 -0.15235814 0.050593372 -0.058522556 -0.10474743 0.068899296 0.20810986 -0.03266985
-0.033695325 0.1718544 0.09196664 0.20334971 -0.109030224 0.06086918 0.08977593 0.13594224
-0.18533613 0.18283646 0.20930208 0.09632649 0.20368488 0.02704244 0.09700781 -0.07051244
-0.024253653 0.09009811 0.022835836 0.061869454 -0.09167735 -0.03985854 0.19726303 -0.19239755
0.078563705 -0.14699875 -0.14951804 -0.025189206 0.07854065 0.06254454 0.21519776 -0.11258681
-0.18105505 0.14447534 0.16953416 -0.010001421 0.14428158 -0.069315314 0.0007770526 -0.20850395
-0.13729407 0.14946298 0.06833201 0.15724282 -0.11276887 -0.035974324 -0.1496234 0.114892825
-0.063064344 -0.0751467 0.13234024 -0.18215598 -0.027381988 0.02902073 0.09786067 0.025527235
0.14369825 -0.13709453 -0.060051043 -0.18177328 -0.19468838 -0.049743075 -0.032349203 0.01842845
0.072847664 -0.069771364 -0.0030912685 0.10348072 0.21191911 0.17010495 0.1771754 -0.028421326
-0.080931865 0.09762847 0.17205259 0.19516458 0.13457666 0.014393747 0.11157422 0.12119515
-0.110774525 -0.015219028 -0.018659186 -0.08467182 0.02738684 -0.031630505 -0.028389487 -0.20849574
0.12702018 0.1570648 0.1384706 0.064403996 0.14424704 -0.21144158 0.13304478 0.030678684
-0.0049618585 0.0911646 -0.16355932 0.113524064 0.13129771 0.11177894 -0.08106811 0.07707742
-0.14361484 0.056541536 -0.11628406 0.027107557 0.017653305 -0.20277072 0.1567578 0.20393178
0.0033740725 -0.0030012648 0.15758449 -0.0542042 -0.17696966 -0.04038271 0.12686236 -0.06418198
0.19405086 -0.048625313 0.23166479 -0.13885887 0.17008512 -0.18046482 0.18406656 -0.002366896
-0.113338135 0.10299372 0.11387502 0.22514187 0.022799658 -0.18273617 -0.06939151 0.20317309
-0.07688819 -0.11017082 0.011438256 0.16121347 -0.088251874 0.24223235 -0.046897464 -0.21965809
0.16514502 0.055325136 -0.22430417 -0.086755015 -0.018235635 -0.06726137 0.06258125 -0.02108701
-0.19410568 0.008106746 0.17257108 0.023640744 -0.030194307 0.0964159 0.026060535 0.015551107
0.20386037 0.13807258 -0.10427723 0.050980005 0.067248195 -0.13336165 0.05522539 -0.04482692
0.20190899 -0.16591428 -0.014723728 0.15599352 0.06692023 0.163202 -0.107168734 0.02711243
0.100282684 -0.025029233 -0.04190536 0.17249309 -0.013718575 0.107257254 0.091377966 -0.041586205
0.070923015 -0.10897378 0.056523703 -0.039487205 -0.03662763 -0.10376765 -0.1063844 0.024331141
0.16996785 -0.12828211 0.21590583 0.10837306 0.15742697 -0.11730446 0.003917087 0.07717985
-0.12430884 0.09190473 0.1253347 0.12382407 -0.009390449 -0.09839865 -0.18565468 -0.20430315

conv1.bias f4 [32]
00000000: cc49 6ebc a0a4 793c e43d d23c 20f0 5b39
00000010: 8eff c1bb 1d0a 00bd afe5 713c 772b 0fbd
00000020: 29a9 563d 6c5e d03a 8cd9 973c 2dfe f439
00000030: ef18 d9bc 4a4e a5bc 1dc3 0939 b059 9cbb
00000040: f06f 9fba 6801 8cbb 8869 b3ba a0d3 5abc
00000050: 1aa7 83bc d1c2 d1bc 9479 dfbc 1b6a eb3c
00000060: f875 173d 2d67 133c de14 a83a 5b91 043d
00000070: 5626 eebc f407 b63c 31e1 f4bc 0ea0 8cbc
-0.014543962 0.015237004 0.025664277 0.00020974921 -0.005920357 -0.031259645 0.0147642335 -0.03495356
0.052407417 0.001589728 0.018536352 0.00046728682 -0.026501147 -0.020178933 0.00013138023 -0.004771434
-0.0012164097 -0.0042726286 -0.0013688067 -0.013356119 -0.016070891 -0.025605591 -0.027279653 0.028737118
0.03697774 0.008996767 0.0012823602 0.032365184 -0.029071014 0.02222059 -0.029892536 -0.017166164

conv1.nn.0.weight f4 [8, 116]
00000000: 366b 1ab9 2403 b7bb 4943 8ebb 289a 353c
00000010: a343 79b9 3198 beb9 2f4b dc3c e764 58ba
00000020: 9ebb 1c3d 1ad9 3e3d afc3 e0ba acf9 05bc
00000030: 6b6c 323d cc87 8abb f1ca 9c3d 7372 38bb
00000040: 80ba 18bc 53e5 073d 8dd8 dd3b d65a 233d
00000050: 4cbd 88ba 820e b63d 41c1 993c 8231 183d
00000060: a79d c23c 9b97 c23c 4575 9fba 373c ceba
00000070: 9077 ebba 494c 4d3c 6420 10ba fcde 80b6
00000080: 69b1 dbba a748 b33c 8300 a73c f68d 0d3d
00000090: ec81 8fb6 ba43 153d 30d4 0bbb d662 39bb
000000a0: 1b9a d0ba 0629 9db8 e36f 7a3d a11a 2cba
000000b0: a31a 1db8 3c09 bf3d 5e0c b83d 6a70 1cba
000000c0: 7a58 5e3c 44c4 423d fd56 b23c ec22 3cbb
000000d0: 74f3 5f3d 5c9f e8bb 4467 20bb 6807 fdb6
000000e0: d800 c8bb cee9 f5b9 4496 a73d a1f4 093d
000000f0: 0387 b93c f00a c53d ea4c 9f3d f3f8 463d
00000100: 89f2 22bb 7c53 d2ba 33fc 20b9 e9ac a6ba
00000110: 8401 92bb c653 2abb 82ba bebb 107c dcba
00000120: 2f29 ccb9 650a 8b3c 91fc f0ba 16b0 1dbb
00000130: a9c9 583c e75b d93c 1bcf e03d 8be2 e83c
00000140: 40f9 6dbb 8da6 53ba 1a84 9dba a920 69bb
00000150: dbb3 08bb f566 1fbb b834 453c 92f3 80bb
00000160: cd27 54bb 47d2 993c f692 023c d988 c2bb
00000170: 5208 0eba 52b3 853c 9c3a e7bb a4b1 acbb
00000180: fc33 33bc e6b1 6cbb 027f 7a3c 8b48 743d
00000190: 5f8a 2db6 a6e1 6cb8 4492 b4b9 4e8a 03b6
000001a0: a0df 47ba f991 42b6 aa09 1fb8 a4a0 8eb9
000001b0: 7d3b 6ebb 6506 12ba a641 e9b8 92fb 65bc
000001c0: a641 6dbb a541 90bb 850c 97ba 3ba1 1e3c
000001d0: 8105 29bb 3a58 5cb9 18fc 923d a06a 833d
000001e0: 5911 84ba 35ef bdb8 0823 e1ba 1986 873d
000001f0: d1cb dabb 1f58 8bba 4b96 baba a551 c7bb
00000200: e3d1 d53c d81f a7bb b990 a63c 190f 993a
00000210: 304a 57bc 862b f5b9 6780 6e3d 796d 17bb
00000220: b230 c53c 0f96 84bb 9b8c a03c 829d 01bc
00000230: a53c 10ba a8a2 943d c877 5639 dcd1 48ba
00000240: ce4a 73ba 0c57 f53c 3be8 46b9 c473 d03c
00000250: e673 2c3b c0f1 12b9 a641 4bbb fa18 f7ba
00000260: 0585 763c 2c23 2bbb f90b ebba 3d8c 923a
00000270: 55fd b9ba a769 8f3c 0f7c 0f3d a9ab 2a3c
00000280: aec3 b33d 3576 233d 626a 25ba 35bf 1fbb
00000290: 42c6 a13c 1035 8ebb 60bc 683d 925c 333d
000002a0: 7421 a23c 7cda d73b 298b 543d 2ec0 36ba
000002b0: f96f 89b9 30b8 9fba 4bdc 3b3d a011 77bb
000002c0: 9848 0abc 47ac c63d a2a1 74bb f8ad a73c
000002d0: 2395 6bbc 62d7 6d3d 4e4e 4db9 8751 df3c
000002e0: b788 2b3d 2192 943d 04dd 1f3d dd08 fcb8
000002f0: 481c 9eb3 4631 b1b9 7b39 d8ba 189f 02bb
00000300: 5570 273c 9e8e 0c3d 31fc ecbb fd4a c9bb
00000310: 964c de3b 7adb af3a ecd6 673d 76d2 66bb
00000320: cdf3 d0bb a362 1e3d 9046 043d dbde bc3d
00000330: 7912 31b5 86fd 35bb 2ffd 413d 2317 ef3c
00000340: 7d61 233d c24a ac3c 92ae 8f3d cc26 32bc
00000350: 6b50 333d bfe1 233d aa5a 173d 6e52 63bb
00000360: 996f beba 71c3 d53c 8970 08b8 bb4d 2ab6
00000370: 8650 5d3a cb42 81b9 34bf 8bb8 b716 efb9
00000380: a447 893c b31b 64bb 006c aebb 0d7a 61bb
00000390: f299 48bb ecd7 73bb 1be7 243d a190 21b6
000003a0: dd12 473d fbbe d73b cb99 5dbb ea6b 833c
000003b0: 26b4 cfb5 8077 95b7 0610 bfb8 d2b0 d3ba
000003c0: b227 45b9 9ab5 1e3d 81bc d1b8 00f1 943c
000003d0: f5a9 6bb8 b68b bebb 70a7 493c 85ed 9fbb
000003e0: a091 60b6 ba30 5d3b f044 37bb b19b 2fba
000003f0: fc34 5e3d 5cae de3c 5830 52bb a052 74bb
-0.00014726524 -0.005585091 -0.004341517 0.011084117 -0.00023771687 -0.00036353015 0.02689132 -0.0008254782
0.038264863 0.046593763 -0.0017148162 -0.008177202 0.043560427 -0.004227614 0.076558955 -0.002814439
-0.009321809 0.033177685 0.0067701996 0.03988155 -0.0010432391 0.08889486 0.018768908 0.03715659
0.023756815 0.023753932 -0.0012165686 -0.0015734498 -0.001796471 0.012530395 -0.00054979906 -3.840656e-06
-0.0016761246 0.02188523 0.020385986 0.034559213 -4.276857e-06 0.036441542 -0.002133619 -0.002828767
-0.0015915068 -7.4939846e-05 0.06114186 -0.00065652473 -3.7456524e-05 0.09327933 0.08986734 -0.0005967679
0.013570899 0.047550455 0.021769995 -0.0028707338 0.054675534 -0.0070990752 -0.0024475614 -7.5408498e-06
-0.006103616 -0.0004690424 0.08182958 0.033680562 0.022647386 0.09621227 0.07778342 0.04857726
-0.00248638 -0.0016046609 -0.0001535274 -0.0012716326 -0.004455747 -0.0025989874 -0.0058205733 -0.0016821641
-0.00038940596 0.01697273 -0.0018385818 -0.0024061254 0.013231673 0.02653308 0.10977002 0.028428337
-0.0036311895 -0.0008073829 -0.0012017519 -0.0035572445 -0.0020859155 -0.0024322842 0.012036495 -0.003935286
-0.0032372356 0.018777026 0.0079696085 -0.0059367237 -0.000541811 0.016320858 -0.0070565473 -0.0052702
-0.010937687 -0.0036116778 0.01528907 0.059639495 -2.5859551e-06 -5.6476936e-05 -0.00034441252 -1.9601025e-06
-0.000762457 -2.899322e-06 -3.7917554e-05 -0.00027204037 -0.0036351376 -0.0005570411 -0.00011122534 -0.01403703
-0.003620246 -0.0044023567 -0.0011524117 0.009681995 -0.0025790634 -0.00021013702 0.07176989 0.064168215
-0.0010075971 -9.056778e-05 -0.0017176578 0.06617374 -0.006677129 -0.001063112 -0.0014235465 -0.006082731
0.026101058 -0.0051002316 0.020332681 0.0011677473 -0.013140246 -0.0004676247 0.058227923 -0.0023106022
0.024071071 -0.0040462087 0.019598296 -0.007911088 -0.0005502201 0.07257587 0.00020453252 -0.0007660666
-0.0009280861 0.029948734 -0.00018969264 0.025445826 0.0026314198 -0.00014013704 -0.0031014471 -0.0018852048
0.015046363 -0.0026113493 -0.0017932645 0.001118071 -0.0014189879 0.017506434 0.03503042 0.0104169035
0.08777557 0.039907653 -0.0006310103 -0.0024375443 0.019747857 -0.0043398216 0.056820273 0.043789454
0.019791342 0.0065873247 0.051890526 -0.0006971386 -0.00026214102 -0.001218563 0.045864385 -0.0037699714
-0.008440159 0.09700828 -0.0037327786 0.020468697 -0.014378819 0.058066733 -0.00019579494 0.027260555
0.04187843 0.072544344 0.039029136 -0.00012017947 -7.362593e-08 -0.00033796782 -0.0016496623 -0.0019931253
0.010219653 0.034315698 -0.007232212 -0.0061429725 0.006784032 0.001341685 0.05660145 -0.003522066
-0.0063767196 0.038668286 0.032293856 0.09222194 -6.596452e-07 -0.002776952 0.047360595 0.029185837
0.039887894 0.021031741 0.070157185 -0.010873508 0.043777864 0.04001021 0.0369517 -0.0034686583
-0.0014529108 0.02609417 -3.2529733e-05 -2.537722e-06 0.000844248 -0.00024654562 -6.663651e-05 -0.00045602556
0.016757794 -0.003480655 -0.005322933 -0.0034405023 -0.0030609337 -0.0037207557 0.04025946 -2.4075055e-06
0.048601974 0.006584046 -0.0033813592 0.016042668 -1.5475132e-06 -1.781783e-05 -9.110574e-05 -0.0016150719
-0.00018802172 0.038747407 -0.00010001008 0.018181324 -5.618665e-05 -0.0058149947 0.012307987 -0.0048806095
-3.3463366e-06 0.0033750967 -0.0027964674 -0.000669892 0.05424975 0.02718275 -0.0032072272 -0.0037280694

conv1.nn.2.weight f4 [7040, 8]
00000000: 518c e7bc 9b2b 4a3b d71b 2bbb 59e4 8fbd
00000010: 6373 353d a155 6abd f3e4 42bb 0393 dcbd
00000020: 7038 e3bc abe6 d1bd 0d63 173c 6ae3 b2bd
00000030: 56d8 b0b2 80f0 ae3d 2940 67bc 49a2 72ba
00000040: 73fb d4ba 3594 b7bc 943f 6f3d 5222 febc
00000050: c3a9 cabc d93e 7d3c 92e0 a23b 2cb9 1ebc
00000060: 3d52 98bb 1890 95bc 5896 d3bb 7416 8b3d
00000070: a0f8 3abb a864 fbb9 914b 043d 31f1 bf3c
00000080: 36b8 f9bb 816c 2d3b 12f2 833d 611c 53bc
00000090: 25e1 eb3d a7d8 f13b 5d5b b33c bd42 373a
000000a0: 3176 b13b a0a7 81bd f559 753c bc86 a4bd
000000b0: ef90 2abd b007 4e3d 1b87 5dbb 7335 d9bd
000000c0: d002 12bb 6daf c33b 104e 07bb a2a0 35bd
000000d0: 0434 983d fea6 afbd 14f2 d73a 8cc7 4cbb
000000e0: f1f1 8cbb 91f4 bfbd 6a29 853c dbd5 e1bb
000000f0: 7d3f 0a3b 8ba1 633b 5b8b 73bd 3c14 dc3a
00000100: 668e e1bd 3aa6 8d3d 865f b43c 409a b5bb
00000110: f69f 6d3c e057 05bd c580 3cbc 1268 e3bd
00000120: 6289 3abb b4f0 0bbb f76a 32bb d6aa cc3b
00000130: cf46 c93d 0e37 3cba f950 7ebc a929 aa3d
00000140: cd13 c23d dddb 813c 5874 933c a1a3 cc3b
00000150: d256 86bd 1cdc 9abd 3fea a83d 3452 60bd
00000160: ee62 a0bb 5ad7 eebd ed61 843a c7e5 143c
00000170: 22da 91bd d2c0 ccbc 3990 21bb 02c9 cb3b
00000180: 6e60 cc3d 979a abbc 4848 dcbb b2db 54bc
00000190: ed06 123c 6514 a1bb 4492 8c3a a92b 893b
000001a0: f393 b23b 089e 4a3b 383a 33bb de3b 4a3d
000001b0: 373e 98bc d1dd ed3c b9bb 2a3c d9bc 5d3c
000001c0: f495 24bc 7852 aa3c e8e5 76bd 4bf2 bbbd
000001d0: 8dd6 813d 9a76 a13d 847b 2f3d a7b6 bbbb
000001e0: fbbe 46bc 9ca7 803d a741 d03d b83c 37bb
000001f0: 62dd 123c 73f0 f8bb 2c0e ed39 4b0c 13bd
00000200: cc4e 1c3d b243 e73b 6743 7bbc 1a19 a03d
00000210: 4180 223a f774 ed3c 33d0 d83d 0fff ce3b
00000220: 0629 bf3b 3ead f2bb 2d38 89bd ba7c 96bd
00000230: 9ef7 e2bd bddb bd39 8aba d3bd 62ab f43d
00000240: 6df1 b03b a583 0c3d e309 813d 488e bc3d
00000250: 383a 26bc dc4d 8abd 9868 d33d 26d7 36bc
00000260: 58f5 17bd cb9b 76b8 eb57 c23c 1ebc 4937
00000270: 3877 0339 e2f1 c5bc 76cc 92bd 2d77 8fbb
00000280: 7f44 22bd 21d4 743d a40d 4a3b 8e39 a2b9
00000290: 2d5f 44bd eec1 03bd eb61 863c 43cd c7b9
000002a0: 20a7 85bb 0f11 813d d992 8d3d d419 b33d
000002b0: 5dab f83d a80f c23d 21a9 0ebb 79bd 8a3d
000002c0: ab6c fc3c cd84 20bc 6975 57bc b32b 073b
000002d0: 5b6f 62bd 3ec3 bbbd 0396 05bb afdb b83d
000002e0: 3ed1 7dbd 40a9 a0bd 63ee 1c3d 6b2c ce3c
000002f0: 4b71 6ebd 44e6 743d 5a4c dcba b2ab 1c3c
00000300: b84f c23a f789 153b 3d5f cb39 81e7 f3bc
00000310: 4ac5 50bb ec8c 623b 1ed0 a43d e628 97bc
00000320: 4d50 c6bb 2207 bcbd ea15 a4bc 4c0f 69bc
00000330: b310 b63c 0216 563c 9bb0 5abc 23d5 bcbc
00000340: 773e 39bc 45ba 41bb a9cc cf3b 1447 d43d
00000350: 7325 c8bd cdb8 bc37 f6b0 3d3d 9aae b4bc
00000360: 9f7b 173c 6ba7 01bc 52b9 9c3d 61fc 423d
00000370: 0c4e 55bc 2999 4e3b 37c6 a9bc 16b9 62bd
00000380: b8ff 53bc 1bfe 08bc b494 a83c 18fd 6ebc
00000390: abeb 9e3b f21d c43a 368a 00bc 6097 efbb
000003a0: 9a56 07bc 5bb0 eabc e5ee 973d 78b7 acba
000003b0: 5a88 4cbc d94c aa3d a6fa e8bb 08c5 a5bc
000003c0: f58d 453c 7a65 b2bd 4465 d0bb 5d6f d4bd
000003d0: fb82 32bb 2b00 cc3d 435b 7fbc 696b 71bb
000003e0: beb8 3cbb 1848 763b 73b1 b7bc bc64 ccbd
000003f0: 3def 9cbd acc1 5f3d 5dbc b83c 16cb 40bd
-0.02826515 0.0030848745 -0.0026109123 -0.07025976 0.044299494 -0.05721057 -0.0029738515 -0.10770228
-0.027736872 -0.102490745 0.009239924 -0.08734782 -2.0587475e-08 0.085419655 -0.014114418 -0.000925575
-0.0016249254 -0.022409538 0.058410242 -0.031022225 -0.024739152 0.015456879 0.0049706185 -0.009687703
-0.0046484754 -0.018257186 -0.0064571314 0.06791392 -0.002852954 -0.00047949445 0.03229863 0.023430439
-0.0076208366 0.0026462378 0.064426556 -0.012885184 0.11517552 0.0073805633 0.021894151 0.0006990841
0.005415701 -0.063308 0.014975061 -0.08033511 -0.041642126 0.0503003 -0.0033802453 -0.10605898
-0.0022279508 0.00597184 -0.0020645894 -0.044342645 0.07431796 -0.08576773 0.0016475343 -0.003124687
-0.0043013026 -0.09372819 0.0162551 -0.0068919486 0.002109497 0.0034733738 -0.05945907 0.0016790698
-0.110134885 0.06916471 0.022018205 -0.0055420697 0.01450347 -0.032554507 -0.01150531 -0.11103834
-0.0028463234 -0.0021353187 -0.00272244 0.006245951 0.09827959 -0.00071798346 -0.015522235 0.08308727
0.09476433 0.01585191 0.017999813 0.006245092 -0.065595284 -0.07561514 0.08247804 -0.054765895
-0.004894606 -0.11662169 0.0010099985 0.009087986 -0.07121684 -0.024994288 -0.0024652614 0.0062190304
0.0997933 -0.020947738 -0.006722484 -0.012991833 0.008912784 -0.0049157613 0.0010724743 0.004186113
0.005449766 0.0030916948 -0.0027347934 0.0493735 -0.018584354 0.029036434 0.010420733 0.013533794
-0.010045517 0.020791277 -0.06027785 -0.09177073 0.063397504 0.078839496 0.042842403 -0.005728561
-0.012130494 0.06281969 0.10168772 -0.0027959775 0.008963915 -0.007597023 0.00045214721 -0.035900395
0.038161084 0.0070576305 -0.015335894 0.07817288 0.0006198921 0.028986437 0.10586586 0.0063170264
0.005833748 -0.007405906 -0.06700168 -0.073480085 -0.110823855 0.00036212607 -0.10338314 0.11946751
0.005399874 0.034305234 0.06300714 0.092068255 -0.010145716 -0.06753132 0.10322684 -0.011159694
-0.037099212 -5.8796064e-05 0.023723563 1.2024333e-05 0.00012537546 -0.02416319 -0.07167904 -0.0043782205
-0.039616104 0.059772614 0.0030830884 -0.0003094193 -0.04794233 -0.032167368 0.016404113 -0.0003810917
-0.0040787607 0.06302082 0.069127746 0.08745161 0.1214206 0.094756424 -0.002176829 0.0677442
0.030813536 -0.009797287 -0.013150551 0.0020625412 -0.055281978 -0.09168099 -0.0020383603 0.09026276
-0.061967127 -0.07844782 0.03831328 0.025167665 -0.058213513 0.05978991 -0.0016807423 0.00956242
0.0014824783 0.002281783 0.00038790135 -0.029773476 -0.0031855875 0.003456886 0.08047508 -0.01845212
-0.006052053 -0.09181048 -0.02002998 -0.014224838 0.02222476 0.0130667705 -0.01334777 -0.02305085
-0.011306397 -0.0029560488 0.006341536 0.103651196 -0.09772768 2.2497401e-05 0.04631134 -0.022055913
0.009245782 -0.007913451 0.076525345 0.04760397 -0.013019096 0.0031524396 -0.020724399 -0.055352293
-0.012939386 -0.008361365 0.02057872 -0.014586709 0.004849871 0.0014962538 -0.007845452 -0.0073117465
-0.0082603935 -0.028648546 0.074186124 -0.0013177237 -0.012483681 0.08315439 -0.0071099577 -0.020235553
0.012057771 -0.08710761 -0.006359728 -0.10372803 -0.0027238715 0.099609695 -0.015585723 -0.0036837703
-0.0028796638 0.0037579592 -0.022423482 -0.09980151 -0.076628186 0.05462806 0.022550756 -0.047068678

conv1.nn.2.bias f4 [7040]
00000000: d7f0 25be 4583 05be eee2 663e 9085 e23d
00000010: 6662 85bc 96a3 cf3d 18b2 513e c97e 3a3c
00000020: 48cd 173e 308d 42be 5cb3 473d 76d2 f3bd
00000030: a56e 023d 32e5 623e 85b8 dcbd 817f 573e
00000040: 0ad2 503e 642a 073d e7ed 513e deec 3abe
00000050: 5a95 50be 3349 06be 2c76 3e3e 2065 1dbe
00000060: 43f4 f43d 03b6 c83d 12ae b53d 6188 8abd
00000070: 03e8 163d aeba 3a3d a0e5 c7bd d42b 8bbb
00000080: 3462 793d 936c 12bc 62a1 1f3e 2123 25be
00000090: 5851 ebbd 9e2d 053d f3d9 64be 0ac1 a7bd
000000a0: 5e41 c23c c603 1cbe ff3a 4f3d 59b5 6fbd
000000b0: d285 d6bd 131b 8d3d c01a 553e d2d0 05bd
000000c0: 1c04 0abd 9afa 2f3e 0159 bc3d e83a 503e
000000d0: 3d4b dfbd f651 793d 71dc b73d 7134 0b3e
000000e0: c1c8 3dbe 7b39 3b3e 4953 563e d346 c53d
000000f0: c592 503e 1b88 dd3c 08ac c63d d368 90bd
00000100: 99af c6bc 5c85 b83d 3812 bb3c d36a 7d3d
00000110: 56c1 bbbd b542 23bd 52ff 493e dd03 45be
00000120: 02e6 a03d d786 16be 421b 19be 9859 cebc
00000130: ecd9 a03d 5a17 803d cd5c 5c3e ea93 e6bd
00000140: 7f66 39be 58f1 133e 5d9a 2d3e 00dd 23bc
00000150: 8dbe 133e 30f5 8dbd 1eb3 4b3a 0f82 55be
00000160: d196 0cbe d30c 193e a7f1 8b3d 4304 213e
00000170: 5ef3 e6bd d059 13bd e036 19be ee4c eb3d
00000180: e127 81bd 83e6 99bd 3384 073e 1987 3abe
00000190: 3150 e0bc e2bc ed3c 2d6b c83d 7e1e d13c
000001a0: a225 133e 8262 0cbe 15f8 75bd c622 3abe
000001b0: 645c 47be 65bf 4bbd 9980 04bd 43f7 963c
000001c0: 2831 953d 4ae4 8ebd e196 4abb b3ed d33d
000001d0: 5301 593e fe2f 2e3e 786d 353e d7d3 e8bc
000001e0: 9bbf a5bd 6ff1 c73d 8e2e 303e 39d9 473e
000001f0: 77ce 093e c0d3 6b3c 0681 e43d 2a35 f83d
00000200: c1dd e2bd 3b59 79bc 26db 98bc 6b68 adbd
00000210: 5e5a e03c fd8e 01bd 1291 e8bc e87f 55be
00000220: 9411 023e 98d5 203e 3dcb 0d3e 3ee6 833d
00000230: 7fb5 133e 2484 58be e43c 083e dd51 fb3c
00000240: 1697 a2bb 81b4 ba3d 187c 27be 4e7f e83d
00000250: e872 063e 5bec e43d 0a07 a6bd c4da 9d3d
00000260: c50f 13be 1998 673d 5626 eebd ab10 de3c
00000270: aa9d 903c 21a3 4fbe 1e85 203e 7ed3 503e
00000280: 8b1f 5d3b deb0 44bb d45d 213e 3905 5ebd
00000290: 8937 35be 5768 25bd 35e8 013e d871 83bd
000002a0: 45b5 463e 562b 47bd 8939 6d3e 0531 0ebe
000002b0: cb2a 2e3e c5cb 38be f27b 3c3e ed1d 1bbb
000002c0: d31d e8bd 5fee d23d 4e37 e93d 978b 663e
000002d0: 59c6 ba3c 311f 3bbe 231d 8ebd 9b0c 503e
000002e0: 8e77 9dbd 3da1 e1bd 8667 3b3c 2515 253e
000002f0: 66bd b4bd c20b 783e 8e17 40bd 0dee 60be
00000300: c71b 293e 9c9c 623d feaf 65be 9dac b1bd
00000310: e662 95bc 54c0 89bd 992a 803d aabe acbc
00000320: a4c3 46be 28d2 043c 79b6 303e 3caa c13c
00000330: 0d5a f7bc b375 c53d e77c d53c 12ca 7e3c
00000340: c6c0 503e e662 0d3e 4d8f d5bd 69d0 503d
00000350: 6cb9 893d f58f 08be 0534 623d 6f9c 37bd
00000360: 3bc1 4e3e 6fe5 29be cb3b 71bc c4bc 1f3e
00000370: 790d 893d 6d1e 273e 487b dbbd e31a de3c
00000380: 0261 cd3d 1b0a cdbc f4a4 2bbd 07a2 303e
00000390: e0c3 60bc b1a9 db3d 5f24 bb3d 4c56 2abd
000003a0: 1640 913d a52d dfbd 6685 673d 56bd 21bd
000003b0: db06 16bd 2284 d4bd 10e0 d9bd 1a52 c73c
000003c0: 0d0c 2e3e 635c 03be 6b16 5d3e b2f2 dd3d
000003d0: 8934 213e 523d f0bd e85a 803b 7810 9e3d
000003e0: a295 febd 8c38 bc3d bd57 003e 7997 fd3d
000003f0: 66da 19bc 3b85 c9bd 431c 3ebe d834 51be
-0.16205154 -0.13038357 0.22547504 0.11060631 -0.016282272 0.101386234 0.20478094 0.011382767
0.14824402 -0.18999171 0.048755035 -0.119053766 0.0318438 0.22157744 -0.10777382 0.21044733
0.20392624 0.03299941 0.20500909 -0.1825442 -0.20369473 -0.13113861 0.18599766 -0.15370607
0.11960652 0.09800341 0.08871092 -0.067642935 0.036842357 0.045588188 -0.09760594 -0.004247168
0.06088467 -0.008937019 0.15588906 -0.16126682 -0.114901245 0.032514207 -0.22348766 -0.08191116
0.02371281 -0.15235814 0.050593372 -0.058522556 -0.10474743 0.068899296 0.20810986 -0.03266985
-0.033695325 0.1718544 0.09196664 0.20334971 -0.109030224 0.06086918 0.08977593 0.13594224
-0.18533613 0.18283646 0.20930208 0.09632649 0.20368488 0.02704244 0.09700781 -0.07051244
-0.024253653 0.09009811 0.022835836 0.061869454 -0.09167735 -0.03985854 0.19726303 -0.19239755
0.078563705 -0.14699875 -0.14951804 -0.025189206 0.07854065 0.06254454 0.21519776 -0.11258681
-0.18105505 0.14447534 0.16953416 -0.010001421 0.14428158 -0.069315314 0.0007770526 -0.20850395
-0.13729407 0.14946298 0.06833201 0.15724282 -0.11276887 -0.035974324 -0.1496234 0.114892825
-0.063064344 -0.0751467 0.13234024 -0.18215598 -0.027381988 0.02902073 0.09786067 0.025527235
0.14369825 -0.13709453 -0.060051043 -0.18177328 -0.19468838 -0.049743075 -0.032349203 0.01842845
0.072847664 -0.069771364 -0.0030912685 0.10348072 0.21191911 0.17010495 0.1771754 -0.028421326
-0.080931865 0.09762847 0.17205259 0.19516458 0.13457666 0.014393747 0.11157422 0.12119515
-0.110774525 -0.015219028 -0.018659186 -0.08467182 0.02738684 -0.031630505 -0.028389487 -0.20849574
0.12702018 0.1570648 0.1384706 0.064403996 0.14424704 -0.21144158 0.13304478 0.030678684
-0.0049618585 0.0911646 -0.16355932 0.113524064 0.13129771 0.11177894 -0.08106811 0.07707742
-0.14361484 0.056541536 -0.11628406 0.027107557 0.017653305 -0.20277072 0.1567578 0.20393178
0.0033740725 -0.0030012648 0.15758449 -0.0542042 -0.17696966 -0.04038271 0.12686236 -0.06418198
0.19405086 -0.048625313 0.23166479 -0.13885887 0.17008512 -0.18046482 0.18406656 -0.002366896
-0.113338135 0.10299372 0.11387502 0.22514187 0.022799658 -0.18273617 -0.06939151 0.20317309
-0.07688819 -0.11017082 0.011438256 0.16121347 -0.088251874 0.24223235 -0.046897464 -0.21965809
0.16514502 0.055325136 -0.22430417 -0.086755015 -0.018235635 -0.06726137 0.06258125 -0.02108701
-0.19410568 0.008106746 0.17257108 0.023640744 -0.030194307 0.0964159 0.026060535 0.015551107
0.20386037 0.13807258 -0.10427723 0.050980005 0.067248195 -0.13336165 0.05522539 -0.04482692
0.20190899 -0.16591428 -0.014723728 0.15599352 0.06692023 0.163202 -0.107168734 0.02711243
0.100282684 -0.025029233 -0.04190536 0.17249309 -0.013718575 0.107257254 0.091377966 -0.041586205
0.070923015 -0.10897378 0.056523703 -0.039487205 -0.03662763 -0.10376765 -0.1063844 0.024331141
0.16996785 -0.12828211 0.21590583 0.10837306 0.15742697 -0.11730446 0.003917087 0.07717985
-0.12430884 0.09190473 0.1253347 0.12382407 -0.009390449 -0.09839865 -0.18565468 -0.20430315

pool1.select.weight f4 [1, 32]
00000000: e660 31bd f09b 63bb 35f2 423d fc35 b8bc
00000010: 92e4 f73c 857c 66bd cd2e b2bc 25fb dcbd
00000020: 7134 a93d a205 d3bd 5d6a 03bd 1d36 c4bd
00000030: 5204 123c a63e c7bc 94d8 53bc 5427 99bd
00000040: 70f7 363d 278b 8bbd 3ec8 4d3d fe44 36bd
00000050: 51c8 a2bd 9dda 5c3d f52a 833c 3af1 a63d
00000060: 46d9 26bd 8f5e efbc 0b18 9fbb 7f27 7b3d
00000070: 4f38 07bd 4bce 4dbd 677c 81bd fbd4 d7bd
-0.0433053 -0.0034730397 0.047594268 -0.02248668 0.030260358 -0.056271095 -0.021750832 -0.107900895
0.082619555 -0.10303809 -0.032083858 -0.09580634 0.008912163 -0.024321865 -0.012930054 -0.07478204
0.04466957 -0.068136506 0.050239794 -0.04449939 -0.079483636 0.053919423 0.016011694 0.08151479
-0.04073455 -0.029219894 -0.004855161 0.061316963 -0.033012684 -0.050245564 -0.06322556 -0.1053867

n2.0.weight f4 [8, 116]
00000000: b544 033c a561 893c 7f4e 0b3d 6e5d 6dba
00000010: 694c 9031 0258 06b1 95b7 b1b9 287f 803c
00000020: 66f7 99bb b717 87bb b093 53ba 8fb2 49bb
00000030: f6e7 22bb be3e 233c 841c b63b 9bbc 933b
00000040: 349c 073c 702a 00bb 1a85 c53c d064 793c
00000050: c578 3f3a c3f1 e2ba 3851 c83a 7f2e 1e3d
00000060: 058f 0e3d 07b5 a9b9 1a40 b8b2 cf70 89b5
00000070: 10d9 973c 585d 373d 638b b53c 7a02 2d3c
00000080: d50a 09ba 90b9 f23c b6c7 3cba d45c fdba
00000090: 87ab bfb7 ebc2 933b f36b c1b3 4598 6bb5
000000a0: 968c 5bb1 628f 8639 61ad ebb7 941f 11ba
000000b0: 0cc6 68b9 53e9 11ba 9b7a 25bb 7371 4a3d
000000c0: 5857 63b8 3bbc 23b9 caec 09ba 87d7 a439
000000d0: 7229 5eb7 79c7 383d 5b74 073d 987b 80ba
000000e0: 160e 6f3c 8b44 bfb9 bdf9 18b9 21fb 8dbb
000000f0: ff8c 703a 1d0b 12b1 4116 42b8 7cdf 9839
00000100: 53d7 8fb6 2247 b231 16b3 f03c 4126 403d
00000110: 7504 da3b a71d 193c 9e97 97b9 a6b2 e7ba
00000120: 7d13 a23b 8872 f33c df6d 1532 d6b7 f2b1
00000130: f43a e939 ffb7 e9b8 02ab 79bc 68cf 973c
00000140: 6319 52b9 b6b0 17ba fe55 c3b9 79d1 c3b9
00000150: 90e6 173d c3ae 11b8 77e2 2b3d 79d9 f93c
00000160: 6214 50b9 493e c0ba dd2c 9c3c 623d 083d
00000170: 4c9b 8b3c aa84 1a3b ea73 893c 7ea5 c4ba
00000180: 3a7a a9b8 871e d8ba 7ef5 12ba 6ef6 383c
00000190: 2b43 43b7 69db a4b6 ba64 b8b4 9f49 34b7
000001a0: 9f9b 702f 5866 fcb8 ef63 a9b2 ad94 51b3
000001b0: 9da2 dc3a 8ffc 023d 0078 e8ba 9274 423c
000001c0: e29e 87bb 728f ddba 6aa3 09bb 48c5 b6bb
000001d0: d887 d83c 7acc e0ba 0bf7 d7ba e031 21bb
000001e0: 4bcd 1bb5 5027 9cb1 1b52 0e3c 8786 6b3c
000001f0: 03f8 f5bb 9433 8d3b 445c 3f3c a2bd 183d
00000200: 9da2 ad3c a839 23b9 7b40 323c 9a0a bfb9
00000210: 3948 58ba 1c38 903c bb31 e9b9 2ff5 543d
00000220: 0b3b 6e3a 96d4 433b 0d78 05bb 7b4a 07ba
00000230: a8c8 9e3c ca44 c1b9 5f1b 1bb2 de0e 42b3
00000240: 7f9d 913a 48f5 383d 4255 603c 36f6 163d
00000250: 9d2b 633d 80ce 62ba d32f a33c 65aa 2cbb
00000260: 65fe 273a 5713 f53b 0bcb ff30 6a55 1a31
00000270: 0661 2533 5bbe 6eb9 30cb 543c 7701 97bb
00000280: c27c 8fb8 4d92 c43b 6cc1 213d e58b 823d
00000290: ce2b de38 af5f fdb9 3de9 96ba 0cd8 95ba
000002a0: 68ed 493d 2056 1d3d 60c7 1bbb 6982 d5ba
000002b0: b812 a5ba 8f0d 03bb 9d56 57b9 44ca feba
000002c0: e9db 0c3b a571 e933 8837 66ba 3384 60b9
000002d0: 0ca4 a83b 7e5a 0330 b300 1b3d 5143 b6b5
000002e0: 2c69 d33c 7b29 553d 9bde 753c a5c5 1fbb
000002f0: 0905 34b7 c435 a03c 66db 642d 2ad9 15b0
00000300: 36fc a8b9 aefd e3b9 b91c d83c 6546 89b9
00000310: 516b c03c 930b b5b9 f3d7 02b9 1f22 913c
00000320: 4bcd 383c fcd0 fd3c bfdc dd3b 135b ed3c
00000330: 270d dcb8 95bd bf3c c40c de3c 9603 1ab9
00000340: 3954 1f3d 5482 973b 16fc f4bb 40e8 16b9
00000350: d2c5 63b9 9d74 8eba c5f5 063d 3438 0abb
00000360: 3104 85b9 76f6 f93a cd64 b837 198d 31b7
00000370: 532e 09b2 0cd1 8bb5 abd2 50af 3bf9 0f30
00000380: 0427 e6b9 fa6e edb9 8f64 76b9 c185 5d3d
00000390: a94b 573d e9a1 57ba 96d3 a3ba b7f0 7c38
000003a0: 7a47 9f3c 7182 ccb9 c89a 72b8 0f95 c83c
000003b0: 7852 6db1 7829 8fb5 f615 c63a c846 33bb
000003c0: d276 913c ebec 34b6 87f0 b43b a813 e0ba
000003d0: 0ee9 3cbb 3c76 593c a922 4bb8 5129 76ba
000003e0: ab68 d43b 9a3e 8bb7 3803 6ab5 c984 a63c
000003f0: 907f 323a 9262 11bb 5fd9 cd3b 6abc 92b7
0.0080119865 0.016770193 0.034010407 -0.00090547546 4.1996384e-09 -1.9549593e-09 -0.0003389685 0.015685633
-0.0046986816 -0.0041227 -0.00080710184 -0.0030776595 -0.0024857498 0.009963689 0.0055575985 0.0045085675
0.008276988 -0.0019556545 0.02411132 0.0152217895 0.0007304068 -0.0017314482 0.0015282994 0.03861856
0.034804363 -0.00032369068 -2.144957e-08 -1.0240127e-06 0.01853612 0.044766754 0.022161191 0.0105596725
-0.00052277494 0.029629499 -0.000720139 -0.0019330033 -2.2848848e-05 0.00450932 -9.006899e-08 -8.7765903e-07
-3.1948608e-09 0.000256653 -2.8094919e-05 -0.00055360165 -0.00022199022 -0.0005566079 -0.002525008 0.0494246
-5.4202363e-05 -0.00015615013 -0.00052614196 0.00031441098 -1.3241881e-05 0.045112107 0.03306995 -0.0009802459
0.014590761 -0.00036481427 -0.00014588884 -0.0043329154 0.00091762835 -2.1252113e-09 -4.627393e-05 0.00029158208
-4.286799e-06 5.1885687e-09 0.02938227 0.04691148 0.0066533634 0.009345449 -0.00028913928 -0.0017677143
0.004946171 0.029717699 8.697923e-09 -7.0640267e-09 0.00044485147 -0.00011144578 -0.015238525 0.018531516
-0.00020036618 -0.0005786525 -0.00037257368 -0.00037349368 0.037085116 -3.4733454e-05 0.04196402 0.030499207
-0.00019844019 -0.0014667 0.019064361 0.033261664 0.017041825 0.002357761 0.016778905 -0.0015002934
-8.0813144e-05 -0.001648859 -0.0005606039 0.011289222 -1.16385445e-05 -4.9131236e-06 -3.434596e-07 -1.0745977e-05
2.188316e-10 -0.000120353594 -1.9719634e-08 -4.8796824e-08 0.001683313 0.03197914 -0.0017735958 0.011868613
-0.0041388134 -0.0016903712 -0.0021001943 -0.005577717 0.026431963 -0.0017150783 -0.0016476823 -0.0024596378
-5.804074e-07 -4.544667e-09 0.008686568 0.014375336 -0.007506372 0.004309127 0.011679713 0.037290223
0.021195704 -0.0001556637 0.010879631 -0.00036438258 -0.0008250508 0.01760488 -0.00044478275 0.051991638
0.00090877776 0.002988135 -0.0020365745 -0.000516094 0.01938279 -0.0003686308 -9.028411e-09 -4.5182666e-08
0.001110956 0.045155793 0.013692202 0.0368559 0.055461515 -0.0008651987 0.019920265 -0.002634668
0.0006408452 0.007479112 1.86114e-09 2.2458502e-09 3.85053e-08 -0.00022768362 0.012987897 -0.004608329
-6.842009e-05 0.0059988857 0.039491102 0.06374339 0.00010593944 -0.0004832721 -0.0011513602 -0.0011432185
0.049298674 0.038412213 -0.002376996 -0.0016289476 -0.001259408 -0.0019997095 -0.00020536264 -0.0019438942
0.0021493381 1.087058e-07 -0.00087820785 -0.00021411553 0.005146509 4.778612e-10 0.037842464 -1.3579648e-06
0.025806986 0.052041512 0.015006687 -0.002437928 -1.0730008e-05 0.019556887 1.3009016e-11 -5.4514493e-10
-0.0003223137 -0.0004348582 0.026380884 -0.00026183124 0.023488672 -0.00034531634 -0.00012478213 0.017716466
0.011279414 0.03098344 0.0067706998 0.028974092 -0.00010492867 0.02340583 0.027105696 -0.0001468792
0.03889868 0.0046236906 -0.00747634 -0.00014391635 -0.00021722101 -0.0010868494 0.032949228 -0.0021090629
-0.0002537086 0.0019070643 2.1981448e-05 -1.0582874e-05 -7.9849825e-09 -1.0417148e-06 -1.8992334e-10 5.2377275e-10
-0.00043898087 -0.00045286847 -0.00023497849 0.054082636 0.05256239 -0.00082257256 -0.0012498971 6.0305665e-05
0.019443262 -0.00039007099 -5.7841447e-05 0.02448514 -3.4534917e-09 -1.0666399e-06 0.0015112746 -0.0027355421
0.017756853 -2.6959995e-06 0.005521837 -0.0017095702 -0.0028825435 0.013272818 -4.843125e-05 -0.0009390312
0.006482204 -1.6599242e-05 -8.7176477e-07 0.020326989 0.00068091694 -0.0022183997 0.006282016 -1.7492293e-05
