Contrast/BrainGNN/save/model4.pth (torch, 403178 bytes, 30 tensors)

n1.0.weight f4 [8, 116]
0.060767192 -0.050519574 -0.055892535 -0.06631401 -0.04053342 0.03423257 0.07017893 0.047992375
0.083628714 -0.04074371 0.03647032 -0.05506172 0.047009364 0.05489023 -0.022948226 0.004557478
0.096975386 -0.0688211 0.05471215 0.0027927118 0.008726289 0.06949581 0.023719547 -0.005167481
-0.018349377 0.030846523 -0.068896726 0.031546038 -0.013235984 0.06967938 0.047572747 0.07971564
-0.03280655 -0.054033082 0.063585505 -0.06477016 0.0042312047 -0.05145927 0.0029499014 0.0023331882
-0.0055773742 -0.032058988 0.052444074 -0.057927866 -0.004833925 0.059979852 0.00020454818 -0.049725007
-0.00088339235 0.01798721 0.009442953 -0.0022909443 -0.034754485 -0.015190929 -0.03986096 0.09695017
-0.004019197 -0.042516477 0.091935135 0.002658723 0.035184752 -0.030510936 -0.0562149 0.08145984
-0.06360602 -0.017057545 -0.06510506 0.07344575 -0.021042742 0.047876984 -0.012247648 -0.015145996
-0.032588117 -0.0029806283 0.022980006 0.056273706 0.031369228 0.043176297 -0.038734447 -0.0053491276
-0.00048475462 0.03426952 0.0704683 0.03372776 0.07461465 0.017550634 0.08221067 0.020880619
-0.02629614 -0.011844983 0.010943622 0.02651834 0.07700822 0.062434103 -0.056748826 -0.035975687
-0.0046647233 -0.022636378 0.05054641 0.020012565 0.0040582586 0.04444325 0.0036355634 0.033759654
0.0011646522 -0.0036968514 -0.045516312 0.04445804 -0.0031667296 0.051712062 -0.002281499 -0.0058563096
0.024612678 0.041946728 -0.031464405 0.077610165 0.08870147 -0.06526907 0.062307164 0.062926546
0.057886653 0.01112633 0.023311693 0.018026073 0.041517965 -0.028492117 0.07475328 0.05244384
-0.021385238 0.09406139 -0.018907737 -0.06587778 0.048035692 0.06695453 -0.06728105 -0.0024778382
0.07605095 -0.0019214161 0.056282274 0.043446932 0.05943229 0.0029004833 -0.0118507035 0.018480659
-0.0020913507 0.042947453 -0.0016947762 -0.061393127 -0.030457178 -0.026007107 0.017326688 -0.06418077
-0.0065719443 0.029435573 -0.04713679 0.025820041 -0.009978588 -0.02103908 -0.057112444 -0.019526398
-0.03289735 0.024423804 0.07249768 0.023464816 0.054737926 0.07907576 0.055590052 -0.00014925461
-0.021717662 -0.042259507 -0.011602134 0.019361792 -0.037741408 0.0013404959 0.049435228 0.07354624
0.053368546 -0.01645553 0.009298163 -0.00061092444 0.065303124 -0.053542696 -0.021176707 0.08599023
-0.03535393 0.06381039 0.021485247 0.027900811 -0.06641766 0.07393681 -0.00013132268 -0.0018185301
0.057129115 0.08156689 0.0035138852 -0.06575364 0.021276439 -0.00035008765 0.043968093 0.043188013
0.021567494 -0.066578574 0.06315913 0.02708386 -0.007743183 0.0354419 0.06046144 0.084898315
-0.0029517233 -0.03889458 0.013581664 0.07519368 -0.04682865 0.030780854 -0.023677927 0.0055646594
0.073527224 -0.041516297 -0.0016058647 0.04363794 0.020419186 0.027972506 0.0021428862 0.0578147
0.062532514 0.042873725 0.018526642 0.08319638 0.046256702 -0.057110894 0.0675641 -0.06905739
0.0017102156 -0.0385016 -0.0022019744 0.07609685 0.06504337 -0.032305725 0.037707865 0.012123365
-0.05273222 0.07914439 -0.06405045 0.061029013 0.06797062 0.03415275 0.04313107 -0.009704763
-0.05503445 0.07329176 -0.0037929723 -0.006858577 -0.001646863 0.021101683 -0.013936322 -0.029778013
00000000: 05e7 783d 9ded 4ebd 92ef 64bd a4cf 87bd
00000010: 5f06 26bd 7437 0c3d f9b9 8f3d a793 443d
00000020: 8845 ab3d e0e2 26bd e761 153d 6688 61bd
00000030: e48c 403d 94d4 603d ebfd bbbc e556 953b
00000040: 089b c63d 14f2 8cbd d919 603d ee05 373b
00000050: b5f8 0e3c d253 8e3d 7f4f c23c f953 a9bb
00000060: 6f51 96bc d9b1 fc3c ba19 8dbd 6b36 013d
00000070: bedb 58bc 10b4 8e3d a4db 423d f441 a33d
00000080: 2960 06bd cb51 5dbd 1e39 823d 38a6 84bd
00000090: eba5 8a3b f5c6 52bd 2253 413b 67e8 183b
000000a0: 68c2 b6bb 4950 03bd 99cf 563d c545 6dbd
000000b0: e765 9ebb 6fad 753d fc7b 5639 73ac 4bbd
000000c0: 7593 67ba ea59 933c 9eb6 1a3c ab23 16bb
000000d0: b85a 0ebd 60e3 78bc 3f45 23bd d08d c63d
000000e0: 78b3 83bb c225 2ebd 7d48 bc3d f83d 2e3b
000000f0: e31d 103d 12f2 f9bc 9841 66bd 6bd4 a63d
00000100: df43 82bd 44bc 8bbc cd55 85bd ba6a 963d
00000110: d461 acbc a81a 443d 5caa 48bc e926 78bc
00000120: 1e7b 05bd a556 43bb 9140 bc3c 427f 663d
00000130: 057d 003d a1d9 303d 03a8 1ebd bc47 afbb
00000140: aa26 feb9 325e 0c3d af51 903d 1f26 0a3d
00000150: 91cf 983d 59c6 8f3c 115e a83d d50d ab3c
00000160: 016b d7bc 7611 42bc e14c 333c fd3c d93c
00000170: 7cb6 9d3d e7ba 7f3d 7571 68bd 3e5b 13bd
00000180: 89da 98bb ed6f b9bc c109 4f3d 64f1 a33c
00000190: 24fb 843b 200a 363d a242 6e3b 9047 0a3d
000001a0: 3ea7 983a e046 72bb 506f 3abd a219 363d
000001b0: e888 4fbb 07d0 533d 3485 15bb 49e6 bfbb
000001c0: 87a0 c93c 55d0 2b3d d2e0 00bd 14f2 9e3d
000001d0: 1ea9 b53d caab 85bd cc35 7f3d a2df 803d
000001e0: 8e1a 6d3d 364b 363c 2af8 be3c 6aab 933c
000001f0: be0e 2a3d 4d68 e9bc 3f18 993d 5acf 563d
00000200: 1830 afbc 42a3 c03d 66e4 9abc eeea 86bd
00000210: 13c1 443d 751f 893d a6ca 89bd 3a63 22bb
00000220: 9ac0 9b3d 07d8 fbba 3e88 663d 69f5 313d
00000230: 466f 733d 0916 3e3b 7429 42bc c064 973c
00000240: 0b0f 09bb abe9 2f3d 4123 deba 5c77 7bbd
00000250: 5581 f9bc db0c d5bc b3f0 8d3c 3571 83bd
00000260: 7759 d7bb df22 f13c 8212 41bd 8d84 d33c
00000270: 3b7d 23bc 265a acbc bdee 69bd d3f5 9fbc
00000280: 5fbf 06bd 6e14 c83c aa79 943d 4939 c03c
00000290: e034 603d 79f2 a13d 65b2 633d 3b81 1cb9
000002a0: 3de9 b1bc 4e18 2dbd e116 3ebc 9f9c 9e3c
000002b0: bc96 1abd 94b3 af3a 987c 4a3d 699f 963d
000002c0: fa98 5a3d bfcd 86bc 5257 183c 7226 20ba
000002d0: a5bd 853d 964f 5bbd c67a adbc a51b b03d
000002e0: 48cf 10bd 06af 823d d401 b03c 3e90 e43c
000002f0: fb05 88bd 2f6c 973d aab3 09b9 bf5b eeba
00000300: 3800 6a3d 8b0c a73d 3649 663b d8a9 86bd
00000310: ed4b ae3c f88b b7b9 e317 343d eae5 303d
00000320: 50ae b03c 595a 88bd 9359 813d f9de dd3c
00000330: 87ba fdbb 872b 113d 6aa6 773d 2bdf ad3d
00000340: b371 41bb ec4f 1fbd a185 5e3c 25ff 993d
00000350: 66cf 3fbd 2128 fc3c 36f8 c1bc bf57 b63b
00000360: 7195 963d fe0c 2abd e17b d2ba b2bd 323d
00000370: 2346 a73c 9926 e53c aa6f 0c3b 1bcf 6c3d
00000380: 0c11 803d 5c9c 2f3d 2fc5 973c dd62 aa3d
00000390: ab77 3d3d 1ded 69bd 0c5f 8a3d f66d 8dbd
000003a0: 5029 e03a dbb3 1dbd 004f 10bb aad8 9b3d
000003b0: 7535 853d 0253 04bd 9073 1a3d 14a1 463c
000003c0: befd 57bd 7416 a23d e22c 83bd 8ff9 793d
000003d0: 2e34 8b3d c1e3 0b3d 34aa 303d ba00 1fbc
000003e0: ce6b 61bd fe19 963d 8493 78bb eabd e0bb
000003f0: 8ddb d7ba 70dd ac3c 2c55 64bc 05f1 f3bc

n1.2.weight f4 [7040, 8]
-0.2906041 0.29176238 -0.27476513 -0.122856535 0.027184725 0.22917938 -0.30879351 0.13766295
-0.2245203 0.043332327 -0.15792626 -0.31514293 0.073560864 0.20964423 -0.308775 0.262225
0.2121359 -0.19559926 -0.14100136 0.1377276 -0.06639746 0.20852129 -0.024030298 0.07713114
-0.0009390941 0.20136818 -0.24219225 -0.025122305 0.10570028 0.12464687 0.0039822273 -0.13207194
0.21673542 0.25911838 0.3214098 0.23282483 0.24464613 0.20404519 0.24708548 0.19929364
-0.21525313 0.14564751 0.19668855 -0.2782544 -0.033733424 0.06324527 -0.30190933 -0.3189857
0.06141936 -0.11306526 0.24192367 0.23115455 0.30519143 0.18012193 0.21947592 0.28180057
0.06186228 -0.032744814 0.03684547 -0.14031059 0.27413264 0.14361793 0.17497781 -0.27506736
-0.059967205 0.031621944 -0.095973484 -0.18434839 -0.20793192 -0.28103453 0.30563316 0.2925374
-0.06405294 0.036647968 -0.103530966 0.062037878 0.10385633 0.2539446 0.23544522 0.15591371
0.21984324 -0.046534996 -0.15498972 0.32956183 0.2729981 0.31132343 -0.1780165 -0.022617634
-0.32409996 -0.2970522 -0.22901773 -0.06441964 -0.13456686 -0.018907761 0.22559562 -0.17029367
-0.03120058 0.23737055 0.06257383 -0.3227624 0.11017813 -0.03690107 0.040830515 0.15054607
0.14496183 0.16773283 -0.0035053247 0.264501 0.064586826 0.044330403 0.3110316 -0.022392211
-0.2369821 -0.018431999 -0.23805462 0.012090863 -0.32221678 0.25194615 -0.022071112 0.05107482
-0.08422831 -0.03166106 -0.03563306 0.11872685 0.0354635 0.0465026 -0.24828494 0.29834482
0.11976645 0.18263623 -0.08889361 0.17825651 0.12071367 -0.25312096 -0.25291958 0.034989506
-0.3304444 0.31596056 0.007710665 0.06502716 -0.18049954 -0.21409051 0.28830436 0.15465976
0.02339171 -0.000438866 0.30300233 -0.14545415 -0.13247132 0.197481 -0.2641253 -0.17708704
0.070412375 -0.27327377 -0.11272602 0.23045042 -0.12233888 0.0042575146 0.1929931 0.22295107
-0.2394024 -0.32063097 -0.03728193 -0.1615734 0.057593994 -0.007509935 0.18838264 0.30551353
-0.04693416 -0.04628972 -0.016102681 0.19154166 0.3262709 -0.028002555 0.19307049 -0.08977121
-0.20673905 0.06975279 0.090056226 -0.07844319 -0.016400436 -0.27616355 -0.23815574 0.22817789
-0.009568767 -0.26663288 -0.06269635 -0.028551022 0.06337287 -0.2709549 0.3028386 -0.2987539
-0.031107424 -0.1393968 -0.22825839 -0.002230302 0.1566081 -0.13608779 -0.09181947 -0.31091908
-0.29702976 0.17071792 -0.3186201 0.08168542 -0.041447565 -0.2181428 -0.2528323 -0.19999827
0.14978407 -0.12125175 0.18594551 -0.06239652 0.22619554 -0.046640567 0.24781758 0.11934534
0.19534609 0.11976947 -0.23271978 -0.045200568 0.23310341 -0.2583829 0.058386594 -0.074533105
0.25063205 0.08970295 -0.19710304 0.010129346 -0.10922582 0.21391432 -0.12841341 0.082311
0.29262438 -0.050057348 -0.25476897 0.24375474 -0.19444631 0.0019140342 -0.10348923 -0.0039706468
-0.23753478 -0.13576438 -0.10807382 -0.2585313 0.23151225 -0.2157181 -0.16706109 -0.14871044
0.14727609 -0.04747894 -0.13505384 -0.21222356 -0.12840535 0.00429647 -0.0110386005 -0.12100487
00000000: 10ca 94be e161 953e 04ae 8cbe 359c fbbd
00000010: 80b2 de3c 00ae 6a3e 2f1a 9ebe 84f7 0c3e
00000020: a6e8 65be 3d7d 313d 6cb7 21be 6a5a a1be
00000030: 14a7 963d faac 563e c217 9ebe 5b42 863e
00000040: 273a 593e 2c4b 48be a962 10be 7708 0d3e
00000050: 64fb 87bd 9b86 553e 30db c4bc eef6 9d3d
00000060: 8a2d 76ba 7633 4e3e 3f01 78be 4bcd cdbc
00000070: 6379 d83d dc46 ff3d 587d 823b de3d 07be
00000080: e4ef 5d3e 2aab 843e d38f a43e a269 6e3e
00000090: 8484 7a3e 39f1 503e fa03 7d3e a213 4c3e
000000a0: 516b 5cbe 9f24 153e b968 493e 5c77 8ebe
000000b0: 0f2c 0abd bc86 813d dc93 9abe 1852 a3be
000000c0: de92 7b3d c28e e7bd d7ba 773e c7b3 6c3e
000000d0: 0d42 9c3e e271 383e 4cbe 603e 2a48 903e
000000e0: 4d63 7d3d 6d1f 06bd 47eb 163d 94ad 0fbe
000000f0: 1d5b 8c3e 9410 133e 622d 333e a1d5 8cbe
00000100: 2ca0 75bd 0386 013d bf8d c4bd d3c5 3cbe
00000110: 1bec 54be c2e3 8fbe f37b 9c3e 76c7 953e
00000120: 302e 83bd 2e1c 163d 0b08 d4bd 6e1b 7e3d
00000130: a1b2 d43d 0705 823e 8d18 713e d8a7 1f3e
00000140: 961e 613e 7b9b 3ebd a0b5 1ebe 54bc a83e
00000150: 68c6 8b3e c965 9f3e f549 36be 9e48 b9bc
00000160: 6ef0 a5be 3a17 98be a083 6abe 72ee 83bd
00000170: e5cb 09be 73e4 9abc 8a02 673e 7761 2ebe
00000180: 5c98 ffbc 4411 733e b526 803d 1d41 a5be
00000190: 12a5 e13d 9425 17bd e63d 273d c028 1a3e
000001a0: e070 143e 28c2 2b3e 97b9 65bb ad6c 873e
000001b0: 1946 843d cc93 353d 893f 9f3e df6f b7bc
000001c0: 70ab 72be b4fe 96bc 97c4 73be c118 463c
000001d0: 99f9 a4be 16ff 803e 7ace b4bc d533 513d
000001e0: e47f acbd 07af 01bd f9f3 11bd 1027 f33d
000001f0: 2d42 113d 8379 3e3d 683e 7ebe a7c0 983e
00000200: 1d48 f53d fe04 3b3e da0d b6bd e088 363e
00000210: bb38 f73d 1299 81be ad7e 81be 2851 0f3d
00000220: 0230 a9be 95c5 a13e bfa9 fc3b f62c 853d
00000230: dfd4 38be 8b3a 5bbe a19c 933e 215f 1e3e
00000240: f99f bf3c 9917 e6b9 1f23 9b3e eff1 14be
00000250: 90a6 07be 7638 4a3e 6e3b 87be 4e56 35be
00000260: 5d34 903d 8aea 8bbe e6dc e6bd 32fb 6b3e
00000270: cf8c fabd 9f82 8b3b fc9f 453e 494d 643e
00000280: e725 75be be29 a4be f0b4 18bd 7f73 25be
00000290: aee7 6b3d e715 f6bb 61e7 403e 456c 9c3e
000002a0: 093e 40bd 4a9a 3dbd c5e9 83bc 7f23 443e
000002b0: fb0c a73e 9d65 e5bc 45b4 453e f8d9 b7bd
000002c0: 67b3 53be 8dda 8e3d 666f b83d d3a6 a0bd
000002d0: 355a 86bc 4f65 8dbe 19df 73be 77a7 693e
000002e0: 51c6 1cbc 1b84 88be f266 80bd d5e3 e9bc
000002f0: a3c9 813d 9aba 8abe a90d 9b3e 45f6 98be
00000300: ffd4 febc 09be 0ebe 91bc 69be 422a 12bb
00000310: e05d 203e 995a 0bbe d90b bcbd c930 9fbe
00000320: 4914 98be aed0 2e3e 2c22 a3be af4a a73d
00000330: ecc4 29bd d360 5fbe 3c73 81be 59cc 4cbe
00000340: ff60 193e d652 f8bd 8068 3e3e 7e93 7fbd
00000350: ce9f 673e 2e0a 3fbd e4c3 7d3e 546b f43d
00000360: ce08 483e b249 f53d 184e 6ebe 3b24 39bd
00000370: a9b2 6e3e c34a 84be c826 6f3d d0a4 98bd
00000380: d852 803e 2eb6 b73d 61d5 49be 8ef5 253c
00000390: c9b1 dfbd 5b0c 5b3e ce7e 03be ab92 a83d
000003a0: ddd2 953e ef08 4dbd 1471 82be d89a 793e
000003b0: ef1c 47be 55e0 fa3a 29f2 d3bd 331c 82bb
000003c0: 513c 73be d105 0bbe cf55 ddbd 375e 84be
000003d0: 8c11 6d3e 35e5 5cbe 1012 2bbe 8d47 18be
000003e0: 8bcf 163e 4779 42bd 8e4b 0abe 2251 59be
000003f0: b17c 03be 67c9 8c3b 3fdb 34bc 67d1 f7bd

n1.2.bias f4 [7040]
0.08263815 0.093192495 0.33071634 0.3066641 0.2778796 -0.24310389 -0.08100399 0.19787322
0.17621818 0.0178483 0.3270123 0.11736002 0.13241693 -0.1779993 0.05172006 0.2663254
-0.25780842 0.28928322 -0.009068432 -0.10582242 0.17887917 -0.16505094 -0.21113652 0.16761738
0.0018128756 0.18158776 -0.14451839 -0.1550809 0.2780421 0.1771046 0.06428813 -0.022441614
-0.0070225988 -0.34348705 -0.18399805 -0.058907736 -0.05600603 0.20417807 -0.3075554 -0.21658511
-0.06906276 0.18800788 0.02627425 -0.26151192 0.026688349 0.25870186 -0.035182644 -0.07800829
0.07674398 -0.046708677 0.29363433 -0.1907149 0.1994264 -0.17440358 -0.20348766 -0.21316366
-0.1753699 0.21931475 -0.25342762 0.28079805 0.059565615 0.0023980972 0.17697072 -0.26398617
-0.017537981 0.31528628 0.28680733 0.28582263 0.21938354 0.2569441 0.11601373 0.14254661
0.03620576 0.15794422 0.09329264 -0.16092879 -0.13964364 -0.26264945 -0.18227386 -0.20929551
-0.1131106 0.115501486 0.31981233 0.14970788 -0.2657856 0.116662286 -0.2424909 -0.016017046
0.06057316 -0.3330025 0.32687736 0.30491358 -0.2714163 -0.10754729 -0.26275444 0.03840294
0.16419397 0.078097515 0.32014263 0.26674357 0.05298374 0.31812164 0.31062028 -0.008180394
0.15977043 0.099598564 0.16468793 0.09130223 0.34921923 0.28479183 -0.24950755 -0.2728812
0.31223595 -0.008483629 -0.09660793 -0.14047238 -0.30833688 0.3404461 -0.17928892 -0.20650351
0.29919484 0.32176682 -0.245482 0.3252747 0.12945196 -0.27087188 -0.30450702 -0.2478047
0.18329749 -0.14559971 -0.08916564 -0.24083689 -0.29924655 0.2749515 0.24038339 0.12377062
-0.3277654 0.06316699 0.03616228 -0.11036857 0.095066264 0.25326622 -0.04603924 0.13023107
0.31613615 -0.32771593 -0.24042271 0.036288682 0.22587214 0.008850885 -0.34731022 0.2934862
-0.07086795 -0.06356276 -0.2453544 -0.07368517 -0.16254364 -0.06367016 0.23983163 0.28665802
-0.005447865 -0.04753196 -0.10906663 0.22716926 0.062662624 -0.014676385 -0.00885322 0.06699063
0.05293104 -0.15191785 -0.3140784 -0.23610754 -0.07210613 0.041230008 -0.18727224 -0.026444992
0.26801804 -0.2878211 0.108342916 0.22888331 0.0355711 -0.13975789 0.12086048 -0.25501794
0.29250446 0.15098986 -0.11872543 0.18118751 -0.25262406 -0.14069669 0.29446176 0.06702676
-0.045132972 -0.25108802 0.2154727 0.024708878 -0.28124356 -0.09460607 -0.2950818 0.28454387
0.25109762 -0.15051529 -0.20458485 -0.11031211 0.06741665 0.000891577 0.19070394 0.22093494
0.28788564 -0.1057103 0.07283902 0.3269225 -0.15074489 0.042683862 -0.20306058 -0.1974132
0.18598808 -0.067579 -0.29506043 -0.342482 -0.2185274 -0.14318301 0.29494748 0.22933178
-0.035544857 0.2116657 -0.21086375 -0.23143564 0.30482614 -0.17379011 -0.3212257 -0.11110135
-0.08446034 -0.046199135 0.20337594 0.31845525 -0.09100473 0.21347138 0.25565577 0.061599795
0.31020367 0.29286388 0.26183575 0.1081566 0.1551313 -0.043490913 -0.26299915 -0.104964845
-0.08666093 0.15136941 0.08404252 0.16929065 0.1357973 0.1632239 0.12973535 0.17823686
00000000: 313e a93d b5db be3d a753 a93e 1403 9d3e
00000010: 3c46 8e3e 3af0 78be 6be5 a5bd 479f 4a3e
00000020: 8a72 343e 9936 923c 286e a73e 735a f03d
00000030: 4e98 073e 7345 36be 6ad8 533d ce5b 883e
00000040: 77ff 83be ee1c 943e c393 14bc 6db9 d8bd
00000050: 1a2c 373e 1d03 29be 2c34 58be e4a3 2b3e
00000060: 039e ed3a 24f2 393e a1fc 13be 87cd 1ebe
00000070: 895b 8e3e e95a 353e 7fa9 833d 7ad7 b7bc
00000080: d41d e6bb 89dd afbe fc69 3cbe 3d49 71bd
00000090: 9466 65bd 0e14 513e e777 9dbe 7dc8 5dbe
000000a0: c770 8dbd 2385 403e 193d d73c e4e4 85be
000000b0: 86a1 da3c 9274 843e ad1b 10bd cfc2 9fbd
000000c0: f32b 9d3d 9951 3fbd 3d57 963e c44a 43be
000000d0: 6f36 4c3e da96 32be 125f 50be 9347 5abe
000000e0: 2b94 33be 0c94 603e 44c1 81be c3c4 8f3e
000000f0: 13fb 733d 6529 1d3b d037 353e 3229 87be
00000100: d0ab 8fbc 346d a13e 69d8 923e 5857 923e
00000110: 14a6 603e 2d8e 833e 9b98 ed3d bdf7 113e
00000120: 7e4c 143d 21bc 213e 3610 bf3d 84ca 24be
00000130: befe 0ebe fd79 86be 00a6 3abe 9051 56be
00000140: 88a6 e7bd 0b8c ec3d 71be a33e 064d 193e
00000150: 0d15 88be a3ec ee3d 894f 78be 2e36 83bc
00000160: 901b 783d 4e7f aabe 785c a73e a21d 9c3e
00000170: 14f7 8abe c141 dcbd c087 86be 674c 1d3d
00000180: 7722 283e 97f1 9f3d bce9 a33e 9d92 883e
00000190: 7a05 593d d7e0 a23e 9f09 9f3e 0f07 06bc
000001a0: dc9a 233e 55fa cb3d f4a3 283e aafc ba3d
000001b0: ddcc b23e 3cd0 913e e87e 7fbe 16b7 8bbe
000001c0: 64dd 9f3e ebfe 0abc 61da c5bd fed7 0fbe
000001d0: 55de 9dbe f44e ae3e 8497 37be a875 53be
000001e0: 1130 993e 9fbe a43e a25f 7bbe 688a a63e
000001f0: 0e8f 043e b8af 8abe 58e8 9bbe 84c0 7dbe
00000200: 56b2 3b3e 1718 15be 7a9c b6bd f29d 76be
00000210: d836 99be 71c6 8c3e 1027 763e 737b fd3d
00000220: ded0 a7be b25d 813d e61e 143d eb08 e2bd
00000230: 1ab2 c23d 1cac 813e a493 3cbd 4b5b 053e
00000240: 99dc a13e 62ca a7be 5f31 76be 71a3 143d
00000250: 074b 673e 4d03 113c a5d2 b1be d343 963e
00000260: 3723 91bd 312d 82bd 2f3e 7bbe 40e8 96bd
00000270: d771 26be 8065 82bd 6c96 753e d7c4 923e
00000280: 0184 b2bb dfb0 42bd 535e dfbd 0f9f 683e
00000290: 4355 803d 3875 70bc 190d 11bc 6232 893d
000002a0: 38ce 583d 5a90 1bbe e2ce a0be 2dc6 71be
000002b0: 61ac 93bd cce0 283d 4bc4 3fbe 2ba3 d8bc
000002c0: a939 893e 4a5d 93be e4e2 dd3d 6360 6a3e
000002d0: 00b3 113d b11c 0fbe b385 f73d b691 82be
000002e0: 25c3 953e 169d 1a3e 5126 f3bd 3889 393e
000002f0: f157 81be cb12 10be b1c3 963e 5345 893d
00000300: 5add 38bd 9c8e 80be e0a4 5c3e 466a ca3c
00000310: 28ff 8fbe d4c0 c1bd f614 97be bcaf 913e
00000320: de8f 803e ae20 1abe b17e 51be 51eb e1bd
00000330: be11 8a3d b8b8 693a e547 433e c53c 623e
00000340: bf65 933e a47e d8bd a02c 953d 6362 a73e
00000350: de5c 1abe 46d5 2e3d 1def 4fbe b026 4abe
00000360: a973 3e3e dc66 8abd 2912 97be cd59 afbe
00000370: a6c5 5fbe 919e 12be 5b03 973e f3d5 6a3e
00000380: 7c97 11bd e5be 583e abec 57be 77fd 6cbe
00000390: 2c12 9c3e 09f6 31be b277 a4be 1b89 e3bd
000003a0: 8bf9 acbd 4e3b 3dbd c841 503e 910c a33e
000003b0: b060 babd 3e98 5a3e 50e5 823e 1150 7c3d
000003c0: 04d3 9e3e 41f2 953e 560f 863e 3581 dd3d
000003d0: bdda 1e3e 8723 32bd d3a7 86be cff7 d6bd
000003e0: 497b b1bd 9500 1b3e 7c1e ac3d 875a 2d3e
000003f0: 730e 0b3e 2b24 273e 58d9 043e b983 363e

conv1.bias f4 [32]
0.03809716 0.01264333 -0.042140692 -0.0013464448 0.06734203 -0.021414436 0.01952349 0.02387626
-0.021201443 0.0083647 0.020037329 0.0047867033 0.03731875 0.015587293 -0.0017004679 0.054800007
-0.018375006 0.047263473 -0.031094158 -0.03524597 0.008370884 0.050688867 -0.06518625 0.047430422
-0.0055674734 -0.007417664 -0.03239916 -0.018574825 0.06356021 0.04077615 -0.024796095 -0.023628797
00000000: c50b 1c3d f825 4f3c b89b 2cbd 317b b0ba
00000010: 9eea 893d 546d afbc baef 9f3c 2598 c33c
00000020: a6ae adbc 180c 093c 5325 a43c c7d9 9c3b
00000030: 8cdb 183d d861 7f3c 3ce2 deba f975 603d
00000040: 2e87 96bc 5897 413d 2db9 febc 145e 10bd
00000050: 0826 093c 219f 4f3d 5e80 85bd 6746 423d
00000060: 5a6f b6bb e00f f3bb fbb4 04bd 3b2a 98bc
00000070: db2b 823d e404 273d 2e21 cbbc 2e91 c1bc

conv1.nn.0.weight f4 [8, 116]
0.060767192 -0.050519574 -0.055892535 -0.06631401 -0.04053342 0.03423257 0.07017893 0.047992375
0.083628714 -0.04074371 0.03647032 -0.05506172 0.047009364 0.05489023 -0.022948226 0.004557478
0.096975386 -0.0688211 0.05471215 0.0027927118 0.008726289 0.06949581 0.023719547 -0.005167481
-0.018349377 0.030846523 -0.068896726 0.031546038 -0.013235984 0.06967938 0.047572747 0.07971564
-0.03280655 -0.054033082 0.063585505 -0.06477016 0.0042312047 -0.05145927 0.0029499014 0.0023331882
-0.0055773742 -0.032058988 0.052444074 -0.057927866 -0.004833925 0.059979852 0.00020454818 -0.049725007
-0.00088339235 0.01798721 0.009442953 -0.0022909443 -0.034754485 -0.015190929 -0.03986096 0.09695017
-0.004019197 -0.042516477 0.091935135 0.002658723 0.035184752 -0.030510936 -0.0562149 0.08145984
-0.06360602 -0.017057545 -0.06510506 0.07344575 -0.021042742 0.047876984 -0.012247648 -0.015145996
-0.032588117 -0.0029806283 0.022980006 0.056273706 0.031369228 0.043176297 -0.038734447 -0.0053491276
-0.00048475462 0.03426952 0.0704683 0.03372776 0.07461465 0.017550634 0.08221067 0.020880619
-0.02629614 -0.011844983 0.010943622 0.02651834 0.07700822 0.062434103 -0.056748826 -0.035975687
-0.0046647233 -0.022636378 0.05054641 0.020012565 0.0040582586 0.04444325 0.0036355634 0.033759654
0.0011646522 -0.0036968514 -0.045516312 0.04445804 -0.0031667296 0.051712062 -0.002281499 -0.0058563096
0.024612678 0.041946728 -0.031464405 0.077610165 0.08870147 -0.06526907 0.062307164 0.062926546
0.057886653 0.01112633 0.023311693 0.018026073 0.041517965 -0.028492117 0.07475328 0.05244384
-0.021385238 0.09406139 -0.018907737 -0.06587778 0.048035692 0.06695453 -0.06728105 -0.0024778382
0.07605095 -0.0019214161 0.056282274 0.043446932 0.05943229 0.0029004833 -0.0118507035 0.018480659
-0.0020913507 0.042947453 -0.0016947762 -0.061393127 -0.030457178 -0.026007107 0.017326688 -0.06418077
-0.0065719443 0.029435573 -0.04713679 0.025820041 -0.009978588 -0.02103908 -0.057112444 -0.019526398
-0.03289735 0.024423804 0.07249768 0.023464816 0.054737926 0.07907576 0.055590052 -0.00014925461
-0.021717662 -0.042259507 -0.011602134 0.019361792 -0.037741408 0.0013404959 0.049435228 0.07354624
0.053368546 -0.01645553 0.009298163 -0.00061092444 0.065303124 -0.053542696 -0.021176707 0.08599023
-0.03535393 0.06381039 0.021485247 0.027900811 -0.06641766 0.07393681 -0.00013132268 -0.0018185301
0.057129115 0.08156689 0.0035138852 -0.06575364 0.021276439 -0.00035008765 0.043968093 0.043188013
0.021567494 -0.066578574 0.06315913 0.02708386 -0.007743183 0.0354419 0.06046144 0.084898315
-0.0029517233 -0.03889458 0.013581664 0.07519368 -0.04682865 0.030780854 -0.023677927 0.0055646594
0.073527224 -0.041516297 -0.0016058647 0.04363794 0.020419186 0.027972506 0.0021428862 0.0578147
0.062532514 0.042873725 0.018526642 0.08319638 0.046256702 -0.057110894 0.0675641 -0.06905739
0.0017102156 -0.0385016 -0.0022019744 0.07609685 0.06504337 -0.032305725 0.037707865 0.012123365
-0.05273222 0.07914439 -0.06405045 0.061029013 0.06797062 0.03415275 0.04313107 -0.009704763
-0.05503445 0.07329176 -0.0037929723 -0.006858577 -0.001646863 0.021101683 -0.013936322 -0.029778013
00000000: 05e7 783d 9ded 4ebd 92ef 64bd a4cf 87bd
00000010: 5f06 26bd 7437 0c3d f9b9 8f3d a793 443d
00000020: 8845 ab3d e0e2 26bd e761 153d 6688 61bd
00000030: e48c 403d 94d4 603d ebfd bbbc e556 953b
00000040: 089b c63d 14f2 8cbd d919 603d ee05 373b
00000050: b5f8 0e3c d253 8e3d 7f4f c23c f953 a9bb
00000060: 6f51 96bc d9b1 fc3c ba19 8dbd 6b36 013d
00000070: bedb 58bc 10b4 8e3d a4db 423d f441 a33d
00000080: 2960 06bd cb51 5dbd 1e39 823d 38a6 84bd
00000090: eba5 8a3b f5c6 52bd 2253 413b 67e8 183b
000000a0: 68c2 b6bb 4950 03bd 99cf 563d c545 6dbd
000000b0: e765 9ebb 6fad 753d fc7b 5639 73ac 4bbd
000000c0: 7593 67ba ea59 933c 9eb6 1a3c ab23 16bb
000000d0: b85a 0ebd 60e3 78bc 3f45 23bd d08d c63d
000000e0: 78b3 83bb c225 2ebd 7d48 bc3d f83d 2e3b
000000f0: e31d 103d 12f2 f9bc 9841 66bd 6bd4 a63d
00000100: df43 82bd 44bc 8bbc cd55 85bd ba6a 963d
00000110: d461 acbc a81a 443d 5caa 48bc e926 78bc
00000120: 1e7b 05bd a556 43bb 9140 bc3c 427f 663d
00000130: 057d 003d a1d9 303d 03a8 1ebd bc47 afbb
00000140: aa26 feb9 325e 0c3d af51 903d 1f26 0a3d
00000150: 91cf 983d 59c6 8f3c 115e a83d d50d ab3c
00000160: 016b d7bc 7611 42bc e14c 333c fd3c d93c
00000170: 7cb6 9d3d e7ba 7f3d 7571 68bd 3e5b 13bd
00000180: 89da 98bb ed6f b9bc c109 4f3d 64f1 a33c
00000190: 24fb 843b 200a 363d a242 6e3b 9047 0a3d
000001a0: 3ea7 983a e046 72bb 506f 3abd a219 363d
000001b0: e888 4fbb 07d0 533d 3485 15bb 49e6 bfbb
000001c0: 87a0 c93c 55d0 2b3d d2e0 00bd 14f2 9e3d
000001d0: 1ea9 b53d caab 85bd cc35 7f3d a2df 803d
000001e0: 8e1a 6d3d 364b 363c 2af8 be3c 6aab 933c
000001f0: be0e 2a3d 4d68 e9bc 3f18 993d 5acf 563d
00000200: 1830 afbc 42a3 c03d 66e4 9abc eeea 86bd
00000210: 13c1 443d 751f 893d a6ca 89bd 3a63 22bb
00000220: 9ac0 9b3d 07d8 fbba 3e88 663d 69f5 313d
00000230: 466f 733d 0916 3e3b 7429 42bc c064 973c
00000240: 0b0f 09bb abe9 2f3d 4123 deba 5c77 7bbd
00000250: 5581 f9bc db0c d5bc b3f0 8d3c 3571 83bd
00000260: 7759 d7bb df22 f13c 8212 41bd 8d84 d33c
00000270: 3b7d 23bc 265a acbc bdee 69bd d3f5 9fbc
00000280: 5fbf 06bd 6e14 c83c aa79 943d 4939 c03c
00000290: e034 603d 79f2 a13d 65b2 633d 3b81 1cb9
000002a0: 3de9 b1bc 4e18 2dbd e116 3ebc 9f9c 9e3c
000002b0: bc96 1abd 94b3 af3a 987c 4a3d 699f 963d
000002c0: fa98 5a3d bfcd 86bc 5257 183c 7226 20ba
000002d0: a5bd 853d 964f 5bbd c67a adbc a51b b03d
000002e0: 48cf 10bd 06af 823d d401 b03c 3e90 e43c
000002f0: fb05 88bd 2f6c 973d aab3 09b9 bf5b eeba
00000300: 3800 6a3d 8b0c a73d 3649 663b d8a9 86bd
00000310: ed4b ae3c f88b b7b9 e317 343d eae5 303d
00000320: 50ae b03c 595a 88bd 9359 813d f9de dd3c
00000330: 87ba fdbb 872b 113d 6aa6 773d 2bdf ad3d
00000340: b371 41bb ec4f 1fbd a185 5e3c 25ff 993d
00000350: 66cf 3fbd 2128 fc3c 36f8 c1bc bf57 b63b
00000360: 7195 963d fe0c 2abd e17b d2ba b2bd 323d
00000370: 2346 a73c 9926 e53c aa6f 0c3b 1bcf 6c3d
00000380: 0c11 803d 5c9c 2f3d 2fc5 973c dd62 aa3d
00000390: ab77 3d3d 1ded 69bd 0c5f 8a3d f66d 8dbd
000003a0: 5029 e03a dbb3 1dbd 004f 10bb aad8 9b3d
000003b0: 7535 853d 0253 04bd 9073 1a3d 14a1 463c
000003c0: befd 57bd 7416 a23d e22c 83bd 8ff9 793d
000003d0: 2e34 8b3d c1e3 0b3d 34aa 303d ba00 1fbc
000003e0: ce6b 61bd fe19 963d 8493 78bb eabd e0bb
000003f0: 8ddb d7ba 70dd ac3c 2c55 64bc 05f1 f3bc

conv1.nn.2.weight f4 [7040, 8]
-0.2906041 0.29176238 -0.27476513 -0.122856535 0.027184725 0.22917938 -0.30879351 0.13766295
-0.2245203 0.043332327 -0.15792626 -0.31514293 0.073560864 0.20964423 -0.308775 0.262225
0.2121359 -0.19559926 -0.14100136 0.1377276 -0.06639746 0.20852129 -0.024030298 0.07713114
-0.0009390941 0.20136818 -0.24219225 -0.025122305 0.10570028 0.12464687 0.0039822273 -0.13207194
0.21673542 0.25911838 0.3214098 0.23282483 0.24464613 0.20404519 0.24708548 0.19929364
-0.21525313 0.14564751 0.19668855 -0.2782544 -0.033733424 0.06324527 -0.30190933 -0.3189857
0.06141936 -0.11306526 0.24192367 0.23115455 0.30519143 0.18012193 0.21947592 0.28180057
0.06186228 -0.032744814 0.03684547 -0.14031059 0.27413264 0.14361793 0.17497781 -0.27506736
-0.059967205 0.031621944 -0.095973484 -0.18434839 -0.20793192 -0.28103453 0.30563316 0.2925374
-0.06405294 0.036647968 -0.103530966 0.062037878 0.10385633 0.2539446 0.23544522 0.15591371
0.21984324 -0.046534996 -0.15498972 0.32956183 0.2729981 0.31132343 -0.1780165 -0.022617634
-0.32409996 -0.2970522 -0.22901773 -0.06441964 -0.13456686 -0.018907761 0.22559562 -0.17029367
-0.03120058 0.23737055 0.06257383 -0.3227624 0.11017813 -0.03690107 0.040830515 0.15054607
0.14496183 0.16773283 -0.0035053247 0.264501 0.064586826 0.044330403 0.3110316 -0.022392211
-0.2369821 -0.018431999 -0.23805462 0.012090863 -0.32221678 0.25194615 -0.022071112 0.05107482
-0.08422831 -0.03166106 -0.03563306 0.11872685 0.0354635 0.0465026 -0.24828494 0.29834482
0.11976645 0.18263623 -0.08889361 0.17825651 0.12071367 -0.25312096 -0.25291958 0.034989506
-0.3304444 0.31596056 0.007710665 0.06502716 -0.18049954 -0.21409051 0.28830436 0.15465976
0.02339171 -0.000438866 0.30300233 -0.14545415 -0.13247132 0.197481 -0.2641253 -0.17708704
0.070412375 -0.27327377 -0.11272602 0.23045042 -0.12233888 0.0042575146 0.1929931 0.22295107
-0.2394024 -0.32063097 -0.03728193 -0.1615734 0.057593994 -0.007509935 0.18838264 0.30551353
-0.04693416 -0.04628972 -0.016102681 0.19154166 0.3262709 -0.028002555 0.19307049 -0.08977121
-0.20673905 0.06975279 0.090056226 -0.07844319 -0.016400436 -0.27616355 -0.23815574 0.22817789
-0.009568767 -0.26663288 -0.06269635 -0.028551022 0.06337287 -0.2709549 0.3028386 -0.2987539
-0.031107424 -0.1393968 -0.22825839 -0.002230302 0.1566081 -0.13608779 -0.09181947 -0.31091908
-0.29702976 0.17071792 -0.3186201 0.08168542 -0.041447565 -0.2181428 -0.2528323 -0.19999827
0.14978407 -0.12125175 0.18594551 -0.06239652 0.22619554 -0.046640567 0.24781758 0.11934534
0.19534609 0.11976947 -0.23271978 -0.045200568 0.23310341 -0.2583829 0.058386594 -0.074533105
0.25063205 0.08970295 -0.19710304 0.010129346 -0.10922582 0.21391432 -0.12841341 0.082311
0.29262438 -0.050057348 -0.25476897 0.24375474 -0.19444631 0.0019140342 -0.10348923 -0.0039706468
-0.23753478 -0.13576438 -0.10807382 -0.2585313 0.23151225 -0.2157181 -0.16706109 -0.14871044
0.14727609 -0.04747894 -0.13505384 -0.21222356 -0.12840535 0.00429647 -0.0110386005 -0.12100487
00000000: 10ca 94be e161 953e 04ae 8cbe 359c fbbd
00000010: 80b2 de3c 00ae 6a3e 2f1a 9ebe 84f7 0c3e
00000020: a6e8 65be 3d7d 313d 6cb7 21be 6a5a a1be
00000030: 14a7 963d faac 563e c217 9ebe 5b42 863e
00000040: 273a 593e 2c4b 48be a962 10be 7708 0d3e
00000050: 64fb 87bd 9b86 553e 30db c4bc eef6 9d3d
00000060: 8a2d 76ba 7633 4e3e 3f01 78be 4bcd cdbc
00000070: 6379 d83d dc46 ff3d 587d 823b de3d 07be
00000080: e4ef 5d3e 2aab 843e d38f a43e a269 6e3e
00000090: 8484 7a3e 39f1 503e fa03 7d3e a213 4c3e
000000a0: 516b 5cbe 9f24 153e b968 493e 5c77 8ebe
000000b0: 0f2c 0abd bc86 813d dc93 9abe 1852 a3be
000000c0: de92 7b3d c28e e7bd d7ba 773e c7b3 6c3e
000000d0: 0d42 9c3e e271 383e 4cbe 603e 2a48 903e
000000e0: 4d63 7d3d 6d1f 06bd 47eb 163d 94ad 0fbe
000000f0: 1d5b 8c3e 9410 133e 622d 333e a1d5 8cbe
00000100: 2ca0 75bd 0386 013d bf8d c4bd d3c5 3cbe
00000110: 1bec 54be c2e3 8fbe f37b 9c3e 76c7 953e
00000120: 302e 83bd 2e1c 163d 0b08 d4bd 6e1b 7e3d
00000130: a1b2 d43d 0705 823e 8d18 713e d8a7 1f3e
00000140: 961e 613e 7b9b 3ebd a0b5 1ebe 54bc a83e
00000150: 68c6 8b3e c965 9f3e f549 36be 9e48 b9bc
00000160: 6ef0 a5be 3a17 98be a083 6abe 72ee 83bd
00000170: e5cb 09be 73e4 9abc 8a02 673e 7761 2ebe
00000180: 5c98 ffbc 4411 733e b526 803d 1d41 a5be
00000190: 12a5 e13d 9425 17bd e63d 273d c028 1a3e
000001a0: e070 143e 28c2 2b3e 97b9 65bb ad6c 873e
000001b0: 1946 843d cc93 353d 893f 9f3e df6f b7bc
000001c0: 70ab 72be b4fe 96bc 97c4 73be c118 463c
000001d0: 99f9 a4be 16ff 803e 7ace b4bc d533 513d
000001e0: e47f acbd 07af 01bd f9f3 11bd 1027 f33d
000001f0: 2d42 113d 8379 3e3d 683e 7ebe a7c0 983e
00000200: 1d48 f53d fe04 3b3e da0d b6bd e088 363e
00000210: bb38 f73d 1299 81be ad7e 81be 2851 0f3d
00000220: 0230 a9be 95c5 a13e bfa9 fc3b f62c 853d
00000230: dfd4 38be 8b3a 5bbe a19c 933e 215f 1e3e
00000240: f99f bf3c 9917 e6b9 1f23 9b3e eff1 14be
00000250: 90a6 07be 7638 4a3e 6e3b 87be 4e56 35be
00000260: 5d34 903d 8aea 8bbe e6dc e6bd 32fb 6b3e
00000270: cf8c fabd 9f82 8b3b fc9f 453e 494d 643e
00000280: e725 75be be29 a4be f0b4 18bd 7f73 25be
00000290: aee7 6b3d e715 f6bb 61e7 403e 456c 9c3e
000002a0: 093e 40bd 4a9a 3dbd c5e9 83bc 7f23 443e
000002b0: fb0c a73e 9d65 e5bc 45b4 453e f8d9 b7bd
000002c0: 67b3 53be 8dda 8e3d 666f b83d d3a6 a0bd
000002d0: 355a 86bc 4f65 8dbe 19df 73be 77a7 693e
000002e0: 51c6 1cbc 1b84 88be f266 80bd d5e3 e9bc
000002f0: a3c9 813d 9aba 8abe a90d 9b3e 45f6 98be
00000300: ffd4 febc 09be 0ebe 91bc 69be 422a 12bb
00000310: e05d 203e 995a 0bbe d90b bcbd c930 9fbe
00000320: 4914 98be aed0 2e3e 2c22 a3be af4a a73d
00000330: ecc4 29bd d360 5fbe 3c73 81be 59cc 4cbe
00000340: ff60 193e d652 f8bd 8068 3e3e 7e93 7fbd
00000350: ce9f 673e 2e0a 3fbd e4c3 7d3e 546b f43d
00000360: ce08 483e b249 f53d 184e 6ebe 3b24 39bd
00000370: a9b2 6e3e c34a 84be c826 6f3d d0a4 98bd
00000380: d852 803e 2eb6 b73d 61d5 49be 8ef5 253c
00000390: c9b1 dfbd 5b0c 5b3e ce7e 03be ab92 a83d
000003a0: ddd2 953e ef08 4dbd 1471 82be d89a 793e
000003b0: ef1c 47be 55e0 fa3a 29f2 d3bd 331c 82bb
000003c0: 513c 73be d105 0bbe cf55 ddbd 375e 84be
000003d0: 8c11 6d3e 35e5 5cbe 1012 2bbe 8d47 18be
000003e0: 8bcf 163e 4779 42bd 8e4b 0abe 2251 59be
000003f0: b17c 03be 67c9 8c3b 3fdb 34bc 67d1 f7bd

conv1.nn.2.bias f4 [7040]
0.08263815 0.093192495 0.33071634 0.3066641 0.2778796 -0.24310389 -0.08100399 0.19787322
0.17621818 0.0178483 0.3270123 0.11736002 0.13241693 -0.1779993 0.05172006 0.2663254
-0.25780842 0.28928322 -0.009068432 -0.10582242 0.17887917 -0.16505094 -0.21113652 0.16761738
0.0018128756 0.18158776 -0.14451839 -0.1550809 0.2780421 0.1771046 0.06428813 -0.022441614
-0.0070225988 -0.34348705 -0.18399805 -0.058907736 -0.05600603 0.20417807 -0.3075554 -0.21658511
-0.06906276 0.18800788 0.02627425 -0.26151192 0.026688349 0.25870186 -0.035182644 -0.07800829
0.07674398 -0.046708677 0.29363433 -0.1907149 0.1994264 -0.17440358 -0.20348766 -0.21316366
-0.1753699 0.21931475 -0.25342762 0.28079805 0.059565615 0.0023980972 0.17697072 -0.26398617
-0.017537981 0.31528628 0.28680733 0.28582263 0.21938354 0.2569441 0.11601373 0.14254661
0.03620576 0.15794422 0.09329264 -0.16092879 -0.13964364 -0.26264945 -0.18227386 -0.20929551
-0.1131106 0.115501486 0.31981233 0.14970788 -0.2657856 0.116662286 -0.2424909 -0.016017046
0.06057316 -0.3330025 0.32687736 0.30491358 -0.2714163 -0.10754729 -0.26275444 0.03840294
0.16419397 0.078097515 0.32014263 0.26674357 0.05298374 0.31812164 0.31062028 -0.008180394
0.15977043 0.099598564 0.16468793 0.09130223 0.34921923 0.28479183 -0.24950755 -0.2728812
0.31223595 -0.008483629 -0.09660793 -0.14047238 -0.30833688 0.3404461 -0.17928892 -0.20650351
0.29919484 0.32176682 -0.245482 0.3252747 0.12945196 -0.27087188 -0.30450702 -0.2478047
0.18329749 -0.14559971 -0.08916564 -0.24083689 -0.29924655 0.2749515 0.24038339 0.12377062
-0.3277654 0.06316699 0.03616228 -0.11036857 0.095066264 0.25326622 -0.04603924 0.13023107
0.31613615 -0.32771593 -0.24042271 0.036288682 0.22587214 0.008850885 -0.34731022 0.2934862
-0.07086795 -0.06356276 -0.2453544 -0.07368517 -0.16254364 -0.06367016 0.23983163 0.28665802
-0.005447865 -0.04753196 -0.10906663 0.22716926 0.062662624 -0.014676385 -0.00885322 0.06699063
0.05293104 -0.15191785 -0.3140784 -0.23610754 -0.07210613 0.041230008 -0.18727224 -0.026444992
0.26801804 -0.2878211 0.108342916 0.22888331 0.0355711 -0.13975789 0.12086048 -0.25501794
0.29250446 0.15098986 -0.11872543 0.18118751 -0.25262406 -0.14069669 0.29446176 0.06702676
-0.045132972 -0.25108802 0.2154727 0.024708878 -0.28124356 -0.09460607 -0.2950818 0.28454387
0.25109762 -0.15051529 -0.20458485 -0.11031211 0.06741665 0.000891577 0.19070394 0.22093494
0.28788564 -0.1057103 0.07283902 0.3269225 -0.15074489 0.042683862 -0.20306058 -0.1974132
0.18598808 -0.067579 -0.29506043 -0.342482 -0.2185274 -0.14318301 0.29494748 0.22933178
-0.035544857 0.2116657 -0.21086375 -0.23143564 0.30482614 -0.17379011 -0.3212257 -0.11110135
-0.08446034 -0.046199135 0.20337594 0.31845525 -0.09100473 0.21347138 0.25565577 0.061599795
0.31020367 0.29286388 0.26183575 0.1081566 0.1551313 -0.043490913 -0.26299915 -0.104964845
-0.08666093 0.15136941 0.08404252 0.16929065 0.1357973 0.1632239 0.12973535 0.17823686
00000000: 313e a93d b5db be3d a753 a93e 1403 9d3e
00000010: 3c46 8e3e 3af0 78be 6be5 a5bd 479f 4a3e
00000020: 8a72 343e 9936 923c 286e a73e 735a f03d
00000030: 4e98 073e 7345 36be 6ad8 533d ce5b 883e
00000040: 77ff 83be ee1c 943e c393 14bc 6db9 d8bd
00000050: 1a2c 373e 1d03 29be 2c34 58be e4a3 2b3e
00000060: 039e ed3a 24f2 393e a1fc 13be 87cd 1ebe
00000070: 895b 8e3e e95a 353e 7fa9 833d 7ad7 b7bc
00000080: d41d e6bb 89dd afbe fc69 3cbe 3d49 71bd
00000090: 9466 65bd 0e14 513e e777 9dbe 7dc8 5dbe
000000a0: c770 8dbd 2385 403e 193d d73c e4e4 85be
000000b0: 86a1 da3c 9274 843e ad1b 10bd cfc2 9fbd
000000c0: f32b 9d3d 9951 3fbd 3d57 963e c44a 43be
000000d0: 6f36 4c3e da96 32be 125f 50be 9347 5abe
000000e0: 2b94 33be 0c94 603e 44c1 81be c3c4 8f3e
000000f0: 13fb 733d 6529 1d3b d037 353e 3229 87be
00000100: d0ab 8fbc 346d a13e 69d8 923e 5857 923e
00000110: 14a6 603e 2d8e 833e 9b98 ed3d bdf7 113e
00000120: 7e4c 143d 21bc 213e 3610 bf3d 84ca 24be
00000130: befe 0ebe fd79 86be 00a6 3abe 9051 56be
00000140: 88a6 e7bd 0b8c ec3d 71be a33e 064d 193e
00000150: 0d15 88be a3ec ee3d 894f 78be 2e36 83bc
00000160: 901b 783d 4e7f aabe 785c a73e a21d 9c3e
00000170: 14f7 8abe c141 dcbd c087 86be 674c 1d3d
00000180: 7722 283e 97f1 9f3d bce9 a33e 9d92 883e
00000190: 7a05 593d d7e0 a23e 9f09 9f3e 0f07 06bc
000001a0: dc9a 233e 55fa cb3d f4a3 283e aafc ba3d
000001b0: ddcc b23e 3cd0 913e e87e 7fbe 16b7 8bbe
000001c0: 64dd 9f3e ebfe 0abc 61da c5bd fed7 0fbe
000001d0: 55de 9dbe f44e ae3e 8497 37be a875 53be
000001e0: 1130 993e 9fbe a43e a25f 7bbe 688a a63e
000001f0: 0e8f 043e b8af 8abe 58e8 9bbe 84c0 7dbe
00000200: 56b2 3b3e 1718 15be 7a9c b6bd f29d 76be
00000210: d836 99be 71c6 8c3e 1027 763e 737b fd3d
00000220: ded0 a7be b25d 813d e61e 143d eb08 e2bd
00000230: 1ab2 c23d 1cac 813e a493 3cbd 4b5b 053e
00000240: 99dc a13e 62ca a7be 5f31 76be 71a3 143d
00000250: 074b 673e 4d03 113c a5d2 b1be d343 963e
00000260: 3723 91bd 312d 82bd 2f3e 7bbe 40e8 96bd
00000270: d771 26be 8065 82bd 6c96 753e d7c4 923e
00000280: 0184 b2bb dfb0 42bd 535e dfbd 0f9f 683e
00000290: 4355 803d 3875 70bc 190d 11bc 6232 893d
000002a0: 38ce 583d 5a90 1bbe e2ce a0be 2dc6 71be
000002b0: 61ac 93bd cce0 283d 4bc4 3fbe 2ba3 d8bc
000002c0: a939 893e 4a5d 93be e4e2 dd3d 6360 6a3e
000002d0: 00b3 113d b11c 0fbe b385 f73d b691 82be
000002e0: 25c3 953e 169d 1a3e 5126 f3bd 3889 393e
000002f0: f157 81be cb12 10be b1c3 963e 5345 893d
00000300: 5add 38bd 9c8e 80be e0a4 5c3e 466a ca3c
00000310: 28ff 8fbe d4c0 c1bd f614 97be bcaf 913e
00000320: de8f 803e ae20 1abe b17e 51be 51eb e1bd
00000330: be11 8a3d b8b8 693a e547 433e c53c 623e
00000340: bf65 933e a47e d8bd a02c 953d 6362 a73e
00000350: de5c 1abe 46d5 2e3d 1def 4fbe b026 4abe
00000360: a973 3e3e dc66 8abd 2912 97be cd59 afbe
00000370: a6c5 5fbe 919e 12be 5b03 973e f3d5 6a3e
00000380: 7c97 11bd e5be 583e abec 57be 77fd 6cbe
00000390: 2c12 9c3e 09f6 31be b277 a4be 1b89 e3bd
000003a0: 8bf9 acbd 4e3b 3dbd c841 503e 910c a33e
000003b0: b060 babd 3e98 5a3e 50e5 823e 1150 7c3d
000003c0: 04d3 9e3e 41f2 953e 560f 863e 3581 dd3d
000003d0: bdda 1e3e 8723 32bd d3a7 86be cff7 d6bd
000003e0: 497b b1bd 9500 1b3e 7c1e ac3d 875a 2d3e
000003f0: 730e 0b3e 2b24 273e 58d9 043e b983 363e

pool1.select.weight f4 [1, 32]
-0.07943936 0.04386018 -0.14299124 0.05088794 0.03273927 0.09853103 -0.06290538 -0.14073497
-0.030998789 -0.017152628 -0.031533487 -0.14310084 0.13530242 0.0864075 0.018410588 -0.099016644
-0.033397354 0.08230506 0.14638585 0.030770587 -0.025809621 0.07816514 -0.16744208 0.11332385
-0.11439927 -0.07405071 -0.1152939 -0.1576792 0.03250525 -0.10000795 -0.018071823 0.025499968
00000000: 1ab1 a2bd bba6 333d 4c6c 12be df6f 503d
00000010: 9d19 063d a3ca c93d 89d4 80bd d41c 10be
00000020: 2cf1 fdbc ab83 8cbc 4229 01bd 0789 12be
00000030: b88c 0a3e 6af6 b03d cdd1 963c 3dc9 cabd
00000040: aacb 08bd 8e8f a83d 2ce6 153e 9912 fc3c
00000050: b36e d3bc 0b15 a03d f075 2bbe 5616 e83d
00000060: 2a4a eabd e6a7 97bd 351f ecbd a876 21be
00000070: 3a24 053d f8d0 ccbd 5c0b 94bc 4fe5 d03c

n2.0.weight f4 [8, 116]
-0.06317743 0.05497486 0.025953481 0.045357402 0.0013274235 -0.034645017 -0.011982674 -0.013570292
-0.0008903347 0.072106116 0.074580364 -0.04249695 0.04562956 0.0054037506 -0.0016269204 0.052714672
-0.062082216 -0.047330163 0.090025984 -0.05522576 0.050763868 0.06415105 0.0004625184 -0.026577292
-0.027181963 -0.011951363 -0.0058063227 0.032534212 0.005670753 -0.005351072 0.026081419 0.05690063
0.044497 0.03318874 -0.034458026 -0.001383192 0.04516718 0.007411456 0.002758758 -0.047850125
-0.039032053 -0.015300069 0.006322231 0.07903063 0.002077141 0.0011562182 0.035265837 0.065369144
0.07886461 -0.018770987 -0.007881372 -0.011340332 -0.06830252 -0.04153541 0.052090548 -0.051699206
0.019756965 0.041265216 0.068699956 -0.0028244504 -0.03541357 -0.068001494 -0.0014384115 -0.00021623944
-0.002092311 0.0030735813 0.06876847 -0.0035635107 -0.041350473 -0.015719656 -0.057920758 0.035551358
0.06430504 -0.0010921964 0.023509324 0.06321354 -0.0069362107 0.0017834946 -0.030626867 0.092349425
-0.014681958 -0.037961595 0.029329384 0.0027947186 0.018518921 -0.010636634 0.00027655528 0.039095674
0.052383944 -0.032573268 -0.04214248 -0.027611986 0.040147103 -0.036284078 -0.06330374 -0.05298157
0.00197389 -0.0022140031 0.039482273 -0.053404115 0.013139653 -0.0028369415 -0.032622952 0.0660784
0.05921166 -0.0013335559 0.002043712 0.06719544 -0.022114264 -0.026157212 0.013792259 0.050569188
-0.021697028 0.0069052656 0.03290113 -0.03473702 -0.0014226286 0.0038925034 -0.052840672 -0.06284881
0.058435366 0.003765247 -0.039474268 0.052961793 0.021077542 0.012898149 -0.010749781 -0.046209406
0.06649538 0.0340773 -0.0233572 -0.056833226 -0.020353103 0.029426273 0.007186698 0.08348679
0.040163886 0.085765846 0.0712851 -0.0128163565 -0.025002524 0.010641506 -0.0020293158 -0.059111007
-0.0014100984 -0.0020758284 -0.03897797 0.054854225 -0.00045480728 0.057758376 0.053790435 0.00929428
-0.0017637211 0.06171021 -0.0014557661 0.0033852186 -0.0015332805 0.015364822 0.08491877 0.021249771
-0.039689876 0.09785556 0.027443603 -0.0013036871 -0.03248461 0.024467632 0.038650453 -0.06603809
0.0431352 0.071117766 0.0042909025 0.0114650335 -0.0027100297 0.044342976 0.057052992 -0.0013941155
-0.06171131 0.080279 -0.06171638 0.04646249 -0.0031800317 -0.05250866 0.012688651 0.050816763
0.008882381 -0.004496068 0.038201254 -0.026488839 -0.02996459 0.0025508502 0.012176729 -0.016893815
-0.035273883 0.005887464 -0.06765817 -0.016605997 -0.0013858769 -0.06267242 0.0018387289 0.00597671
0.030453697 0.06656676 0.05326283 0.06344208 0.0129897045 -0.061215714 0.017905133 0.068658136
0.05634926 -0.05658326 -0.035091516 0.018582176 -0.0014088079 0.0654429 -0.022881234 -0.036669172
-0.010738131 -0.054265685 -0.04102065 -0.04344057 0.027062284 -0.019925255 0.050842497 0.012179732
0.023833776 0.032688115 -0.06671132 0.073129036 0.03771348 0.04303241 -0.039284706 -0.010792748
0.04866741 0.057860233 -0.06795281 0.08434843 -0.020695662 0.04020122 0.06549776 0.0054694293
0.028376276 0.012832752 -0.060227793 -0.021664707 -0.032895964 -0.029363832 0.079715304 0.005392742
-0.06485062 -0.040134553 0.04167681 0.05184312 -0.027011558 -0.00058126677 0.0049047587 0.04331489
00000000: 2b63 81bd 522d 613d 659c d43c afc8 393d
00000010: f1fc ad3a efe7 0dbd fa52 44bc ee55 5ebc
00000020: 5a65 69ba 5fac 933d 97bd 983d 4811 2ebd
00000030: 10e6 3a3d f211 b13b 643e d5ba 57eb 573d
00000040: ec49 7ebd 46dd 41bd 8b5f b83d 6834 62bd
00000050: c6ed 4f3d a061 833d 2b7e f239 9fb8 d9bc
00000060: b5ac debc a6cf 43bc f742 bebb 9842 053d
00000070: b9d1 b93b 0c58 afbb b3a8 d53c a310 693d
00000080: 7c42 363d ebf0 073d dc23 0dbd 394c b5ba
00000090: 3901 393d cddb f23b 47cc 343b 7efe 43bd
000000a0: 13e0 1fbd 24ad 7abc b82a cf3b d0da a13d
000000b0: a520 083b 3f8c 973a e972 103d 42e0 853d
000000c0: c583 a13d 9dc5 99bc df20 01bc cdcc 39bc
000000d0: 31e2 8bbd 0921 2abd e65c 553d 8cc2 53bd
000000e0: 5cd9 a13c b705 293d 90b2 8c3d 6a1a 39bb
000000f0: d20d 11bd 5e44 8bbd 1589 bcba 55be 62b9
00000100: 271f 09bb 236e 493b 7cd6 8c3d ca89 69bb
00000110: 1d5f 29bd 82c6 80bc 513e 6dbd 4d9e 113d
00000120: 5cb2 833d 0828 8fba a096 c03c 1a76 813d
00000130: 2749 e3bb 26c4 e93a 32e5 fabc b221 bd3d
00000140: 988c 70bc 9e7d 1bbd 2d44 f03c 9927 373b
00000150: feb4 973c 4745 2ebc 9ffe 9039 c922 203d
00000160: 8c90 563d 8c6b 05bd 989d 2cbd 8832 e2bc
00000170: 4a71 243d 9d9e 14bd 64a5 81bd 3403 59bd
00000180: 615c 013b cf18 11bb 2ab8 213d 46be 5abd
00000190: b347 573c fbeb 39bb a59f 05bd 1d54 873d
000001a0: ed87 723d b6ca aeba ccef 053b c39d 893d
000001b0: f928 b5bc a647 d6bc edf8 613c a321 4f3d
000001c0: f7bd b1bc 9145 e23b 56c3 063d 6848 0ebd
000001d0: 7f77 baba 5f19 7f3b 766f 58bd e0b6 80bd
000001e0: ec59 6f3d 5dc2 763b c5af 21bd 77ee 583d
000001f0: cfaa ac3c c252 533c d91f 30bc 1346 3dbd
00000200: bb2e 883d a494 0b3d 9957 bfbc f5c9 68bd
00000210: 8dbb a6bc 5e0f f13c 647e eb3b 1ffb aa3d
00000220: e382 243d 01a6 af3d ecfd 913d b2fb 51bc
00000230: 18d2 ccbc b659 2e3c 45fe 04bb 621e 72bd
00000240: 0dd3 b8ba 9f0a 08bb 5da7 1fbd d3ae 603d
00000250: 3373 eeb9 0c94 6c3d 5c53 5c3d 0947 183c
00000260: a92c e7ba d8c3 7c3d 68cf beba 8bda 5d3b
00000270: 5bf8 c8ba bcbc 7b3c e4e9 ad3d 0014 ae3c
00000280: da91 22bd 7f68 c83d 68d1 e03c 7be0 aaba
00000290: 950e 05bd 5870 c83c f04f 1e3d fa3e 87bd
000002a0: 89ae 303d 31a6 913d b39a 8c3b d6d7 3b3c
000002b0: c19a 31bb fba0 353d 66b0 693d c1ba b6ba
000002c0: 00c5 7cbd 5169 a43d 51ca 7cbd 744f 3e3d
000002d0: 1468 50bb 5213 57bd 0fe4 4f3c 3d25 503d
000002e0: 6887 113c c153 93bb eb78 1c3d 1fff d8bc
000002f0: 4d78 f5bc 2a2c 273b e780 473c e664 8abc
00000300: 597b 10bd a1eb c03b 5e90 8abd 4d09 88bc
00000310: 50a6 b5ba 665a 80bd 8101 f13a 47d8 c33b
00000320: 087a f93c 2754 883d 202a 5a3d eced 813d
00000330: c5d2 543c 54bd 7abd c9ad 923c a39c 8c3d
00000340: 7bce 663d d9c3 67bd 1fbc 0fbd a639 983c
00000350: c0a7 b8ba ed06 863d 6d71 bbbc 6a32 16bd
00000360: fcee 2fbc b245 5ebd 4505 28bd bdee 31bd
00000370: b9b1 dd3c 4a3a a3bc 3940 503d 808d 473c
00000380: 0d3f c33c f9e3 053d f29f 88bd adc4 953d
00000390: 7379 1a3d c142 303d 00e9 20bd 11d4 30bc
000003a0: 7a57 473d dafe 6c3d d82a 8bbd dfbe ac3d
000003b0: f389 a9bc 09aa 243d b123 863d e638 b33b
000003c0: 5d75 e83c 7740 523c 6bb1 76bd 2f7a b1bc
000003d0: ebbd 06bd 6b8c f0bc c741 a33d 99b5 b03b
000003e0: 67d0 84bd 2164 24bd 4db5 2a3d 7459 543d
000003f0: 5847 ddbc 2760 18ba 19b8 a03b f46a 313d
