Contrast/BrainGNN/save/model0.pth (torch, 403178 bytes, 30 tensors)

n1.0.weight f4 [8, 116]
000000 6b c0 6b 3d ee d6 d4 bc 6b 6c c3 b9 71 fb c6 bc
       0.05755655 -0.025981393 -0.00037274076 -0.024289818
000010 5a 89 f0 ba 96 20 be ba d3 03 74 bc 46 1d 3b 3d
       -0.0018351481 -0.0014505561 -0.01489349 0.045682214
000020 d0 b0 3b 3d eb 2d 42 3d ab a5 83 bd ea a3 95 3d
       0.04582292 0.047407072 -0.06428083 0.07306655
000030 0d 88 d9 b9 5a c4 fe ba b9 0b 8b bd 6f 53 d1 bc
       -0.0004149083 -0.001943718 -0.06789345 -0.02555248
000040 56 57 e4 3b d2 e5 12 bd d7 de 52 bb 13 da f6 bc
       0.006968419 -0.035863705 -0.003217628 -0.030133283
000050 33 10 c1 3c 6c f3 62 bd 8e 97 57 bc cf 94 f3 3b
       0.023567295 -0.055407926 -0.013158692 0.007433511
000060 74 72 95 3a a7 89 2b bd 7e fe 82 3d ab e1 a7 3c
       0.0011401908 -0.041879322 0.06396197 0.020493349
000070 22 05 8f 3b a1 f3 4f 39 43 80 ca 3c f2 35 3e 3c
       0.0043646256 0.00019831817 0.024719363 0.011609541
000080 25 72 1c bd 06 bf 65 3d 5b da 98 bc ad d0 68 bd
       -0.038194794 0.056090377 -0.018658808 -0.056839634
000090 0e 72 ce 3c 84 70 69 3d f4 8e dc bc d1 ce 7d bc
       0.02520087 0.05699207 -0.026923634 -0.015491203
0000a0 36 2f 8d bb 78 eb f9 bb ec 5a 3a bd 3b 08 98 3d
       -0.0043086065 -0.007626947 -0.045496866 0.07423445
0000b0 4a fc a1 3d 9d 3b 42 ba 0d e7 e4 3c df 11 93 bd
       0.079094484 -0.0007409396 0.027942205 -0.07181143
0000c0 64 f2 81 3c 81 2c 01 3c 8e fa bd ba f9 64 57 bc
       0.015862651 0.007884146 -0.0014494227 -0.013146632
0000d0 03 78 3d 3d 18 58 73 3d 3d 98 5d 3d a2 5b 5a ba
       0.04625703 0.059410185 0.054100264 -0.00083296944
0000e0 e2 99 96 38 f8 53 02 3c a6 a9 0a 3d 9c eb d2 bc
       7.18122e-05 0.00795459 0.033853196 -0.025747113
0000f0 11 b3 90 bd b5 82 cc 3b 42 c2 b4 3d 41 d6 23 bb
       -0.07065404 0.0062411674 0.08826114 -0.0024999531
000100 c2 32 8a bd 7b 35 49 bb d5 dc 3f bd f1 35 ed bc
       -0.067479625 -0.0030702043 -0.04684146 -0.028956385
000110 d0 80 81 bd e5 9f 91 bd 56 6f 5b bd 05 62 4e bb
       -0.06323397 -0.071105756 -0.053572975 -0.003149153
000120 51 0e 9a bd 64 af f3 bc 07 db bb 3c 5c 55 27 bb
       -0.07522262 -0.029746719 0.022931589 -0.0025533056
000130 d7 64 9a bd 62 d4 5c bd 79 37 c4 bc e6 44 8a 3d
       -0.07538765 -0.05391348 -0.023952233 0.067514226
000140 05 07 74 3d ec 31 6c b9 18 a8 00 3d 6d 95 42 3d
       0.059577007 -0.00022525311 0.031410307 0.047505785
000150 91 37 7f 3d 2a bf 20 bd 92 e7 e2 bc cd 56 2a bd
       0.06230885 -0.03924481 -0.027698312 -0.041586686
000160 dc f8 2c bc 73 0b 19 3d 2f c2 82 bd 52 b3 7b 3d
       -0.01055738 0.037364434 -0.06384694 0.06145031
000170 af f1 c2 bb 71 1f c2 bc 92 0d 37 bb 7d 13 13 bd
       -0.005949221 -0.023696633 -0.0027931673 -0.035907257
000180 0b 1a f7 bc 30 9d 05 bd 79 97 54 ba 1f 2e 9b bd
       -0.030163785 -0.03262061 -0.00081097294 -0.07577156
000190 a4 93 71 3d 32 68 0f 3d ec 38 8c 3c 55 eb 15 3d
       0.05897869 0.035011478 0.017116986 0.036601383
0001a0 79 bc 9e 3d 92 8f 60 3c e6 fe 45 3d ab 76 98 bc
       0.07750792 0.013706105 0.048338793 -0.018611273
0001b0 51 a8 95 3d 09 d4 b5 bb 2f d1 28 bd 20 dc 33 bd
       0.073074944 -0.005548958 -0.041215118 -0.0439111
0001c0 54 a4 79 bb 3b 17 5e bd dc e4 dc bc 83 8b c9 3d
       -0.0038092332 -0.054221373 -0.026964597 0.09841063
0001d0 2d 59 1e 3c 44 0c 28 bd 45 35 1e 3d a2 1d 52 bd
       0.009664816 -0.041027322 0.03862502 -0.05129779
0001e0 3e 59 35 3d 2c 12 8e 3d 9e 68 e8 3c 7c e0 f7 bc
       0.04427456 0.0693706 0.028370198 -0.03025841
0001f0 f6 db 3b 3d de 7e 8e 3d 6c ef 19 bb 2e cb 10 3c
       0.045864068 0.06957792 -0.0023488654 0.008837504
000200 e0 24 4f bd 13 2e 85 bd 60 e0 18 3d 23 44 52 bc
       -0.050572276 -0.065029286 0.037323356 -0.012833628
000210 ab e1 ad 3d 19 a7 9b 3d f8 48 87 3c f4 aa 97 3d
       0.084903084 0.07600231 0.016514286 0.074056536
000220 0b 5d ba 3d 30 7d ba 3d 76 fa a2 3c e6 2d a4 3d
       0.09099778 0.09105909 0.01989482 0.08016567
000230 8d d8 ad 3d 4f 57 39 3c 44 5c b5 3d cc 98 1a 3c
       0.084885694 0.01131232 0.08855489 0.009435844
000240 12 50 1f 3d 0d e2 35 3b 59 94 94 3a 09 57 93 3d
       0.03889472 0.0027753145 0.0011335715 0.07194335
000250 6b 50 d1 3c 70 24 94 3d 98 0b 5a 3d 78 7a e1 bc
       0.025551042 0.072335124 0.053233713 -0.027524218
000260 70 61 90 bd da e1 89 bd 4b 7f 53 3a f3 3a 4d 3c
       -0.07049835 -0.06732531 0.00080679794 0.012526262
000270 6b f2 91 bd 5c 54 9d bc b9 f1 84 bb 73 16 8a 3d
       -0.07126316 -0.019205265 -0.004057136 0.06742563
000280 88 7d 6e 3d 14 a3 65 3c 84 08 1a bd f1 85 3a 3d
       0.058225185 0.014015932 -0.037605777 0.045537893
000290 24 f9 e8 bc 3c 3a 8a bd 6c 75 b3 bb 04 0c ad 3c
       -0.028439112 -0.067493886 -0.0054766443 0.021123894
0002a0 26 13 92 3d 1b 5d 67 bd 9a 51 9a bc 20 a9 12 bd
       0.071325585 -0.056485277 -0.018837739 -0.03580582
0002b0 23 33 33 3d f0 ca 17 bb 92 eb 6f bd 82 33 84 bb
       0.04374994 -0.0023161732 -0.058574267 -0.0040344605
0002c0 42 39 03 3d 66 4a 54 bd ad 12 9f bc 94 06 eb bc
       0.032037027 -0.051828764 -0.019418085 -0.02868966
0002d0 9b ae 3e 3c ca d9 88 3d 28 6d 7a 3d 97 97 74 bd
       0.011638309 0.06682165 0.061139256 -0.05971488
0002e0 aa 89 1a bd a6 00 81 3d 49 f4 0a bd 2e 21 a6 3d
       -0.037728943 0.06298952 -0.033924375 0.08111797
0002f0 63 0a 3a bd 55 43 95 39 a4 3d 0c 3d 8a 43 bf bc
       -0.04542006 0.0002846966 0.034238473 -0.023347635
000300 ce 97 93 bd 99 b8 a7 3d 0c 2f 51 bd d7 a7 f6 b8
       -0.07206689 0.08189506 -0.051070258 -0.00011761457
000310 71 75 61 3d 91 d1 94 3d f9 88 86 ba e1 5b cf bb
       0.05504364 0.07266534 -0.001026421 -0.0063280915
000320 e8 ad e3 b9 8e c8 5e 3c d2 6b 99 ba 58 8f 2f 3d
       -0.00043426384 0.013597621 -0.0011705107 0.042861313
000330 43 92 8c 3c bb 6a d3 3c a2 97 b4 bc a8 63 cd 3c
       0.017159587 0.025807729 -0.02204496 0.025071934
000340 cb 26 c3 3d 34 af a6 bc 05 55 12 3d 76 eb 72 bd
       0.095288835 -0.020347215 0.035725612 -0.059306584
000350 4f 4f c9 bc 2d 20 5b bd 67 ef ad 3d 0c 62 73 bd
       -0.02457395 -0.053497482 0.08492928 -0.059419677
000360 49 66 c2 bc e5 48 9e ba e8 09 91 b9 08 b6 e3 bb
       -0.023730414 -0.0012076168 -0.00027663936 -0.00694919
000370 3f 80 a2 3d 28 0e 57 bd a7 cc 92 3d 8c 10 93 bb
       0.07934617 -0.052503735 0.071679406 -0.0044880565
000380 7c a3 58 3d c7 07 b1 3c ea a3 97 bc 6d bc b4 3d
       0.052890286 0.021610154 -0.018510778 0.08825002
000390 a7 82 03 3d ee ee 94 bd 98 a1 b0 3a 88 31 04 bd
       0.03210702 -0.07272135 0.0013475893 -0.0322738
0003a0 b4 62 54 bb 8d f0 1c bd a8 0e 8d bd 63 65 44 bd
       -0.0032407464 -0.038315345 -0.06887561 -0.047948252
0003b0 d9 7f 56 3d e1 c0 bd 3d a1 28 1a 3c 6d 59 b1 3d
       0.05236802 0.09265304 0.009409101 0.08659635
0003c0 7e 0e 55 3b 18 71 63 bc d0 05 cd bc 3e fd 66 bd
       0.0032509859 -0.013881944 -0.025027186 -0.056393854
0003d0 d1 fa a7 3d be f9 e8 bc a3 b3 89 3d d7 9b 83 3d
       0.08202136 -0.028439399 0.06723716 0.064262085
0003e0 a9 83 c0 3d d5 d1 8c bd 5e b2 6b bd 64 b0 b9 3c
       0.09400112 -0.0687596 -0.05754315 0.022667117
0003f0 4c ee 29 bb 32 c3 95 bb 6e 3d 78 bd 9e d5 23 bb
       -0.002592939 -0.0045703882 -0.06060546 -0.0024999152

n1.2.weight f4 [7040, 8]
000000 a4 b9 03 3e 5c 93 af bd 7b 45 4c 3e 2b 9c 22 3e
       0.12863785 -0.085730284 0.1994838 0.15879886
000010 23 88 8a 3e 3b 6b 0c bd 9e 01 96 3d 72 f8 41 be
       0.2705699 -0.03428195 0.07324527 -0.1894243
000020 08 4b 9b 3e 43 28 31 be 9c 14 93 3d 49 b0 8a bd
       0.30330682 -0.17300515 0.07181665 -0.06771905
000030 01 f1 bd 3d f8 c7 53 be c2 fe a0 3e b0 12 0d be
       0.092744835 -0.20681751 0.31444365 -0.1377666
000040 c9 f8 4b be 70 73 91 3e c7 5e 9c 3e da bf b3 bd
       -0.19919123 0.28408384 0.3054106 -0.08776827
000050 19 13 d4 bb 1c 98 99 3e c3 09 8c be ba b8 64 3e
       -0.006472003 0.29998863 -0.27351198 0.22336093
000060 2d bc 95 3d 09 a8 b6 bd 43 17 a4 be 17 84 86 be
       0.07311282 -0.08918769 -0.32048997 -0.26272652
000070 d7 66 00 3e 53 dd a4 3e d0 41 31 be 4e 4a 9d bd
       0.1253923 0.32200107 -0.17310262 -0.07680188
000080 54 6b 3d 3e 45 2e 95 3e eb ae 40 be a9 37 d9 bc
       0.18497974 0.29136863 -0.18816726 -0.026515799
000090 ba d6 7e 3e c7 d9 1f 3e 53 e6 0b be bc b1 f2 3d
       0.24886599 0.15610419 -0.1366208 0.118503064
0000a0 4f 9a 1c be ff 63 ce 3d 9a 3e 69 3d 76 58 4e 3c
       -0.15293239 0.100776665 0.056944467 0.012594333
0000b0 fc 19 28 3e de 24 1e be a6 23 37 be b0 0d 4f 3d
       0.16416162 -0.15443751 -0.17884693 0.050550163
0000c0 df 02 53 be 66 07 98 be 1c 48 a7 3e 01 e2 6c be
       -0.20606564 -0.29693145 0.32672203 -0.23133089
0000d0 ec 60 7b be f9 86 77 3e 26 98 83 be 7b 67 7c be
       -0.24548692 0.24172582 -0.25702018 -0.2464885
0000e0 64 11 5d 3d dd 01 7c be ed d8 2f 3d 33 dc 9c 3b
       0.053971663 -0.24610086 0.042931486 0.004786992
0000f0 0c ab 55 3d 5c c2 85 be f1 25 94 bd ac 97 1f 3e
       0.052165076 -0.26124847 -0.07233799 0.15585202
000100 e9 2c 59 3e 6d f0 4f be de ca a0 be d4 e6 19 bd
       0.21208538 -0.20306559 -0.31404775 -0.03757365
000110 a0 bd 91 be 44 3c 9d 3d 1f b3 59 3e 1b 92 67 3e
       -0.28464985 0.076775104 0.21259736 0.22614329
000120 16 4d a7 3e 4b bc 54 be 46 7c 2b 3c ee aa 00 be
       0.32676 -0.20774953 0.010466641 -0.12565205
000130 9f bd 83 be 81 c5 0c 3e 41 71 95 be 2e ce 21 be
       -0.25730607 0.13747217 -0.29187968 -0.15801308
000140 ce 00 b0 bd 1b 30 a9 be c8 3d 48 be 54 7d 05 be
       -0.085939035 -0.33044514 -0.19554818 -0.1303609
000150 8a 10 0d 3e b0 00 1c 3c 94 5a 1f be 24 26 35 be
       0.1377584 0.009521648 -0.15561897 -0.1769033
000160 2e a5 dc bc 20 20 78 be 7d 23 56 3e 81 02 83 be
       -0.026934233 -0.24231005 0.20911975 -0.25587848
000170 a5 d2 33 3c 41 37 8c be 27 ed 20 3e 53 bd b1 bd
       0.010975515 -0.27385905 0.15715466 -0.08678689
000180 5a e2 da bc 3a fe 2e bc 16 80 0f be d3 9c 08 3d
       -0.026719261 -0.0106807295 -0.14013705 0.033352684
000190 9f 00 db bc 9d df 28 be 18 8a a0 bb 68 56 aa be
       -0.026733695 -0.16491552 -0.0048992746 -0.33269048
0001a0 fa 4e 4b 3e 93 9d 0b 3e ac 5e fd bd 06 ad bd 3c
       0.19854346 0.13634329 -0.12371573 0.023153793
0001b0 35 2f 45 3e 67 0d 36 be 68 2f 49 3e 13 06 20 be
       0.1925629 -0.1777855 0.1964699 -0.15627317
0001c0 23 f2 0a 3a b7 ae 8a be 1c 26 3c 3e f7 82 a8 3e
       0.00053003634 -0.27086422 0.18373913 0.32912418
0001d0 39 22 74 3d c5 7c 6e 3e 26 b0 54 be 22 f6 34 3e
       0.05960295 0.23289783 -0.2077032 0.17672017
0001e0 4d dc 3f 3d 58 86 b7 3d 75 73 95 be 76 9f 4a bd
       0.046840955 0.08961171 -0.2918965 -0.04946848
0001f0 f6 25 51 3d 93 53 14 be 56 f3 50 3d 93 a1 a5 be
       0.051061593 -0.14485006 0.051013313 -0.32349834
000200 41 b7 00 be e1 b1 4c 3e e0 75 8f 3c b3 7d aa be
       -0.12569906 0.1998973 0.017512262 -0.33299026
000210 9c 4c 29 3d 5e 9f a7 be 7c 1e 80 be 35 b6 6b 3e
       0.041332826 -0.32738775 -0.25023258 0.23018725
000220 f9 45 fd 3d 33 d7 3d be 97 a5 26 3e b1 dc d1 bc
       0.12366862 -0.18539123 0.16274105 -0.02561793
000230 76 d0 e2 3d 25 2d a5 bc 33 ad 9b 3e 56 9d 66 be
       0.11074917 -0.020163128 0.30405578 -0.22520956
000240 03 3f 06 bd 78 9f 8d 3c 87 ef 50 3e 7f 0c 83 3e
       -0.032774936 0.017287955 0.20403872 0.2559547
000250 da 90 86 3d a6 d0 30 3e af 97 ee 3d 20 15 a3 3e
       0.06570597 0.17267093 0.11650025 0.31852055
000260 88 78 a6 be c1 06 7e 3b a2 45 88 be 5d 01 28 be
       -0.32513833 0.003876135 -0.26615626 -0.1640677
000270 5e b1 8c 3e b5 e5 98 3e a7 22 aa be c4 09 ca 3d
       0.2747907 0.29862753 -0.33229563 0.09865144
000280 ef 8c c4 bd 07 ad 01 3e e9 19 5b be c8 18 a6 be
       -0.095971934 0.12663661 -0.21396603 -0.32440782
000290 5c 3a c3 bd 37 fa 9c 3e 01 23 a4 3e ed 5b 59 be
       -0.095326155 0.3065965 0.32057956 -0.21226473
0002a0 53 36 73 bc 77 5d b3 3d 57 7c 93 be a3 ae 54 be
       -0.014844495 0.087580614 -0.288058 -0.20769744
0002b0 37 ba 5b be 09 80 33 3d f4 94 6e 3e a5 98 92 3e
       -0.21457754 0.043823276 0.23299009 0.28632084
0002c0 03 4a 6e be 4d 99 53 bd 1d 9f 7e be 70 24 30 3e
       -0.2327042 -0.05165987 -0.24865384 0.172014
0002d0 91 b2 62 be f1 20 dc bc 3e f1 ac 3d 2a 58 08 be
       -0.2213843 -0.026871176 0.08444451 -0.13314882
0002e0 18 8e 16 be d8 df ae bd fb 87 87 3e fb 66 a5 3e
       -0.14702642 -0.085387886 0.26470932 0.3230513
0002f0 04 65 b4 3d a8 da 8a be 1f fc 8d 3d b2 e3 46 be
       0.0880833 -0.27119946 0.06932854 -0.19422796
000300 20 7a 6e 3e d6 b1 07 3e 38 60 89 be 45 a3 8e 3e
       0.23288774 0.13251433 -0.26831222 0.2785894
000310 3d f7 8c 3e 88 22 ca 3d 21 90 99 3c 35 f6 84 be
       0.27532378 0.098698676 0.018745484 -0.2596909
000320 c7 3d 01 be ba 76 82 be 4d c1 3c 3e 93 8c 6a 3d
       -0.12621222 -0.25481206 0.18433113 0.05726297
000330 aa 7b e5 bd 55 60 9f 3e a2 40 c0 bd 19 a9 7d bd
       -0.11205228 0.31128183 -0.09387328 -0.061928842
000340 3a dc 5f be ab 89 22 be 30 54 9a be 0a 8a 69 bd
       -0.21861354 -0.15872829 -0.30142355 -0.05701641
000350 30 87 fa 3d b7 a6 04 be 78 79 66 3e 4d 5a cf 3d
       0.12232816 -0.12954222 0.22507274 0.101246454
000360 4b a9 86 3e 90 cb 52 bc 5f 42 81 3e 6d 97 83 3e
       0.26301035 -0.012865916 0.2524595 0.25701466
000370 1d 13 26 bd d3 94 e8 bd 60 a4 2b be d6 3e 0d bd
       -0.04054557 -0.11356511 -0.16761923 -0.034483753
000380 12 41 a6 3e a0 81 22 be 25 64 f0 bd ee 7d a7 be
       0.3247152 -0.1586976 -0.11737851 -0.32713264
000390 6f 8c 9f 3e 3b d5 b8 bd 15 b7 96 be 09 4e 19 be
       0.3116183 -0.090250455 -0.29436556 -0.14971174
0003a0 f3 bf 06 be 2e c4 85 3e 3b ce 9a be bc 85 47 bc
       -0.1315916 0.26126236 -0.30235466 -0.012177881
0003b0 06 77 c3 3b 9c 9d 99 be 62 d7 2b be b0 4b 36 be
       0.0059651164 -0.3000306 -0.16781381 -0.1780231
0003c0 bd 17 f4 bd ee db 9c bd a7 91 f9 bd 7b 1d 82 3e
       -0.1191859 -0.07659136 -0.12185984 0.25413117
0003d0 16 ec b0 bd b0 14 9a bc e5 ea f0 3b cc 0c 46 3e
       -0.0863878 -0.018808693 0.0073522204 0.19340819
0003e0 39 ae 1c 3e cf f7 03 bb 63 72 99 3e cd 72 a4 bd
       0.15300836 -0.002013672 0.29970083 -0.08029709
0003f0 8c b4 0d 3e e1 98 d8 bd d4 2b a8 3e 35 67 30 be
       0.13838404 -0.10576034 0.32845938 -0.1722687

n1.2.bias f4 [7040]
000000 a5 1b 85 be f4 a2 ae 3e 83 4d 77 3e 87 92 ed bd
       -0.25997654 0.34108698 0.24150662 -0.116002135
000010 c9 e9 23 3e 80 a3 28 3e 74 dc 23 be ca 9d 24 be
       0.1600715 0.1646862 -0.16002065 -0.16075817
000020 a6 44 1a 3e 84 5f fa bc 2d ed 2f 3e 43 30 12 3d
       0.1506525 -0.030563124 0.17180319 0.035690557
000030 b0 84 d6 3d 87 6c c7 bd 3d 36 92 3d 81 47 31 be
       0.10474527 -0.09737497 0.071392514 -0.17312433
000040 66 57 00 bd a3 d3 97 bd c0 6b 42 3c c0 a2 0d 3e
       -0.03133335 -0.074134134 0.01186651 0.13831615
000050 a9 33 c9 bc 15 b7 7a be d3 9f 5f 3d 71 2a 2f be
       -0.024560766 -0.24483903 0.05459578 -0.17106034
000060 e6 b7 af be 03 69 7f be 6e eb 91 3e 74 78 ec bd
       -0.3431999 -0.24942403 0.2849993 -0.11546412
000070 98 ab 6e 3e 5e f7 77 3e 1a d5 c8 3d 0c 4f 0f 3e
       0.23307645 0.24215457 0.09806271 0.13994998
000080 e8 05 e9 bc 2f e9 cc bd 62 24 f3 bd cf bc 38 3e
       -0.0284452 -0.10005414 -0.11872174 0.18040775
000090 71 79 ac 3d f1 67 45 be c4 0d b9 bd 43 af c7 3c
       0.084216006 -0.19277932 -0.09035829 0.024375563
0000a0 3d 24 10 be d2 36 ac bd 44 46 77 3e 7e 0f 77 3c
       -0.14076324 -0.08408894 0.24147898 0.015079377
0000b0 64 25 dc 3d 73 55 58 3c 42 8f cd 3d a2 4d cd 3d
       0.10749319 0.013203966 0.1003709 0.10024573
0000c0 48 99 32 be ba 3d b2 bd 0c d1 b0 be 49 88 a5 3e
       -0.17441285 -0.0870318 -0.3453449 0.3233054
0000d0 a2 c5 a0 bd 00 f5 02 bd da bb 9b be 59 ea 69 3e
       -0.078501955 -0.03197193 -0.30416757 0.22843303
0000e0 5b 65 83 be 33 3f 96 be 0a a1 a1 bd 0c 72 51 3e
       -0.25663266 -0.29345092 -0.07892044 0.20453662
0000f0 b9 d8 69 be b9 76 22 3e c7 29 79 bd 34 c5 72 3d
       -0.2283658 0.15865602 -0.060830858 0.0592701
000100 2f 5a ea 3c 33 09 8c 3e dc 27 a5 3e 34 ff a7 be
       0.028607456 0.27350768 0.32256973 -0.32811892
000110 d3 2f 2c 3d db 9c e4 bc d4 d9 36 3e f5 11 92 3e
       0.042037796 -0.027906826 0.17856532 0.28529325
000120 9b 7e 5d be 9c 82 93 be fd 9a a7 be 0d 75 7f 3e
       -0.21630327 -0.28810585 -0.32735434 0.24946995
000130 d9 36 94 bd 3f 0e d0 bd 28 9d 96 3d bf 47 94 bd
       -0.07237024 -0.10158967 0.07354194 -0.07240247
000140 31 c1 53 be dd 4a 19 bc ec bf 72 be 5b 49 ad be
       -0.20679165 -0.009356228 -0.23706025 -0.33845028
000150 ce e7 88 be 28 7e 89 3c 5e 04 50 bd 2d fe a3 be
       -0.26739353 0.016783789 -0.050785415 -0.32029858
000160 0e 21 34 3e 5c 3a 60 3d 22 ac fa 3d 72 40 04 3e
       0.17590734 0.054743156 0.12239863 0.12915209
000170 55 f3 11 3e b6 d6 38 be ee c2 24 bc 1d a9 54 bd
       0.1425298 -0.18050656 -0.0100562405 -0.05191909
000180 69 53 1f 3d 7c f6 47 be 36 68 5b 3d 05 19 5e 3e
       0.038897905 -0.1952762 0.05356618 0.21689232
000190 40 a9 15 be a4 ad 8f 3d dc bd a9 bc 0e 7a 77 bd
       -0.14615345 0.07015541 -0.020720415 -0.060419135
0001a0 a7 9c 45 3d ca 8e a9 3e b6 17 24 3e 6d 31 6f be
       0.0482451 0.33116752 0.1602467 -0.23358698
0001b0 b9 1a 3c be 29 5b 11 3e 6c 55 f6 3b c2 23 63 3d
       -0.18369569 0.14194931 0.0075175073 0.055454023
0001c0 56 f5 71 3d 6f 90 4e 3e c1 57 09 3d 41 2b d6 bc
       0.05907186 0.20172285 0.033530954 -0.026143672
0001d0 68 50 f3 bd a2 a0 85 3e a4 28 5a 3e b6 38 81 be
       -0.11880571 0.26099116 0.21304566 -0.2523858
0001e0 0b 59 03 be ca 55 78 be 32 fe ab 3e 2a 39 a1 3e
       -0.12826936 -0.24251476 0.33592373 0.31488925
0001f0 15 71 b2 be 60 3d 7c be a6 0e 40 3e a6 ae 71 3e
       -0.348519 -0.24632788 0.18755588 0.2360178
000200 8a df a6 3e de 5c 64 3e 7c 3e 39 3e fc 83 24 bd
       0.32592422 0.22301051 0.18090242 -0.040164933
000210 5d 6c a3 be e1 a5 70 3e e9 d6 0a be 75 1a 62 bd
       -0.31918612 0.23500778 -0.13558544 -0.055201013
000220 2f e2 1d 3e ae c8 9b 3e 74 87 cb 3d f2 4a a0 be
       0.15418313 0.30426544 0.09937945 -0.3130718
000230 19 d1 18 3c af 94 a7 3c a1 70 92 bd cc 6d 3a be
       0.0093271965 0.02045664 -0.071503885 -0.18205947
000240 ee c0 59 3e 46 78 67 be 9f 23 54 be 85 b6 fa 3c
       0.21265003 -0.22604474 -0.20716713 0.03060461
000250 39 c0 92 3e d5 09 9a bd 62 2d e5 3b b4 e9 77 3e
       0.2866228 -0.075214066 0.0069939354 0.24210244
000260 7b 9a 9d be 2c 09 4c 3e 1a 91 dd bd 49 a0 62 3d
       -0.30781922 0.19925374 -0.108186916 0.05532864
000270 81 e3 84 3e f6 e6 2c be 27 57 8c 3e 1d 01 30 be
       0.25954822 -0.1688498 0.27410242 -0.17187925
000280 a3 78 20 bd e2 de 99 3e 08 12 95 3e b2 0f 38 3e
       -0.03917755 0.3005286 0.2911532 0.17974737
000290 8f 12 81 be f6 8e 2f be 49 fb 34 3e 99 87 e3 3d
       -0.25209472 -0.17144379 0.17673983 0.111098476
0002a0 9d 97 5f 3e 04 ca 9a be 74 37 8b 3e 47 b7 12 be
       0.2183518 -0.3023225 0.27190745 -0.14327727
0002b0 f8 9b 0a 3e a5 0e a6 bd 50 ca cc 3d 9d bc 95 3e
       0.1353606 -0.08108262 0.099995255 0.29245463
0002c0 f8 77 1d 3e 20 0a 48 3e cc e7 6c 3e 09 dc d0 3d
       0.15377796 0.19535112 0.23135298 0.101982184
0002d0 72 aa 6c be 89 af 93 3d 18 40 2f bd 1c 7c a1 be
       -0.23111895 0.07211215 -0.042785734 -0.3154
0002e0 ad d2 67 be 2c 04 bc bc fc 36 e0 3b 9b d4 e0 bd
       -0.2263896 -0.022951208 0.006842492 -0.10978051
0002f0 ce af 88 be 1c 7b d8 bd 58 7b 86 3e 0e 5f a2 3d
       -0.26696628 -0.10570356 0.2626598 0.079282865
000300 51 9f 8e be a6 a0 85 3e f4 34 7a be 43 67 97 be
       -0.27855924 0.26099128 -0.24434263 -0.2957097
000310 92 a8 a4 be ab a7 6d 3e c2 dd c7 bd 86 a9 c2 3d
       -0.3215986 0.23208492 -0.09759094 0.0950499
000320 54 72 9d 3e 0c 8c 82 be b3 c7 6d be e6 45 ce 3d
       0.30751288 -0.25497472 -0.2322071 0.10071926
000330 11 a4 29 be 51 50 b1 3e 00 4c 62 3d 56 4c f7 bd
       -0.16566493 0.3463159 0.05524826 -0.12075107
000340 f2 a4 ad be 38 8a 77 be 03 3e 89 3c a8 34 92 be
       -0.33914906 -0.2417382 0.016753202 -0.285558
000350 02 45 11 be fc 9a f4 bd db a2 b0 bd d2 0c 9a be
       -0.1418648 -0.119436234 -0.08624812 -0.30087906
000360 08 11 3e 3e 4f cd 53 bd aa 07 30 3e cc 35 32 be
       0.18561184 -0.05170947 0.17190424 -0.17403334
000370 52 b1 d7 3d f9 6b f0 bd 6e 48 37 3e 2f 6f 9d 3e
       0.10531868 -0.11739344 0.17898723 0.3074889
000380 54 44 9f bd 6d 51 57 be f3 63 95 3e 80 a0 35 bd
       -0.077767044 -0.21027155 0.29177818 -0.044342518
000390 25 12 31 bb 69 7b a5 be 13 13 3c bd c5 2a a8 be
       -0.0027018872 -0.32320717 -0.045916628 -0.3284513
0003a0 76 ca 74 be 68 80 17 be 7d cc a5 3e ee dc a0 3e
       -0.23905358 -0.14795077 0.32382575 0.31418556
0003b0 50 76 7a be 8f 65 c2 bd 33 b1 a7 3e d4 d0 b6 3c
       -0.24459195 -0.09492027 0.3275238 0.022316374
0003c0 b3 e8 58 be eb 02 44 be 27 67 d9 3c f5 52 9b be
       -0.21182518 -0.19141738 0.026538445 -0.3033673
0003d0 c6 dc 5f be 64 7b 9a be 66 96 35 be 4f c4 9d 3e
       -0.21861562 -0.30172265 -0.17733154 0.30813834
0003e0 8d f9 78 3e 2e d0 1e be 9a e7 7a be 9a 94 e4 3d
       0.24313946 -0.15509102 -0.24502411 0.11161156
0003f0 2b 32 98 be 0e 4c 25 3e 16 93 75 bd 21 e4 9c be
       -0.29725775 0.16142294 -0.059954725 -0.306428

conv1.bias f4 [32]
000000 51 c2 5b bd 4e 23 80 3d aa 35 80 3d a2 80 42 3d
       -0.05365211 0.06256734 0.062602356 0.047485955
000010 9e 55 78 3d cb 62 a0 bc 03 7d 71 bc 42 24 0b bd
       0.060628526 -0.019578358 -0.014739278 -0.033970125
000020 9f e3 3c bc 85 c3 be bc 28 8b 6e 3d ed 04 ec 3b
       -0.0115288785 -0.02328659 0.05823818 0.0072027356
000030 ba 08 54 3d 3f b4 e2 3b e0 4f 73 3d af 33 07 bc
       0.051766135 0.0069184597 0.059402347 -0.008252068
000040 40 22 c1 3b 0b df ba ba 96 85 09 3b 96 0c 92 3c
       0.0058939755 -0.0014257146 0.0020984164 0.017828267
000050 0d 0f 57 bd fc 03 18 bd b1 10 8b bd a9 53 e3 3a
       -0.052504588 -0.037113175 -0.06790293 0.0017343658
000060 44 25 fe 3c 69 32 a2 bb 01 c7 60 bd 09 9a 0e 3d
       0.031023629 -0.004949857 -0.054877285 0.034814868
000070 40 b0 4e 3c 69 7b 09 bd 42 a4 1a 3b 70 05 33 3d
       0.012615263 -0.03356496 0.002359644 0.043706357

conv1.nn.0.weight f4 [8, 116]
000000 6b c0 6b 3d ee d6 d4 bc 6b 6c c3 b9 71 fb c6 bc
       0.05755655 -0.025981393 -0.00037274076 -0.024289818
000010 5a 89 f0 ba 96 20 be ba d3 03 74 bc 46 1d 3b 3d
       -0.0018351481 -0.0014505561 -0.01489349 0.045682214
000020 d0 b0 3b 3d eb 2d 42 3d ab a5 83 bd ea a3 95 3d
       0.04582292 0.047407072 -0.06428083 0.07306655
000030 0d 88 d9 b9 5a c4 fe ba b9 0b 8b bd 6f 53 d1 bc
       -0.0004149083 -0.001943718 -0.06789345 -0.02555248
000040 56 57 e4 3b d2 e5 12 bd d7 de 52 bb 13 da f6 bc
       0.006968419 -0.035863705 -0.003217628 -0.030133283
000050 33 10 c1 3c 6c f3 62 bd 8e 97 57 bc cf 94 f3 3b
       0.023567295 -0.055407926 -0.013158692 0.007433511
000060 74 72 95 3a a7 89 2b bd 7e fe 82 3d ab e1 a7 3c
       0.0011401908 -0.041879322 0.06396197 0.020493349
000070 22 05 8f 3b a1 f3 4f 39 43 80 ca 3c f2 35 3e 3c
       0.0043646256 0.00019831817 0.024719363 0.011609541
000080 25 72 1c bd 06 bf 65 3d 5b da 98 bc ad d0 68 bd
       -0.038194794 0.056090377 -0.018658808 -0.056839634
000090 0e 72 ce 3c 84 70 69 3d f4 8e dc bc d1 ce 7d bc
       0.02520087 0.05699207 -0.026923634 -0.015491203
0000a0 36 2f 8d bb 78 eb f9 bb ec 5a 3a bd 3b 08 98 3d
       -0.0043086065 -0.007626947 -0.045496866 0.07423445
0000b0 4a fc a1 3d 9d 3b 42 ba 0d e7 e4 3c df 11 93 bd
       0.079094484 -0.0007409396 0.027942205 -0.07181143
0000c0 64 f2 81 3c 81 2c 01 3c 8e fa bd ba f9 64 57 bc
       0.015862651 0.007884146 -0.0014494227 -0.013146632
0000d0 03 78 3d 3d 18 58 73 3d 3d 98 5d 3d a2 5b 5a ba
       0.04625703 0.059410185 0.054100264 -0.00083296944
0000e0 e2 99 96 38 f8 53 02 3c a6 a9 0a 3d 9c eb d2 bc
       7.18122e-05 0.00795459 0.033853196 -0.025747113
0000f0 11 b3 90 bd b5 82 cc 3b 42 c2 b4 3d 41 d6 23 bb
       -0.07065404 0.0062411674 0.08826114 -0.0024999531
000100 c2 32 8a bd 7b 35 49 bb d5 dc 3f bd f1 35 ed bc
       -0.067479625 -0.0030702043 -0.04684146 -0.028956385
000110 d0 80 81 bd e5 9f 91 bd 56 6f 5b bd 05 62 4e bb
       -0.06323397 -0.071105756 -0.053572975 -0.003149153
000120 51 0e 9a bd 64 af f3 bc 07 db bb 3c 5c 55 27 bb
       -0.07522262 -0.029746719 0.022931589 -0.0025533056
000130 d7 64 9a bd 62 d4 5c bd 79 37 c4 bc e6 44 8a 3d
       -0.07538765 -0.05391348 -0.023952233 0.067514226
000140 05 07 74 3d ec 31 6c b9 18 a8 00 3d 6d 95 42 3d
       0.059577007 -0.00022525311 0.031410307 0.047505785
000150 91 37 7f 3d 2a bf 20 bd 92 e7 e2 bc cd 56 2a bd
       0.06230885 -0.03924481 -0.027698312 -0.041586686
000160 dc f8 2c bc 73 0b 19 3d 2f c2 82 bd 52 b3 7b 3d
       -0.01055738 0.037364434 -0.06384694 0.06145031
000170 af f1 c2 bb 71 1f c2 bc 92 0d 37 bb 7d 13 13 bd
       -0.005949221 -0.023696633 -0.0027931673 -0.035907257
000180 0b 1a f7 bc 30 9d 05 bd 79 97 54 ba 1f 2e 9b bd
       -0.030163785 -0.03262061 -0.00081097294 -0.07577156
000190 a4 93 71 3d 32 68 0f 3d ec 38 8c 3c 55 eb 15 3d
       0.05897869 0.035011478 0.017116986 0.036601383
0001a0 79 bc 9e 3d 92 8f 60 3c e6 fe 45 3d ab 76 98 bc
       0.07750792 0.013706105 0.048338793 -0.018611273
0001b0 51 a8 95 3d 09 d4 b5 bb 2f d1 28 bd 20 dc 33 bd
       0.073074944 -0.005548958 -0.041215118 -0.0439111
0001c0 54 a4 79 bb 3b 17 5e bd dc e4 dc bc 83 8b c9 3d
       -0.0038092332 -0.054221373 -0.026964597 0.09841063
0001d0 2d 59 1e 3c 44 0c 28 bd 45 35 1e 3d a2 1d 52 bd
       0.009664816 -0.041027322 0.03862502 -0.05129779
0001e0 3e 59 35 3d 2c 12 8e 3d 9e 68 e8 3c 7c e0 f7 bc
       0.04427456 0.0693706 0.028370198 -0.03025841
0001f0 f6 db 3b 3d de 7e 8e 3d 6c ef 19 bb 2e cb 10 3c
       0.045864068 0.06957792 -0.0023488654 0.008837504
000200 e0 24 4f bd 13 2e 85 bd 60 e0 18 3d 23 44 52 bc
       -0.050572276 -0.065029286 0.037323356 -0.012833628
000210 ab e1 ad 3d 19 a7 9b 3d f8 48 87 3c f4 aa 97 3d
       0.084903084 0.07600231 0.016514286 0.074056536
000220 0b 5d ba 3d 30 7d ba 3d 76 fa a2 3c e6 2d a4 3d
       0.09099778 0.09105909 0.01989482 0.08016567
000230 8d d8 ad 3d 4f 57 39 3c 44 5c b5 3d cc 98 1a 3c
       0.084885694 0.01131232 0.08855489 0.009435844
000240 12 50 1f 3d 0d e2 35 3b 59 94 94 3a 09 57 93 3d
       0.03889472 0.0027753145 0.0011335715 0.07194335
000250 6b 50 d1 3c 70 24 94 3d 98 0b 5a 3d 78 7a e1 bc
       0.025551042 0.072335124 0.053233713 -0.027524218
000260 70 61 90 bd da e1 89 bd 4b 7f 53 3a f3 3a 4d 3c
       -0.07049835 -0.06732531 0.00080679794 0.012526262
000270 6b f2 91 bd 5c 54 9d bc b9 f1 84 bb 73 16 8a 3d
       -0.07126316 -0.019205265 -0.004057136 0.06742563
000280 88 7d 6e 3d 14 a3 65 3c 84 08 1a bd f1 85 3a 3d
       0.058225185 0.014015932 -0.037605777 0.045537893
000290 24 f9 e8 bc 3c 3a 8a bd 6c 75 b3 bb 04 0c ad 3c
       -0.028439112 -0.067493886 -0.0054766443 0.021123894
0002a0 26 13 92 3d 1b 5d 67 bd 9a 51 9a bc 20 a9 12 bd
       0.071325585 -0.056485277 -0.018837739 -0.03580582
0002b0 23 33 33 3d f0 ca 17 bb 92 eb 6f bd 82 33 84 bb
       0.04374994 -0.0023161732 -0.058574267 -0.0040344605
0002c0 42 39 03 3d 66 4a 54 bd ad 12 9f bc 94 06 eb bc
       0.032037027 -0.051828764 -0.019418085 -0.02868966
0002d0 9b ae 3e 3c ca d9 88 3d 28 6d 7a 3d 97 97 74 bd
       0.011638309 0.06682165 0.061139256 -0.05971488
0002e0 aa 89 1a bd a6 00 81 3d 49 f4 0a bd 2e 21 a6 3d
       -0.037728943 0.06298952 -0.033924375 0.08111797
0002f0 63 0a 3a bd 55 43 95 39 a4 3d 0c 3d 8a 43 bf bc
       -0.04542006 0.0002846966 0.034238473 -0.023347635
000300 ce 97 93 bd 99 b8 a7 3d 0c 2f 51 bd d7 a7 f6 b8
       -0.07206689 0.08189506 -0.051070258 -0.00011761457
000310 71 75 61 3d 91 d1 94 3d f9 88 86 ba e1 5b cf bb
       0.05504364 0.07266534 -0.001026421 -0.0063280915
000320 e8 ad e3 b9 8e c8 5e 3c d2 6b 99 ba 58 8f 2f 3d
       -0.00043426384 0.013597621 -0.0011705107 0.042861313
000330 43 92 8c 3c bb 6a d3 3c a2 97 b4 bc a8 63 cd 3c
       0.017159587 0.025807729 -0.02204496 0.025071934
000340 cb 26 c3 3d 34 af a6 bc 05 55 12 3d 76 eb 72 bd
       0.095288835 -0.020347215 0.035725612 -0.059306584
000350 4f 4f c9 bc 2d 20 5b bd 67 ef ad 3d 0c 62 73 bd
       -0.02457395 -0.053497482 0.08492928 -0.059419677
000360 49 66 c2 bc e5 48 9e ba e8 09 91 b9 08 b6 e3 bb
       -0.023730414 -0.0012076168 -0.00027663936 -0.00694919
000370 3f 80 a2 3d 28 0e 57 bd a7 cc 92 3d 8c 10 93 bb
       0.07934617 -0.052503735 0.071679406 -0.0044880565
000380 7c a3 58 3d c7 07 b1 3c ea a3 97 bc 6d bc b4 3d
       0.052890286 0.021610154 -0.018510778 0.08825002
000390 a7 82 03 3d ee ee 94 bd 98 a1 b0 3a 88 31 04 bd
       0.03210702 -0.07272135 0.0013475893 -0.0322738
0003a0 b4 62 54 bb 8d f0 1c bd a8 0e 8d bd 63 65 44 bd
       -0.0032407464 -0.038315345 -0.06887561 -0.047948252
0003b0 d9 7f 56 3d e1 c0 bd 3d a1 28 1a 3c 6d 59 b1 3d
       0.05236802 0.09265304 0.009409101 0.08659635
0003c0 7e 0e 55 3b 18 71 63 bc d0 05 cd bc 3e fd 66 bd
       0.0032509859 -0.013881944 -0.025027186 -0.056393854
0003d0 d1 fa a7 3d be f9 e8 bc a3 b3 89 3d d7 9b 83 3d
       0.08202136 -0.028439399 0.06723716 0.064262085
0003e0 a9 83 c0 3d d5 d1 8c bd 5e b2 6b bd 64 b0 b9 3c
       0.09400112 -0.0687596 -0.05754315 0.022667117
0003f0 4c ee 29 bb 32 c3 95 bb 6e 3d 78 bd 9e d5 23 bb
       -0.002592939 -0.0045703882 -0.06060546 -0.0024999152

conv1.nn.2.weight f4 [7040, 8]
000000 a4 b9 03 3e 5c 93 af bd 7b 45 4c 3e 2b 9c 22 3e
       0.12863785 -0.085730284 0.1994838 0.15879886
000010 23 88 8a 3e 3b 6b 0c bd 9e 01 96 3d 72 f8 41 be
       0.2705699 -0.03428195 0.07324527 -0.1894243
000020 08 4b 9b 3e 43 28 31 be 9c 14 93 3d 49 b0 8a bd
       0.30330682 -0.17300515 0.07181665 -0.06771905
000030 01 f1 bd 3d f8 c7 53 be c2 fe a0 3e b0 12 0d be
       0.092744835 -0.20681751 0.31444365 -0.1377666
000040 c9 f8 4b be 70 73 91 3e c7 5e 9c 3e da bf b3 bd
       -0.19919123 0.28408384 0.3054106 -0.08776827
000050 19 13 d4 bb 1c 98 99 3e c3 09 8c be ba b8 64 3e
       -0.006472003 0.29998863 -0.27351198 0.22336093
000060 2d bc 95 3d 09 a8 b6 bd 43 17 a4 be 17 84 86 be
       0.07311282 -0.08918769 -0.32048997 -0.26272652
000070 d7 66 00 3e 53 dd a4 3e d0 41 31 be 4e 4a 9d bd
       0.1253923 0.32200107 -0.17310262 -0.07680188
000080 54 6b 3d 3e 45 2e 95 3e eb ae 40 be a9 37 d9 bc
       0.18497974 0.29136863 -0.18816726 -0.026515799
000090 ba d6 7e 3e c7 d9 1f 3e 53 e6 0b be bc b1 f2 3d
       0.24886599 0.15610419 -0.1366208 0.118503064
0000a0 4f 9a 1c be ff 63 ce 3d 9a 3e 69 3d 76 58 4e 3c
       -0.15293239 0.100776665 0.056944467 0.012594333
0000b0 fc 19 28 3e de 24 1e be a6 23 37 be b0 0d 4f 3d
       0.16416162 -0.15443751 -0.17884693 0.050550163
0000c0 df 02 53 be 66 07 98 be 1c 48 a7 3e 01 e2 6c be
       -0.20606564 -0.29693145 0.32672203 -0.23133089
0000d0 ec 60 7b be f9 86 77 3e 26 98 83 be 7b 67 7c be
       -0.24548692 0.24172582 -0.25702018 -0.2464885
0000e0 64 11 5d 3d dd 01 7c be ed d8 2f 3d 33 dc 9c 3b
       0.053971663 -0.24610086 0.042931486 0.004786992
0000f0 0c ab 55 3d 5c c2 85 be f1 25 94 bd ac 97 1f 3e
       0.052165076 -0.26124847 -0.07233799 0.15585202
000100 e9 2c 59 3e 6d f0 4f be de ca a0 be d4 e6 19 bd
       0.21208538 -0.20306559 -0.31404775 -0.03757365
000110 a0 bd 91 be 44 3c 9d 3d 1f b3 59 3e 1b 92 67 3e
       -0.28464985 0.076775104 0.21259736 0.22614329
000120 16 4d a7 3e 4b bc 54 be 46 7c 2b 3c ee aa 00 be
       0.32676 -0.20774953 0.010466641 -0.12565205
000130 9f bd 83 be 81 c5 0c 3e 41 71 95 be 2e ce 21 be
       -0.25730607 0.13747217 -0.29187968 -0.15801308
000140 ce 00 b0 bd 1b 30 a9 be c8 3d 48 be 54 7d 05 be
       -0.085939035 -0.33044514 -0.19554818 -0.1303609
000150 8a 10 0d 3e b0 00 1c 3c 94 5a 1f be 24 26 35 be
       0.1377584 0.009521648 -0.15561897 -0.1769033
000160 2e a5 dc bc 20 20 78 be 7d 23 56 3e 81 02 83 be
       -0.026934233 -0.24231005 0.20911975 -0.25587848
000170 a5 d2 33 3c 41 37 8c be 27 ed 20 3e 53 bd b1 bd
       0.010975515 -0.27385905 0.15715466 -0.08678689
000180 5a e2 da bc 3a fe 2e bc 16 80 0f be d3 9c 08 3d
       -0.026719261 -0.0106807295 -0.14013705 0.033352684
000190 9f 00 db bc 9d df 28 be 18 8a a0 bb 68 56 aa be
       -0.026733695 -0.16491552 -0.0048992746 -0.33269048
0001a0 fa 4e 4b 3e 93 9d 0b 3e ac 5e fd bd 06 ad bd 3c
       0.19854346 0.13634329 -0.12371573 0.023153793
0001b0 35 2f 45 3e 67 0d 36 be 68 2f 49 3e 13 06 20 be
       0.1925629 -0.1777855 0.1964699 -0.15627317
0001c0 23 f2 0a 3a b7 ae 8a be 1c 26 3c 3e f7 82 a8 3e
       0.00053003634 -0.27086422 0.18373913 0.32912418
0001d0 39 22 74 3d c5 7c 6e 3e 26 b0 54 be 22 f6 34 3e
       0.05960295 0.23289783 -0.2077032 0.17672017
0001e0 4d dc 3f 3d 58 86 b7 3d 75 73 95 be 76 9f 4a bd
       0.046840955 0.08961171 -0.2918965 -0.04946848
0001f0 f6 25 51 3d 93 53 14 be 56 f3 50 3d 93 a1 a5 be
       0.051061593 -0.14485006 0.051013313 -0.32349834
000200 41 b7 00 be e1 b1 4c 3e e0 75 8f 3c b3 7d aa be
       -0.12569906 0.1998973 0.017512262 -0.33299026
000210 9c 4c 29 3d 5e 9f a7 be 7c 1e 80 be 35 b6 6b 3e
       0.041332826 -0.32738775 -0.25023258 0.23018725
000220 f9 45 fd 3d 33 d7 3d be 97 a5 26 3e b1 dc d1 bc
       0.12366862 -0.18539123 0.16274105 -0.02561793
000230 76 d0 e2 3d 25 2d a5 bc 33 ad 9b 3e 56 9d 66 be
       0.11074917 -0.020163128 0.30405578 -0.22520956
000240 03 3f 06 bd 78 9f 8d 3c 87 ef 50 3e 7f 0c 83 3e
       -0.032774936 0.017287955 0.20403872 0.2559547
000250 da 90 86 3d a6 d0 30 3e af 97 ee 3d 20 15 a3 3e
       0.06570597 0.17267093 0.11650025 0.31852055
000260 88 78 a6 be c1 06 7e 3b a2 45 88 be 5d 01 28 be
       -0.32513833 0.003876135 -0.26615626 -0.1640677
000270 5e b1 8c 3e b5 e5 98 3e a7 22 aa be c4 09 ca 3d
       0.2747907 0.29862753 -0.33229563 0.09865144
000280 ef 8c c4 bd 07 ad 01 3e e9 19 5b be c8 18 a6 be
       -0.095971934 0.12663661 -0.21396603 -0.32440782
000290 5c 3a c3 bd 37 fa 9c 3e 01 23 a4 3e ed 5b 59 be
       -0.095326155 0.3065965 0.32057956 -0.21226473
0002a0 53 36 73 bc 77 5d b3 3d 57 7c 93 be a3 ae 54 be
       -0.014844495 0.087580614 -0.288058 -0.20769744
0002b0 37 ba 5b be 09 80 33 3d f4 94 6e 3e a5 98 92 3e
       -0.21457754 0.043823276 0.23299009 0.28632084
0002c0 03 4a 6e be 4d 99 53 bd 1d 9f 7e be 70 24 30 3e
       -0.2327042 -0.05165987 -0.24865384 0.172014
0002d0 91 b2 62 be f1 20 dc bc 3e f1 ac 3d 2a 58 08 be
       -0.2213843 -0.026871176 0.08444451 -0.13314882
0002e0 18 8e 16 be d8 df ae bd fb 87 87 3e fb 66 a5 3e
       -0.14702642 -0.085387886 0.26470932 0.3230513
0002f0 04 65 b4 3d a8 da 8a be 1f fc 8d 3d b2 e3 46 be
       0.0880833 -0.27119946 0.06932854 -0.19422796
000300 20 7a 6e 3e d6 b1 07 3e 38 60 89 be 45 a3 8e 3e
       0.23288774 0.13251433 -0.26831222 0.2785894
000310 3d f7 8c 3e 88 22 ca 3d 21 90 99 3c 35 f6 84 be
       0.27532378 0.098698676 0.018745484 -0.2596909
000320 c7 3d 01 be ba 76 82 be 4d c1 3c 3e 93 8c 6a 3d
       -0.12621222 -0.25481206 0.18433113 0.05726297
000330 aa 7b e5 bd 55 60 9f 3e a2 40 c0 bd 19 a9 7d bd
       -0.11205228 0.31128183 -0.09387328 -0.061928842
000340 3a dc 5f be ab 89 22 be 30 54 9a be 0a 8a 69 bd
       -0.21861354 -0.15872829 -0.30142355 -0.05701641
000350 30 87 fa 3d b7 a6 04 be 78 79 66 3e 4d 5a cf 3d
       0.12232816 -0.12954222 0.22507274 0.101246454
000360 4b a9 86 3e 90 cb 52 bc 5f 42 81 3e 6d 97 83 3e
       0.26301035 -0.012865916 0.2524595 0.25701466
000370 1d 13 26 bd d3 94 e8 bd 60 a4 2b be d6 3e 0d bd
       -0.04054557 -0.11356511 -0.16761923 -0.034483753
000380 12 41 a6 3e a0 81 22 be 25 64 f0 bd ee 7d a7 be
       0.3247152 -0.1586976 -0.11737851 -0.32713264
000390 6f 8c 9f 3e 3b d5 b8 bd 15 b7 96 be 09 4e 19 be
       0.3116183 -0.090250455 -0.29436556 -0.14971174
0003a0 f3 bf 06 be 2e c4 85 3e 3b ce 9a be bc 85 47 bc
       -0.1315916 0.26126236 -0.30235466 -0.012177881
0003b0 06 77 c3 3b 9c 9d 99 be 62 d7 2b be b0 4b 36 be
       0.0059651164 -0.3000306 -0.16781381 -0.1780231
0003c0 bd 17 f4 bd ee db 9c bd a7 91 f9 bd 7b 1d 82 3e
       -0.1191859 -0.07659136 -0.12185984 0.25413117
0003d0 16 ec b0 bd b0 14 9a bc e5 ea f0 3b cc 0c 46 3e
       -0.0863878 -0.018808693 0.0073522204 0.19340819
0003e0 39 ae 1c 3e cf f7 03 bb 63 72 99 3e cd 72 a4 bd
       0.15300836 -0.002013672 0.29970083 -0.08029709
0003f0 8c b4 0d 3e e1 98 d8 bd d4 2b a8 3e 35 67 30 be
       0.13838404 -0.10576034 0.32845938 -0.1722687

conv1.nn.2.bias f4 [7040]
000000 a5 1b 85 be f4 a2 ae 3e 83 4d 77 3e 87 92 ed bd
       -0.25997654 0.34108698 0.24150662 -0.116002135
000010 c9 e9 23 3e 80 a3 28 3e 74 dc 23 be ca 9d 24 be
       0.1600715 0.1646862 -0.16002065 -0.16075817
000020 a6 44 1a 3e 84 5f fa bc 2d ed 2f 3e 43 30 12 3d
       0.1506525 -0.030563124 0.17180319 0.035690557
000030 b0 84 d6 3d 87 6c c7 bd 3d 36 92 3d 81 47 31 be
       0.10474527 -0.09737497 0.071392514 -0.17312433
000040 66 57 00 bd a3 d3 97 bd c0 6b 42 3c c0 a2 0d 3e
       -0.03133335 -0.074134134 0.01186651 0.13831615
000050 a9 33 c9 bc 15 b7 7a be d3 9f 5f 3d 71 2a 2f be
       -0.024560766 -0.24483903 0.05459578 -0.17106034
000060 e6 b7 af be 03 69 7f be 6e eb 91 3e 74 78 ec bd
       -0.3431999 -0.24942403 0.2849993 -0.11546412
000070 98 ab 6e 3e 5e f7 77 3e 1a d5 c8 3d 0c 4f 0f 3e
       0.23307645 0.24215457 0.09806271 0.13994998
000080 e8 05 e9 bc 2f e9 cc bd 62 24 f3 bd cf bc 38 3e
       -0.0284452 -0.10005414 -0.11872174 0.18040775
000090 71 79 ac 3d f1 67 45 be c4 0d b9 bd 43 af c7 3c
       0.084216006 -0.19277932 -0.09035829 0.024375563
0000a0 3d 24 10 be d2 36 ac bd 44 46 77 3e 7e 0f 77 3c
       -0.14076324 -0.08408894 0.24147898 0.015079377
0000b0 64 25 dc 3d 73 55 58 3c 42 8f cd 3d a2 4d cd 3d
       0.10749319 0.013203966 0.1003709 0.10024573
0000c0 48 99 32 be ba 3d b2 bd 0c d1 b0 be 49 88 a5 3e
       -0.17441285 -0.0870318 -0.3453449 0.3233054
0000d0 a2 c5 a0 bd 00 f5 02 bd da bb 9b be 59 ea 69 3e
       -0.078501955 -0.03197193 -0.30416757 0.22843303
0000e0 5b 65 83 be 33 3f 96 be 0a a1 a1 bd 0c 72 51 3e
       -0.25663266 -0.29345092 -0.07892044 0.20453662
0000f0 b9 d8 69 be b9 76 22 3e c7 29 79 bd 34 c5 72 3d
       -0.2283658 0.15865602 -0.060830858 0.0592701
000100 2f 5a ea 3c 33 09 8c 3e dc 27 a5 3e 34 ff a7 be
       0.028607456 0.27350768 0.32256973 -0.32811892
000110 d3 2f 2c 3d db 9c e4 bc d4 d9 36 3e f5 11 92 3e
       0.042037796 -0.027906826 0.17856532 0.28529325
000120 9b 7e 5d be 9c 82 93 be fd 9a a7 be 0d 75 7f 3e
       -0.21630327 -0.28810585 -0.32735434 0.24946995
000130 d9 36 94 bd 3f 0e d0 bd 28 9d 96 3d bf 47 94 bd
       -0.07237024 -0.10158967 0.07354194 -0.07240247
000140 31 c1 53 be dd 4a 19 bc ec bf 72 be 5b 49 ad be
       -0.20679165 -0.009356228 -0.23706025 -0.33845028
000150 ce e7 88 be 28 7e 89 3c 5e 04 50 bd 2d fe a3 be
       -0.26739353 0.016783789 -0.050785415 -0.32029858
000160 0e 21 34 3e 5c 3a 60 3d 22 ac fa 3d 72 40 04 3e
       0.17590734 0.054743156 0.12239863 0.12915209
000170 55 f3 11 3e b6 d6 38 be ee c2 24 bc 1d a9 54 bd
       0.1425298 -0.18050656 -0.0100562405 -0.05191909
000180 69 53 1f 3d 7c f6 47 be 36 68 5b 3d 05 19 5e 3e
       0.038897905 -0.1952762 0.05356618 0.21689232
000190 40 a9 15 be a4 ad 8f 3d dc bd a9 bc 0e 7a 77 bd
       -0.14615345 0.07015541 -0.020720415 -0.060419135
0001a0 a7 9c 45 3d ca 8e a9 3e b6 17 24 3e 6d 31 6f be
       0.0482451 0.33116752 0.1602467 -0.23358698
0001b0 b9 1a 3c be 29 5b 11 3e 6c 55 f6 3b c2 23 63 3d
       -0.18369569 0.14194931 0.0075175073 0.055454023
0001c0 56 f5 71 3d 6f 90 4e 3e c1 57 09 3d 41 2b d6 bc
       0.05907186 0.20172285 0.033530954 -0.026143672
0001d0 68 50 f3 bd a2 a0 85 3e a4 28 5a 3e b6 38 81 be
       -0.11880571 0.26099116 0.21304566 -0.2523858
0001e0 0b 59 03 be ca 55 78 be 32 fe ab 3e 2a 39 a1 3e
       -0.12826936 -0.24251476 0.33592373 0.31488925
0001f0 15 71 b2 be 60 3d 7c be a6 0e 40 3e a6 ae 71 3e
       -0.348519 -0.24632788 0.18755588 0.2360178
000200 8a df a6 3e de 5c 64 3e 7c 3e 39 3e fc 83 24 bd
       0.32592422 0.22301051 0.18090242 -0.040164933
000210 5d 6c a3 be e1 a5 70 3e e9 d6 0a be 75 1a 62 bd
       -0.31918612 0.23500778 -0.13558544 -0.055201013
000220 2f e2 1d 3e ae c8 9b 3e 74 87 cb 3d f2 4a a0 be
       0.15418313 0.30426544 0.09937945 -0.3130718
000230 19 d1 18 3c af 94 a7 3c a1 70 92 bd cc 6d 3a be
       0.0093271965 0.02045664 -0.071503885 -0.18205947
000240 ee c0 59 3e 46 78 67 be 9f 23 54 be 85 b6 fa 3c
       0.21265003 -0.22604474 -0.20716713 0.03060461
000250 39 c0 92 3e d5 09 9a bd 62 2d e5 3b b4 e9 77 3e
       0.2866228 -0.075214066 0.0069939354 0.24210244
000260 7b 9a 9d be 2c 09 4c 3e 1a 91 dd bd 49 a0 62 3d
       -0.30781922 0.19925374 -0.108186916 0.05532864
000270 81 e3 84 3e f6 e6 2c be 27 57 8c 3e 1d 01 30 be
       0.25954822 -0.1688498 0.27410242 -0.17187925
000280 a3 78 20 bd e2 de 99 3e 08 12 95 3e b2 0f 38 3e
       -0.03917755 0.3005286 0.2911532 0.17974737
000290 8f 12 81 be f6 8e 2f be 49 fb 34 3e 99 87 e3 3d
       -0.25209472 -0.17144379 0.17673983 0.111098476
0002a0 9d 97 5f 3e 04 ca 9a be 74 37 8b 3e 47 b7 12 be
       0.2183518 -0.3023225 0.27190745 -0.14327727
0002b0 f8 9b 0a 3e a5 0e a6 bd 50 ca cc 3d 9d bc 95 3e
       0.1353606 -0.08108262 0.099995255 0.29245463
0002c0 f8 77 1d 3e 20 0a 48 3e cc e7 6c 3e 09 dc d0 3d
       0.15377796 0.19535112 0.23135298 0.101982184
0002d0 72 aa 6c be 89 af 93 3d 18 40 2f bd 1c 7c a1 be
       -0.23111895 0.07211215 -0.042785734 -0.3154
0002e0 ad d2 67 be 2c 04 bc bc fc 36 e0 3b 9b d4 e0 bd
       -0.2263896 -0.022951208 0.006842492 -0.10978051
0002f0 ce af 88 be 1c 7b d8 bd 58 7b 86 3e 0e 5f a2 3d
       -0.26696628 -0.10570356 0.2626598 0.079282865
000300 51 9f 8e be a6 a0 85 3e f4 34 7a be 43 67 97 be
       -0.27855924 0.26099128 -0.24434263 -0.2957097
000310 92 a8 a4 be ab a7 6d 3e c2 dd c7 bd 86 a9 c2 3d
       -0.3215986 0.23208492 -0.09759094 0.0950499
000320 54 72 9d 3e 0c 8c 82 be b3 c7 6d be e6 45 ce 3d
       0.30751288 -0.25497472 -0.2322071 0.10071926
000330 11 a4 29 be 51 50 b1 3e 00 4c 62 3d 56 4c f7 bd
       -0.16566493 0.3463159 0.05524826 -0.12075107
000340 f2 a4 ad be 38 8a 77 be 03 3e 89 3c a8 34 92 be
       -0.33914906 -0.2417382 0.016753202 -0.285558
000350 02 45 11 be fc 9a f4 bd db a2 b0 bd d2 0c 9a be
       -0.1418648 -0.119436234 -0.08624812 -0.30087906
000360 08 11 3e 3e 4f cd 53 bd aa 07 30 3e cc 35 32 be
       0.18561184 -0.05170947 0.17190424 -0.17403334
000370 52 b1 d7 3d f9 6b f0 bd 6e 48 37 3e 2f 6f 9d 3e
       0.10531868 -0.11739344 0.17898723 0.3074889
000380 54 44 9f bd 6d 51 57 be f3 63 95 3e 80 a0 35 bd
       -0.077767044 -0.21027155 0.29177818 -0.044342518
000390 25 12 31 bb 69 7b a5 be 13 13 3c bd c5 2a a8 be
       -0.0027018872 -0.32320717 -0.045916628 -0.3284513
0003a0 76 ca 74 be 68 80 17 be 7d cc a5 3e ee dc a0 3e
       -0.23905358 -0.14795077 0.32382575 0.31418556
0003b0 50 76 7a be 8f 65 c2 bd 33 b1 a7 3e d4 d0 b6 3c
       -0.24459195 -0.09492027 0.3275238 0.022316374
0003c0 b3 e8 58 be eb 02 44 be 27 67 d9 3c f5 52 9b be
       -0.21182518 -0.19141738 0.026538445 -0.3033673
0003d0 c6 dc 5f be 64 7b 9a be 66 96 35 be 4f c4 9d 3e
       -0.21861562 -0.30172265 -0.17733154 0.30813834
0003e0 8d f9 78 3e 2e d0 1e be 9a e7 7a be 9a 94 e4 3d
       0.24313946 -0.15509102 -0.24502411 0.11161156
0003f0 2b 32 98 be 0e 4c 25 3e 16 93 75 bd 21 e4 9c be
       -0.29725775 0.16142294 -0.059954725 -0.306428

pool1.select.weight f4 [1, 32]
000000 df ba 9e 3d 67 5f 82 bd 59 63 90 bd 70 22 e2 3d
       0.077504866 -0.06365853 -0.07050199 0.11041725
000010 c9 6a 25 3e e1 e6 1e be d5 14 0f be 71 f5 02 bd
       0.16154017 -0.15517761 -0.1397279 -0.031972352
000020 38 b1 07 be 6a e2 7e bc f1 00 49 3d b8 6d af bd
       -0.13251197 -0.015556911 0.049073163 -0.08565849
000030 de a2 93 bd 45 9f 48 3d b2 c0 d3 3d 0b ea 12 be
       -0.07208799 0.048980016 0.10339488 -0.14347093
000040 21 d5 d1 3d 5b d5 e6 bd a7 b4 2e be 39 6b ef 3d
       0.10245729 -0.11271163 -0.17061101 0.11690373
000050 27 13 b5 bd fd 14 ad 3d 17 56 2e 3e 56 01 a6 3d
       -0.08841544 0.08451269 0.17025028 0.081057236
000060 cb c9 21 bc a1 34 b2 3d a7 c1 c5 bd d3 58 0d bc
       -0.009874771 0.087014444 -0.09656077 -0.008627134
000070 ee aa ec 3d e5 ed e6 bd 55 98 4b 3d 17 60 e5 3d
       0.1155604 -0.112758435 0.049705822 0.11199968
