Contrast/BrainGNN/save/model8.pth (torch, 403178 bytes, 30 tensors)

n1.0.weight f4 [8, 116]
-0.00039633058 0.0017008996 -0.0011200615 0.00652464 -0.005281758 0.022857713 0.03189234 0.004706214
0.086016335 0.072750315 0.003948552 0.002384664 -0.0016352488 0.046548292 0.121550165 0.041531242
0.022685327 0.0033773053 -0.0008173947 0.008360877 0.027973376 0.08575652 -0.00033608873 0.0061005163
0.08285731 -8.713422e-05 -0.0054499973 0.045905624 0.001041706 0.0037830637 0.007259285 -0.00014657989
-0.00027731183 0.027298972 -0.0017329751 0.067689694 -0.0002433353 -1.0670964e-07 -0.00089810375 -0.017267901
0.023619931 -0.0018924634 -0.0006494598 -0.0001512084 0.0006028925 -0.0003032926 -0.0007568959 0.029153248
-0.00076557166 0.0024935878 -0.0010600957 0.0022683793 -2.4523984e-05 -0.0034285395 -2.3361077e-05 0.03637476
0.0076311384 0.0010523786 -5.8162613e-09 0.0022186388 -0.00020788882 -0.0007624493 -0.00017071146 -0.0007683418
-0.0002537721 0.0009458067 0.0046150656 -5.197754e-07 0.0053662267 0.018113911 -0.0044629546 -0.000113290305
0.10127175 -0.0022843846 -0.0019293163 0.060718194 0.043055404 -0.004193477 0.0022694983 -0.0006293226
0.0040051253 -0.00069449696 0.020694867 -0.0037750094 -4.0468003e-05 0.0043527647 -0.01013916 -2.5814305e-08
-0.0016943852 0.021129861 -5.5877084e-08 0.015524307 -0.00090515596 0.030433018 -0.004824683 0.05838891
-0.0023002166 -0.00016826436 -2.2815091e-07 -0.00888287 0.0673676 -0.00033264564 -0.0026219175 0.048518818
-0.00072204473 -0.0027803422 -1.2813559e-05 0.06651217 -0.0019070014 -3.1414005e-05 0.013503814 -0.0035663787
0.081885196 -0.0054138494 -0.0073206928 0.035673168 -0.00013335467 -1.9940144e-05 -0.0028758573 -2.1523052e-08
-0.0038694965 -0.005612543 -6.600072e-08 0.006483098 0.023889529 0.009611926 -0.00063599966 0.01937729
0.009042616 0.0455754 0.106404155 -0.0022201445 -9.901133e-06 -8.761171e-05 -3.2014253e-07 0.0066945716
-0.00312124 -0.002560401 -0.001448186 -0.00023962604 -0.0025700391 -0.0023841355 -0.00011593946 0.1008786
0.0011226622 -0.00011921447 -0.00068346405 0.0004798382 -0.00035161123 0.059541643 0.013675035 0.109616525
-9.4062445e-05 -0.00050721987 -0.0013107873 -4.753119e-06 -0.0006672905 -0.0016204619 0.019286834 0.00083957985
-0.00018226849 -0.00062464864 -0.004826391 -0.0005294539 -5.9634857e-07 -5.963561e-07 -4.4874265e-05 -0.00011916553
0.0033773123 0.009586076 -1.9861363e-06 0.012897288 -0.00093878317 -4.588257e-08 -0.00051155436 -4.6594558e-08
-3.6050785e-08 -0.0011546625 -0.00065709185 -9.9817145e-05 -5.5929732e-08 -0.0011648545 -7.782144e-06 0.00078618084
0.0030881467 0.036103714 -0.0003215062 -4.8069953e-05 0.041398186 -0.0009499386 0.025925307 -1.1344667e-05
-0.0013589674 0.006696339 -0.0005176612 0.0015676344 0.00038441992 0.038832385 -0.00012834494 -0.0044115377
-0.00016043399 0.017001092 -0.00042064572 -0.00036603305 0.01196735 0.033764858 -0.00020387411 0.12022839
-0.0017818501 0.06837864 0.021019898 0.0543157 -0.006681205 -0.00074681 -0.0008275621 0.0021064566
0.011614007 0.008655797 0.11542863 -0.0015437623 0.105491765 -0.005672778 -0.004066518 -0.007348611
-0.000103559636 -4.9096748e-06 -0.00017162191 -0.0008369621 0.07622606 0.07643024 0.057175614 0.064972535
-0.0038691007 -7.304608e-07 0.04998511 0.002660247 -1.536268e-05 -0.004302726 -2.9144641e-05 0.043431092
-1.8665665e-05 0.0042860843 0.0034457287 0.0029971376 0.008216993 -0.00017941395 0.11686188 -0.0066745686
-0.0011430646 -0.00090520596 0.08256661 0.0038138938 -0.000836476 -0.0005986316 -0.0005169261 0.019307986
00000000: 97ca cfb9 b8f0 de3a 07cf 92ba a6cc d53b
00000010: 9912 adbb 1940 bb3c 8ba1 023d 9636 9a3b
00000020: 5529 b03d 1efe 943d db62 813b 0648 1c3b
00000030: d855 d6ba 6ca9 3e3d 4bef f83d aa1c 2a3d
00000040: 94d6 b93c c855 5d3b 6e46 56ba 0ffc 083c
00000050: 6c28 e53c 1da1 af3d 1135 b0b9 d7e6 c73b
00000060: 18b1 a93d d4bb b6b8 e495 b2bb 8907 3c3d
00000070: da89 883a 47ed 773b 4cdf ed3b 3db3 19b9
00000080: 2a64 91b9 18a2 df3c ff24 e3ba e5a0 8a3d
00000090: d227 7fb9 3f28 e5b3 b96e 6bba 6a75 8dbc
000000a0: 967e c13c 890c f8ba 8240 2aba b28d 1eb9
000000b0: 6e0b 1e3a 3e03 9fb9 6d6a 46ba cbd2 ee3c
000000c0: a5b0 48ba 766b 233b e9f2 8aba 17a9 143b
000000d0: dbb8 cdb7 59b1 60bb 88f7 c3b7 b3fd 143d
000000e0: a10e fa3b f7ef 893a 60d8 c7b1 9566 113b
000000f0: bbfc 59b9 1bdf 47ba 0201 33b9 8c6a 49ba
00000100: b70c 85b9 03f0 773a fa39 973b b286 0bb5
00000110: 2cd7 af3b a063 943c fa3d 92bb 4596 edb8
00000120: 9067 cf3d 9db5 15bb 1de1 fcba a4b3 783d
00000130: dd5a 303d 6f69 89bb ddbb 143b 20f9 24ba
00000140: 6d3d 833b e70e 36ba 4888 a93c 2666 77bb
00000150: 30bc 29b8 a3a1 8e3b b81e 26bc 42be ddb2
00000160: 2216 deba 8818 ad3c 81fd 6fb3 aa59 7e3c
00000170: fd47 6dba aa4e f93c 6018 9ebb 3629 6f3d
00000180: 3bbf 16bb 1f70 30b9 a5f9 74b4 7589 11bc
00000190: 06f8 893d f166 aeb9 7ad4 2bbb abbb 463d
000001a0: 9a47 3dba 6736 36bb d1f9 56b7 8837 883d
000001b0: 59f4 f9ba 88c2 03b8 1a3f 5d3c e8b9 69bb
000001c0: 6db3 a73d a966 b1bb 6ce2 efbb 071e 123d
000001d0: 1fd5 0bb9 2245 a7b7 e178 3cbb b1e1 b8b2
000001e0: 6197 7dbb 6ce9 b7bb 48bc 8db3 2b70 d43b
000001f0: f9b3 c33c 577b 1d3c 37b9 26ba 1fbd 9e3c
00000200: 7b27 143c 45ad 3a3d 6cea d93d d87f 11bb
00000210: 0b1d 26b7 2ebc b7b8 0ee0 abb4 235e db3b
00000220: b88d 4cbb 67cc 27bb 0fd1 bdba 2044 7bb9
00000230: 1a6e 28bb 283f 1cbb 8624 f3b8 7099 ce3d
00000240: 4b26 933a c802 fab8 7f2a 33ba cb92 fb39
00000250: 7658 b8b9 f0e1 733d 410d 603c a17e e03d
00000260: 6443 c5b8 f3f6 04ba b9ce abba fb7c 9fb6
00000270: 1bed 2eba ae65 d4ba 6cff 9d3c 4017 5c3a
00000280: 531f 3fb9 76bf 23ba b426 9ebb 0dcb 0aba
00000290: c314 20b5 4715 20b5 6037 3cb8 82e8 f9b8
000002a0: e655 5d3b eb0e 1d3c 9049 05b6 264f 533c
000002b0: ac18 76ba 6b10 45b3 d519 06ba 421f 48b3
000002c0: 42d6 1ab3 0b58 97ba b040 2cba ec54 d1b8
000002d0: 6437 70b3 08ae 98ba 0e90 02b7 b417 4e3a
000002e0: 8162 4a3b 7de1 133d d58f a8b9 b89e 49b8
000002f0: 2591 293d 4d05 79ba 4f61 d43c f954 3eb7
00000300: 611f b2ba f76c db3b a8b3 07ba 1579 cd3a
00000310: f88b c939 b50e 1f3d 5594 06b9 a98e 90bb
00000320: 2c3a 28b9 e045 8b3c 1d8a dcb9 20e8 bfb9
00000330: b412 443c 054d 0a3d 0ac7 55b9 4d3a f63d
00000340: f88c e9ba 1a0a 8c3d ec31 ac3c 247a 5e3d
00000350: 02ee dabb 92c5 43ba c1f0 58ba 7a0c 0a3b
00000360: ad48 3e3c 0bd1 0d3c d865 ec3d 1158 caba
00000370: 110c d83d b6e2 b9bb 6d40 85bb 9ecc f0bb
00000380: 282e d9b8 c9bd a4b6 68f5 33b9 9367 5bba
00000390: 691c 9c3d 7587 9c3d fa30 6a3d 5210 853d
000003a0: bd90 7dbb e214 44b5 30bd 4c3d 8a57 2e3b
000003b0: 1bdf 80b7 e2fd 8cbb a47b f4b7 cde4 313d
000003c0: 3694 9cb7 4872 8c3b bcd1 613b a06b 443b
000003d0: 91a0 063c 1121 3cb9 4855 ef3d 57b6 dabb
000003e0: e2d2 95ba 584b 6dba af18 a93d 85f2 793b
000003f0: f446 5bba 7ded 1cba 5382 07ba c82b 9e3c

n1.2.weight f4 [7040, 8]
-0.005159161 0.010375088 -0.007054155 -0.040466134 0.0014346119 0.03269843 -0.002850994 0.037511382
-0.0055137803 -0.009443388 -0.004757217 0.016581755 0.028156288 0.0002483885 0.062265452 -0.03146042
0.0007886766 -0.00044961815 -0.05796236 -0.037480768 -0.002460319 -0.0098997075 -0.00080776215 -0.003216786
-0.00119381 0.010447047 -0.0052887346 0.0020408789 -0.053595014 -0.001579889 0.010910883 -0.0023956217
-0.005538814 0.013593527 0.0049174293 -0.012000909 0.009037664 -0.0076968423 -0.0043079285 -0.007578123
0.027948502 0.01812242 -0.020278715 -0.00043492284 -0.0009541915 -0.0013606019 0.048869025 0.00048956793
-0.021046001 -0.06151362 -0.046042565 -0.012771965 -0.008534326 -0.003107125 -0.0016667903 0.0042837355
0.0048507485 0.03007997 0.00084351667 0.04871203 -1.3287503e-06 0.0019083295 -0.0022651476 -0.0027583623
0.01907756 -0.043337535 0.0057385103 -0.0012006648 0.00090014853 0.041342013 -0.0020767997 0.0030794162
-0.042894058 0.00038167997 0.044046313 0.01160662 -0.052107483 0.050193116 0.05829033 0.03659785
-0.009691033 0.0013713825 0.021803252 0.013691682 -0.0040580067 0.0044653406 -0.0028439749 0.043683734
-0.03965985 -0.035265196 0.020755293 0.0008935841 -0.05883766 -0.045475632 -0.018679371 -0.06310264
0.00277413 0.051456872 0.022149976 -0.039094266 -0.016301593 -0.00403479 -0.009421341 0.014426318
-0.015257377 -0.061605703 0.0037459699 -0.02418813 -0.0016415847 -0.03392696 -0.004797193 0.008637458
0.022142015 0.051561996 0.016077962 0.009398283 -0.0022158478 -0.012069563 -0.003694872 -0.0147013
0.023061166 0.0296546 0.015222411 0.01177804 -0.0050061145 -0.022732027 0.011028805 -0.019619519
0.002489922 -0.014753078 -0.0054121707 -0.02208309 -0.0102110235 -0.0012262277 -0.012340215 -0.05823718
0.04945528 -0.056136575 0.009521749 0.06161322 -0.059630495 0.023856595 -0.02650418 -0.055778
-0.00083097117 7.913274e-05 0.028708773 0.012891994 -0.0015091834 0.02857141 -0.0027822887 -0.0053739417
0.0014091395 0.018488802 -0.026394451 0.0008568127 0.0026732052 -0.009449134 0.00498002 -0.0075987964
0.026864342 -0.05990615 0.002859209 0.0024259419 0.021413434 -0.02903682 0.0026846868 0.0037965965
-0.00022692238 -0.024223218 -0.00036920057 0.00090111204 0.007231681 0.03740133 0.022577588 -0.001569176
0.005702723 -0.014424502 -0.034741074 -0.008039337 0.008037836 0.012337062 -0.03566305 0.048991233
0.026376989 -0.014855286 -0.018025853 0.0002489456 0.0027449662 0.045517627 0.010345393 -0.014894845
-0.0017914076 0.004687534 -0.061727516 -0.009219885 -0.0064145206 0.003152004 0.04215926 0.02681482
-0.020722706 -0.059899416 0.00077536434 -0.003989589 0.011411328 0.0054080295 0.01702885 0.03328904
0.028956307 -0.0022934026 -0.03542902 0.00021570994 0.0041444367 0.00198996 -0.00010853968 0.008100722
-0.004246614 -0.0026415854 0.0034814945 0.018530386 0.0030180542 -0.031741492 0.0016405404 -0.0038910294
0.04654889 0.016378868 -0.014014335 -0.0014072785 -0.052082393 -0.01947281 0.01940939 -0.005570976
0.0055102548 -0.0027185946 -0.04445644 -0.015909273 0.003253094 0.0012334601 3.8728442e-07 -0.0036554777
0.022341564 0.0027802815 -0.0054335045 -0.015198267 0.05223354 0.0017644347 -0.0039025238 -0.02194913
0.0035641617 0.0024756007 -0.0048181894 0.016996125 -0.00027268252 -0.032977026 0.0010718084 -0.0627181
00000000: 2e0e a9bb 46fc 293c 8b26 e7bb d1bf 25bd
00000010: 9609 bc3a caee 053d bed7 3abb 89a5 193d
00000020: f1ac b4bb 71b8 1abc 6ee2 9bbb 76d6 873c
00000030: 04a8 e63c 243a 8239 0f0a 7f3d a4dc 00bd
00000040: 31bf 4e3a baba ebb9 f169 6dbd 6f85 19bd
00000050: 4e3d 21bb 6232 22bc 00c0 53ba b7d0 52bb
00000060: 9e79 9cba 172a 2b3c 1f4d adbb 44c0 053b
00000070: 7286 5bbd 4714 cfba 8fc3 323c ddff 1cbb
00000080: f07e b5bb 62b7 5e3c 6322 a13b 769f 44bc
00000090: b612 143c cb35 fcbb 8629 8dbb e751 f8bb
000000a0: 42f4 e43c 7875 943c 8c1f a6bc 5b06 e4b9
000000b0: b522 7aba 3956 b2ba e32a 483d 5956 003a
000000c0: aa68 acbc b5f5 7bbd 2197 3cbd 8141 51bc
000000d0: 8fd3 0bbc e8a0 4bbb 3478 daba 945e 8c3b
000000e0: 07f3 9e3b 456a f63c 721f 5d3a 4486 473d
000000f0: 8357 b2b5 ea20 fa3a df72 14bb a4c5 34bb
00000100: 8b48 9c3c b382 31bd 1d0a bc3b a05f 9dba
00000110: f2f7 6b3a 3e56 293d eb1a 08bb 08d0 493b
00000120: aeb1 2fbd 381c c839 e869 343d b129 3e3c
00000130: a86e 55bd 4c97 4d3d d7c1 6e3d a1e7 153d
00000140: 23c7 1ebc f6bf b33a bc9c b23c 1453 603c
00000150: 07f9 84bb fe51 923b fb61 3abb b7ed 323d
00000160: 5e72 22bd 3d72 10bd 0107 aa3c 6a3f 6a3a
00000170: c2ff 70bd a844 3abd 7b05 99bc f53b 81bd
00000180: 2ece 353b 71c4 523d de73 b53c 4f21 20bd
00000190: eb8a 85bc 4636 84bb f85b 1abc 5d5c 6c3c
000001a0: 14fa 79bc 4356 7cbd f27e 753b 2f26 c6bc
000001b0: 712a d7ba fff6 0abd c631 9dbb 2084 0d3c
000001c0: 2c63 b53c ac32 533d eeb5 833c 42fb 193c
000001d0: c237 11bb 6bbf 45bc aa25 72bb b9dd 70bc
000001e0: c5ea bc3c 34ee f23c 6b67 793c aef8 403c
000001f0: 550a a4bb 8438 babc 29b2 343c 1db9 a0bc
00000200: f62d 233b e5b6 71bc 9458 b1bb 99e7 b4bc
00000210: 234c 27bc 60b9 a0ba 9d2e 4abc 1c8a 6ebd
00000220: 9f91 4a3d 77ef 65bd 1c01 1c3c 255e 7c3d
00000230: 1b3f 74bd e86e c33c 4b1f d9bc 7977 64bd
00000240: 88d5 59ba 11f4 a538 a92e eb3c f138 533c
00000250: cbcf c5ba 970e ea3c 0f57 36bb e417 b0bb
00000260: e0b2 b83a d475 973c 2d39 d8bc ba9b 603a
00000270: f130 2f3b 8ad0 1abc 702f a33b 53ff f8bb
00000280: 9c12 dc3c 2760 75bd 9161 3b3b 8dfc 1e3b
00000290: 3a6b af3c a0de edbc 92f1 2f3b 52d0 783b
000002a0: 03f2 6db9 c56f c6bc 4391 c1b9 9b38 6c3a
000002b0: bdf7 ec3b 2332 193d a2f4 b83c cfac cdba
000002c0: e8dd ba3b bf54 6cbc a84c 0ebd 6cb7 03bc
000002d0: 21b1 033c 6321 4a3c 6b13 12bd 08ab 483d
000002e0: 8e14 d83c 9663 73bc f4aa 93bc ea84 8239
000002f0: e4e4 333b b170 3a3d b97f 293c 8209 74bc
00000300: aacd eaba e399 993b fed5 7cbd 000f 17bc
00000310: e630 d2bb da91 4e3b 30af 2c3d c1aa db3c
00000320: aac2 a9bc 1759 75bd d241 4b3a 19bb 82bb
00000330: 94f6 3a3c d735 b13b 1680 8b3c 175a 083d
00000340: c735 ed3c e94c 16bb 051e 11bd 3230 6239
00000350: 0ece 873b fd69 023b cc9f e3b8 e4b8 043c
00000360: 2e27 8bbb 731e 2dbb c929 643b 09cd 973c
00000370: 8cca 453b 5e03 02bd 6707 d73a a400 7fbb
00000380: 0daa 3e3d fa2c 863c 629c 65bc 6e74 b8ba
00000390: 5954 55bd 7185 9fbc 7100 9f3c bc8c b6bb
000003a0: 5e8f b43b 732a 32bb f517 36bd 2a54 82bc
000003b0: dc31 553b 0eac a13a f7eb cf34 bd90 6fbb
000003c0: a805 b73c 6235 363b 8a0b b2bb 2702 79bc
000003d0: d6f2 553d 9b44 e73a 7cc1 7fbb a9ce b3bc
000003e0: b694 693b b03d 223b e7e1 9dbb 753b 8b3c
000003f0: d4f6 8eb9 eb12 07bd ec7b 8c3a 5972 80bd

n1.2.bias f4 [7040]
0.11024266 -0.0944016 0.09316444 0.18596697 -0.08561788 0.02713267 0.14564177 0.010178801
-0.119631186 -0.12734562 -0.006611589 -0.12132541 0.03698005 0.12851404 -0.047801364 0.07732379
-0.07255727 0.1649357 0.14842351 0.02053388 -0.049708102 -0.06942736 0.10822207 0.14802329
-0.13241251 -0.06481716 -0.14614782 -0.14580674 -0.020828027 0.045934048 -0.12319202 -0.08443827
0.17667864 0.18489634 0.14825356 0.06610016 -0.009163664 0.060428597 0.06540602 0.08453901
0.14514439 -0.033903442 0.09932357 -0.09065404 0.030048247 -0.03315382 0.12606947 0.08674315
-0.088269636 0.10185016 -0.008326492 -0.16947286 0.12727028 -0.09909852 0.011544757 0.18955474
0.11861179 0.056476984 -0.15690401 0.06281385 -0.056318104 -0.117419556 0.09397638 0.019488756
-0.034169666 -0.044163022 0.10649411 0.00065653445 -0.09395973 0.111530356 0.017259246 0.037196506
0.014070094 0.0037623902 -0.017347883 0.086202025 0.007118189 0.029938694 0.047598645 -0.06589673
0.14029422 -0.08531536 -0.07504524 0.011154599 0.15960257 0.049668144 -0.040657803 0.18638712
-0.088371724 -0.11613266 -0.09285935 0.07951737 0.108606055 -0.02922809 0.057224624 0.16513298
0.08015456 -0.1661052 -0.15044402 -0.108602256 0.045530733 0.061548818 0.028169345 -0.007011484
-0.14900464 0.072471075 0.17243463 -0.03541044 0.047707904 0.07293317 0.004498441 0.12863998
-0.0024843917 -0.07610226 0.012969084 -0.09907953 -0.04012319 0.10355221 0.0071070916 -0.08193984
0.039221127 0.06897575 0.18868317 0.027445896 0.19686995 -0.053751215 0.076758295 -0.1244732
-0.10613681 0.06124353 0.14006679 0.04598913 -0.19010311 -0.012754399 0.03939266 -0.042447582
0.044289194 0.015188601 -0.09582991 -0.0130715445 -0.036244527 0.17514062 -0.05293871 0.041655272
0.03595523 -0.04678795 0.045691706 -0.16613756 0.14815146 0.07519359 -0.044091437 0.05971964
0.16355711 0.05124843 0.13453166 -0.16528079 0.07344505 -0.1376985 0.11365946 0.091875866
0.04838654 -0.12338601 -0.1995471 -0.15896861 -0.04503594 -0.027744953 -0.12722233 -0.06039004
-0.1455293 0.11866604 0.011069469 0.0891061 -0.086353034 -0.08543449 0.0738798 0.072569214
-0.045428768 0.12437611 -0.0532265 0.16541639 -0.10621096 0.19683838 0.04845496 0.06928848
0.19599336 0.16670726 0.10693551 -0.024645418 0.18342963 0.082700886 -0.041158944 0.032163475
-0.13430542 0.060090307 0.09633073 -0.008105281 -0.19568336 0.04258818 -0.10493317 -0.012550436
0.15425704 0.08864451 -0.11833774 -0.07320246 -0.07940497 0.0168538 -0.13951126 -0.032573286
0.1940973 -0.14545232 0.17346719 0.0022157326 -0.19368707 0.015076971 0.061400417 -0.108692095
-0.096774705 0.17591347 0.045382254 0.15095222 -0.052845437 0.057338405 -0.12065777 -0.1713795
-0.014612122 -0.08055715 0.18548758 0.061436594 0.008640664 0.035130274 -0.05247447 0.02411099
0.08916771 -0.119896576 0.15285768 -0.15346442 -0.032794073 -0.022243878 0.19860575 -0.032249223
7.93433e-05 -0.1577929 0.008146231 -0.13207385 -0.053295482 0.034575794 -0.11492422 -0.095824085
-0.16819479 -0.15709955 0.05074345 0.13872674 -0.0349538 -0.09810995 0.11669086 0.13417092
00000000: e7c6 e13d a055 c1bd ffcc be3d 206e 3e3e
00000010: 6d58 afbd 5545 de3c 1e23 153e fcc4 263c
00000020: 3201 f5bd e466 02be 07a6 d8bb 7579 f8bd
00000030: 6578 173d 2f99 033e 5dcb 43bd ef5b 9e3d
00000040: e898 94bd e7e4 283e 55fc 173e ab36 a83c
00000050: b99a 4bbd ef2f 8ebd 88a3 dd3d 6b93 173e
00000060: 2597 07be dcbe 84bd c6a7 15be 5d4e 15be
00000070: 8a9f aabc 5725 3c3d 194c fcbd f9ed acbd
00000080: 3feb 343e 7755 3d3e c8cf 173e 855f 873d
00000090: 3123 16bc fa83 773d 97f3 853d ca22 ad3d
000000a0: bba0 143e 56de 0abd 286a cb3d d3a8 b9bd
000000b0: be27 f63c 4dcc 07bd 5b18 013e 65a6 b13d
000000c0: b6c6 b4bd d196 d03d d76b 08bc 4b8a 2dbe
000000d0: 2453 023e 2af4 cabd 3826 3d3c a31a 423e
000000e0: bdea f23d 6954 673d 72ab 20be 8ca4 803d
000000f0: d0ad 66bd aa79 f0bd b076 c03d e2a6 9f3c
00000100: 7ef5 0bbd 49e4 34bd 9519 da3d 481b 2c3a
00000110: f56d c0bd 076a e43d 4363 8d3c 5d5b 183d
00000120: 4086 663c 6f92 763b 261d 8ebc b08a b03d
00000130: b23f e93b fe41 f53c ccf6 423d ddf4 86bd
00000140: 4aa9 0f3e d2b9 aebd 52b1 99bd c7c1 363c
00000150: db6e 233e d370 4b3d cc88 26bd 44dc 3e3e
00000160: 3cfc b4bd f6d6 edbd 0b2d bebd 01da a23d
00000170: da6c de3d bf6f efbc 5e64 6a3d 9f18 293e
00000180: 1328 a43d 7b17 2abe ff0d 1abe dc6a debd
00000190: 6f7e 3a3d 9d1a 7c3d 66c3 e63c 97c0 e5bb
000001a0: ac94 18be b76b 943d b492 303e 8a0a 11bd
000001b0: 5d69 433d fc5d 953d a867 933b 33ba 033e
000001c0: 2dd1 22bb 80db 9bbd 487c 543c 35ea cabd
000001d0: 3758 24bd 2e13 d43d 9be2 e83b 13d0 a7bd
000001e0: 55a6 203d 2843 8d3d 2936 413e 37d6 e03c
000001f0: 4798 493e 3c2a 5cbd 7433 9d3d ceeb febd
00000200: 415e d9bd 7fda 7a3d ab6d 0f3e 195f 3c3d
00000210: 64aa 42be d4f7 50bc 335a 213d 84dd 2dbd
00000220: 9668 353d 9cd9 783c 7942 c4bd 082a 56bc
00000230: 2475 14bd 1058 333e 43d6 58bd b89e 2a3d
00000240: cb45 133d b9a4 3fbd 3a27 3b3d f71f 2abe
00000250: 04b5 173e 19ff 993d 3999 34bd 959c 743d
00000260: 847b 273e e0e9 513d abc2 093e 5e3f 29be
00000270: 5c6a 963d d600 0dbe 4ac6 e83d 6a29 bc3d
00000280: f730 463d ceb1 fcbd 1356 4cbe abc8 22be
00000290: 9b77 38bd 6249 e3bc 9246 02be 8c5b 77bd
000002a0: a205 15be 2e07 f33d b85c 353c 427d b63d
000002b0: dcd9 b0bd 47f8 aebd 4b4e 973d 2b9f 943d
000002c0: 8413 3abd e7b8 fe3d 0804 5abd ea62 293e
000002d0: 2285 d9bd 0090 493e b578 463d 1ee7 8d3d
000002e0: 7cb2 483e 4fb5 2a3e 0101 db3d 30e5 c9bc
000002f0: fad4 3b3e 155f a93d 4896 28bd d9bd 033d
00000300: 5c87 09be 4121 763d 0c49 c53d 03cc 04bc
00000310: 3861 48be f270 2e3d 34e7 d6bd 58a0 4dbc
00000320: 8ff5 1d3e 418b b53d 0f5b f2bd 2ceb 95bd
00000330: 139f a2bd fb10 8a3c 0adc 0ebe 916b 05bd
00000340: 71c1 463e 74f1 14be 62a1 313e d335 113b
00000350: e755 46be 6605 773c 017f 7b3d f699 debd
00000360: d131 c6bd a922 343e bee2 393d 3893 1a3e
00000370: 7574 58bd addb 6a3d 6c1b f7bd 1c7e 2fbe
00000380: af67 6fbc 26fb a4bd 75f0 3d3e f0a4 7b3d
00000390: 9291 0d3c c3e4 0f3d 78ef 56bd 6984 c53c
000003a0: 8f9d b63d 568c f5bd b986 1c3e c725 1dbe
000003b0: 1453 06bd cb38 b6bc 4e5f 4b3e c317 04bd
000003c0: 1c65 a638 7694 21be c577 053c 5e3e 07be
000003d0: 5d4c 5abd 599f 0d3d 645d ebbd 6b3f c4bd
000003e0: 413b 2cbe b4de 20be 5dd8 4f3d 620e 0e3e
000003f0: b72b 0fbd dfed c8bd 9efb ee3d 1a64 093e

conv1.bias f4 [32]
-0.024251126 0.11082073 0.027724188 0.015564839 0.027689291 0.044317644 -0.03356037 0.08114915
0.04369753 0.009456333 -0.03652582 -0.061095137 0.06537887 -0.037835117 -0.065826856 -0.094602644
-0.06015752 -0.123753875 0.046461843 -0.03390502 0.06155529 0.054253437 0.0447859 -0.015499381
-0.052806735 -0.017422382 -0.032266054 0.023365796 0.008132995 0.061070856 0.020740094 0.055733398
00000000: 4caa c6bc fbf5 e23d d61d e33c ab03 7f3c
00000010: a7d4 e23c 6b86 353d 9976 09bd 8731 a63d
00000020: 2efc 323d bcee 1a3c 199c 15bd e53e 7abd
00000030: 5be5 853d fff8 1abd 3bd0 86bd 08bf c1bd
00000040: bb67 76bd ac72 fdbd c64e 3e3d fedf 0abd
00000050: 6621 7c3d da38 5e3d 6b71 373d 1ef1 7dbc
00000060: e04b 58bd 62b9 8ebc 6929 04bd a069 bf3c
00000070: 4140 053c 6f25 7a3d 21e7 a93c b448 643d

conv1.nn.0.weight f4 [8, 116]
-0.00039633058 0.0017008996 -0.0011200615 0.00652464 -0.005281758 0.022857713 0.03189234 0.004706214
0.086016335 0.072750315 0.003948552 0.002384664 -0.0016352488 0.046548292 0.121550165 0.041531242
0.022685327 0.0033773053 -0.0008173947 0.008360877 0.027973376 0.08575652 -0.00033608873 0.0061005163
0.08285731 -8.713422e-05 -0.0054499973 0.045905624 0.001041706 0.0037830637 0.007259285 -0.00014657989
-0.00027731183 0.027298972 -0.0017329751 0.067689694 -0.0002433353 -1.0670964e-07 -0.00089810375 -0.017267901
0.023619931 -0.0018924634 -0.0006494598 -0.0001512084 0.0006028925 -0.0003032926 -0.0007568959 0.029153248
-0.00076557166 0.0024935878 -0.0010600957 0.0022683793 -2.4523984e-05 -0.0034285395 -2.3361077e-05 0.03637476
0.0076311384 0.0010523786 -5.8162613e-09 0.0022186388 -0.00020788882 -0.0007624493 -0.00017071146 -0.0007683418
-0.0002537721 0.0009458067 0.0046150656 -5.197754e-07 0.0053662267 0.018113911 -0.0044629546 -0.000113290305
0.10127175 -0.0022843846 -0.0019293163 0.060718194 0.043055404 -0.004193477 0.0022694983 -0.0006293226
0.0040051253 -0.00069449696 0.020694867 -0.0037750094 -4.0468003e-05 0.0043527647 -0.01013916 -2.5814305e-08
-0.0016943852 0.021129861 -5.5877084e-08 0.015524307 -0.00090515596 0.030433018 -0.004824683 0.05838891
-0.0023002166 -0.00016826436 -2.2815091e-07 -0.00888287 0.0673676 -0.00033264564 -0.0026219175 0.048518818
-0.00072204473 -0.0027803422 -1.2813559e-05 0.06651217 -0.0019070014 -3.1414005e-05 0.013503814 -0.0035663787
0.081885196 -0.0054138494 -0.0073206928 0.035673168 -0.00013335467 -1.9940144e-05 -0.0028758573 -2.1523052e-08
-0.0038694965 -0.005612543 -6.600072e-08 0.006483098 0.023889529 0.009611926 -0.00063599966 0.01937729
0.009042616 0.0455754 0.106404155 -0.0022201445 -9.901133e-06 -8.761171e-05 -3.2014253e-07 0.0066945716
-0.00312124 -0.002560401 -0.001448186 -0.00023962604 -0.0025700391 -0.0023841355 -0.00011593946 0.1008786
0.0011226622 -0.00011921447 -0.00068346405 0.0004798382 -0.00035161123 0.059541643 0.013675035 0.109616525
-9.4062445e-05 -0.00050721987 -0.0013107873 -4.753119e-06 -0.0006672905 -0.0016204619 0.019286834 0.00083957985
-0.00018226849 -0.00062464864 -0.004826391 -0.0005294539 -5.9634857e-07 -5.963561e-07 -4.4874265e-05 -0.00011916553
0.0033773123 0.009586076 -1.9861363e-06 0.012897288 -0.00093878317 -4.588257e-08 -0.00051155436 -4.6594558e-08
-3.6050785e-08 -0.0011546625 -0.00065709185 -9.9817145e-05 -5.5929732e-08 -0.0011648545 -7.782144e-06 0.00078618084
0.0030881467 0.036103714 -0.0003215062 -4.8069953e-05 0.041398186 -0.0009499386 0.025925307 -1.1344667e-05
-0.0013589674 0.006696339 -0.0005176612 0.0015676344 0.00038441992 0.038832385 -0.00012834494 -0.0044115377
-0.00016043399 0.017001092 -0.00042064572 -0.00036603305 0.01196735 0.033764858 -0.00020387411 0.12022839
-0.0017818501 0.06837864 0.021019898 0.0543157 -0.006681205 -0.00074681 -0.0008275621 0.0021064566
0.011614007 0.008655797 0.11542863 -0.0015437623 0.105491765 -0.005672778 -0.004066518 -0.007348611
-0.000103559636 -4.9096748e-06 -0.00017162191 -0.0008369621 0.07622606 0.07643024 0.057175614 0.064972535
-0.0038691007 -7.304608e-07 0.04998511 0.002660247 -1.536268e-05 -0.004302726 -2.9144641e-05 0.043431092
-1.8665665e-05 0.0042860843 0.0034457287 0.0029971376 0.008216993 -0.00017941395 0.11686188 -0.0066745686
-0.0011430646 -0.00090520596 0.08256661 0.0038138938 -0.000836476 -0.0005986316 -0.0005169261 0.019307986
00000000: 97ca cfb9 b8f0 de3a 07cf 92ba a6cc d53b
00000010: 9912 adbb 1940 bb3c 8ba1 023d 9636 9a3b
00000020: 5529 b03d 1efe 943d db62 813b 0648 1c3b
00000030: d855 d6ba 6ca9 3e3d 4bef f83d aa1c 2a3d
00000040: 94d6 b93c c855 5d3b 6e46 56ba 0ffc 083c
00000050: 6c28 e53c 1da1 af3d 1135 b0b9 d7e6 c73b
00000060: 18b1 a93d d4bb b6b8 e495 b2bb 8907 3c3d
00000070: da89 883a 47ed 773b 4cdf ed3b 3db3 19b9
00000080: 2a64 91b9 18a2 df3c ff24 e3ba e5a0 8a3d
00000090: d227 7fb9 3f28 e5b3 b96e 6bba 6a75 8dbc
000000a0: 967e c13c 890c f8ba 8240 2aba b28d 1eb9
000000b0: 6e0b 1e3a 3e03 9fb9 6d6a 46ba cbd2 ee3c
000000c0: a5b0 48ba 766b 233b e9f2 8aba 17a9 143b
000000d0: dbb8 cdb7 59b1 60bb 88f7 c3b7 b3fd 143d
000000e0: a10e fa3b f7ef 893a 60d8 c7b1 9566 113b
000000f0: bbfc 59b9 1bdf 47ba 0201 33b9 8c6a 49ba
00000100: b70c 85b9 03f0 773a fa39 973b b286 0bb5
00000110: 2cd7 af3b a063 943c fa3d 92bb 4596 edb8
00000120: 9067 cf3d 9db5 15bb 1de1 fcba a4b3 783d
00000130: dd5a 303d 6f69 89bb ddbb 143b 20f9 24ba
00000140: 6d3d 833b e70e 36ba 4888 a93c 2666 77bb
00000150: 30bc 29b8 a3a1 8e3b b81e 26bc 42be ddb2
00000160: 2216 deba 8818 ad3c 81fd 6fb3 aa59 7e3c
00000170: fd47 6dba aa4e f93c 6018 9ebb 3629 6f3d
00000180: 3bbf 16bb 1f70 30b9 a5f9 74b4 7589 11bc
00000190: 06f8 893d f166 aeb9 7ad4 2bbb abbb 463d
000001a0: 9a47 3dba 6736 36bb d1f9 56b7 8837 883d
000001b0: 59f4 f9ba 88c2 03b8 1a3f 5d3c e8b9 69bb
000001c0: 6db3 a73d a966 b1bb 6ce2 efbb 071e 123d
000001d0: 1fd5 0bb9 2245 a7b7 e178 3cbb b1e1 b8b2
000001e0: 6197 7dbb 6ce9 b7bb 48bc 8db3 2b70 d43b
000001f0: f9b3 c33c 577b 1d3c 37b9 26ba 1fbd 9e3c
00000200: 7b27 143c 45ad 3a3d 6cea d93d d87f 11bb
00000210: 0b1d 26b7 2ebc b7b8 0ee0 abb4 235e db3b
00000220: b88d 4cbb 67cc 27bb 0fd1 bdba 2044 7bb9
00000230: 1a6e 28bb 283f 1cbb 8624 f3b8 7099 ce3d
00000240: 4b26 933a c802 fab8 7f2a 33ba cb92 fb39
00000250: 7658 b8b9 f0e1 733d 410d 603c a17e e03d
00000260: 6443 c5b8 f3f6 04ba b9ce abba fb7c 9fb6
00000270: 1bed 2eba ae65 d4ba 6cff 9d3c 4017 5c3a
00000280: 531f 3fb9 76bf 23ba b426 9ebb 0dcb 0aba
00000290: c314 20b5 4715 20b5 6037 3cb8 82e8 f9b8
000002a0: e655 5d3b eb0e 1d3c 9049 05b6 264f 533c
000002b0: ac18 76ba 6b10 45b3 d519 06ba 421f 48b3
000002c0: 42d6 1ab3 0b58 97ba b040 2cba ec54 d1b8
000002d0: 6437 70b3 08ae 98ba 0e90 02b7 b417 4e3a
000002e0: 8162 4a3b 7de1 133d d58f a8b9 b89e 49b8
000002f0: 2591 293d 4d05 79ba 4f61 d43c f954 3eb7
00000300: 611f b2ba f76c db3b a8b3 07ba 1579 cd3a
00000310: f88b c939 b50e 1f3d 5594 06b9 a98e 90bb
00000320: 2c3a 28b9 e045 8b3c 1d8a dcb9 20e8 bfb9
00000330: b412 443c 054d 0a3d 0ac7 55b9 4d3a f63d
00000340: f88c e9ba 1a0a 8c3d ec31 ac3c 247a 5e3d
00000350: 02ee dabb 92c5 43ba c1f0 58ba 7a0c 0a3b
00000360: ad48 3e3c 0bd1 0d3c d865 ec3d 1158 caba
00000370: 110c d83d b6e2 b9bb 6d40 85bb 9ecc f0bb
00000380: 282e d9b8 c9bd a4b6 68f5 33b9 9367 5bba
00000390: 691c 9c3d 7587 9c3d fa30 6a3d 5210 853d
000003a0: bd90 7dbb e214 44b5 30bd 4c3d 8a57 2e3b
000003b0: 1bdf 80b7 e2fd 8cbb a47b f4b7 cde4 313d
000003c0: 3694 9cb7 4872 8c3b bcd1 613b a06b 443b
000003d0: 91a0 063c 1121 3cb9 4855 ef3d 57b6 dabb
000003e0: e2d2 95ba 584b 6dba af18 a93d 85f2 793b
000003f0: f446 5bba 7ded 1cba 5382 07ba c82b 9e3c

conv1.nn.2.weight f4 [7040, 8]
-0.005159161 0.010375088 -0.007054155 -0.040466134 0.0014346119 0.03269843 -0.002850994 0.037511382
-0.0055137803 -0.009443388 -0.004757217 0.016581755 0.028156288 0.0002483885 0.062265452 -0.03146042
0.0007886766 -0.00044961815 -0.05796236 -0.037480768 -0.002460319 -0.0098997075 -0.00080776215 -0.003216786
-0.00119381 0.010447047 -0.0052887346 0.0020408789 -0.053595014 -0.001579889 0.010910883 -0.0023956217
-0.005538814 0.013593527 0.0049174293 -0.012000909 0.009037664 -0.0076968423 -0.0043079285 -0.007578123
0.027948502 0.01812242 -0.020278715 -0.00043492284 -0.0009541915 -0.0013606019 0.048869025 0.00048956793
-0.021046001 -0.06151362 -0.046042565 -0.012771965 -0.008534326 -0.003107125 -0.0016667903 0.0042837355
0.0048507485 0.03007997 0.00084351667 0.04871203 -1.3287503e-06 0.0019083295 -0.0022651476 -0.0027583623
0.01907756 -0.043337535 0.0057385103 -0.0012006648 0.00090014853 0.041342013 -0.0020767997 0.0030794162
-0.042894058 0.00038167997 0.044046313 0.01160662 -0.052107483 0.050193116 0.05829033 0.03659785
-0.009691033 0.0013713825 0.021803252 0.013691682 -0.0040580067 0.0044653406 -0.0028439749 0.043683734
-0.03965985 -0.035265196 0.020755293 0.0008935841 -0.05883766 -0.045475632 -0.018679371 -0.06310264
0.00277413 0.051456872 0.022149976 -0.039094266 -0.016301593 -0.00403479 -0.009421341 0.014426318
-0.015257377 -0.061605703 0.0037459699 -0.02418813 -0.0016415847 -0.03392696 -0.004797193 0.008637458
0.022142015 0.051561996 0.016077962 0.009398283 -0.0022158478 -0.012069563 -0.003694872 -0.0147013
0.023061166 0.0296546 0.015222411 0.01177804 -0.0050061145 -0.022732027 0.011028805 -0.019619519
0.002489922 -0.014753078 -0.0054121707 -0.02208309 -0.0102110235 -0.0012262277 -0.012340215 -0.05823718
0.04945528 -0.056136575 0.009521749 0.06161322 -0.059630495 0.023856595 -0.02650418 -0.055778
-0.00083097117 7.913274e-05 0.028708773 0.012891994 -0.0015091834 0.02857141 -0.0027822887 -0.0053739417
0.0014091395 0.018488802 -0.026394451 0.0008568127 0.0026732052 -0.009449134 0.00498002 -0.0075987964
0.026864342 -0.05990615 0.002859209 0.0024259419 0.021413434 -0.02903682 0.0026846868 0.0037965965
-0.00022692238 -0.024223218 -0.00036920057 0.00090111204 0.007231681 0.03740133 0.022577588 -0.001569176
0.005702723 -0.014424502 -0.034741074 -0.008039337 0.008037836 0.012337062 -0.03566305 0.048991233
0.026376989 -0.014855286 -0.018025853 0.0002489456 0.0027449662 0.045517627 0.010345393 -0.014894845
-0.0017914076 0.004687534 -0.061727516 -0.009219885 -0.0064145206 0.003152004 0.04215926 0.02681482
-0.020722706 -0.059899416 0.00077536434 -0.003989589 0.011411328 0.0054080295 0.01702885 0.03328904
0.028956307 -0.0022934026 -0.03542902 0.00021570994 0.0041444367 0.00198996 -0.00010853968 0.008100722
-0.004246614 -0.0026415854 0.0034814945 0.018530386 0.0030180542 -0.031741492 0.0016405404 -0.0038910294
0.04654889 0.016378868 -0.014014335 -0.0014072785 -0.052082393 -0.01947281 0.01940939 -0.005570976
0.0055102548 -0.0027185946 -0.04445644 -0.015909273 0.003253094 0.0012334601 3.8728442e-07 -0.0036554777
0.022341564 0.0027802815 -0.0054335045 -0.015198267 0.05223354 0.0017644347 -0.0039025238 -0.02194913
0.0035641617 0.0024756007 -0.0048181894 0.016996125 -0.00027268252 -0.032977026 0.0010718084 -0.0627181
00000000: 2e0e a9bb 46fc 293c 8b26 e7bb d1bf 25bd
00000010: 9609 bc3a caee 053d bed7 3abb 89a5 193d
00000020: f1ac b4bb 71b8 1abc 6ee2 9bbb 76d6 873c
00000030: 04a8 e63c 243a 8239 0f0a 7f3d a4dc 00bd
00000040: 31bf 4e3a baba ebb9 f169 6dbd 6f85 19bd
00000050: 4e3d 21bb 6232 22bc 00c0 53ba b7d0 52bb
00000060: 9e79 9cba 172a 2b3c 1f4d adbb 44c0 053b
00000070: 7286 5bbd 4714 cfba 8fc3 323c ddff 1cbb
00000080: f07e b5bb 62b7 5e3c 6322 a13b 769f 44bc
00000090: b612 143c cb35 fcbb 8629 8dbb e751 f8bb
000000a0: 42f4 e43c 7875 943c 8c1f a6bc 5b06 e4b9
000000b0: b522 7aba 3956 b2ba e32a 483d 5956 003a
000000c0: aa68 acbc b5f5 7bbd 2197 3cbd 8141 51bc
000000d0: 8fd3 0bbc e8a0 4bbb 3478 daba 945e 8c3b
000000e0: 07f3 9e3b 456a f63c 721f 5d3a 4486 473d
000000f0: 8357 b2b5 ea20 fa3a df72 14bb a4c5 34bb
00000100: 8b48 9c3c b382 31bd 1d0a bc3b a05f 9dba
00000110: f2f7 6b3a 3e56 293d eb1a 08bb 08d0 493b
00000120: aeb1 2fbd 381c c839 e869 343d b129 3e3c
00000130: a86e 55bd 4c97 4d3d d7c1 6e3d a1e7 153d
00000140: 23c7 1ebc f6bf b33a bc9c b23c 1453 603c
00000150: 07f9 84bb fe51 923b fb61 3abb b7ed 323d
00000160: 5e72 22bd 3d72 10bd 0107 aa3c 6a3f 6a3a
00000170: c2ff 70bd a844 3abd 7b05 99bc f53b 81bd
00000180: 2ece 353b 71c4 523d de73 b53c 4f21 20bd
00000190: eb8a 85bc 4636 84bb f85b 1abc 5d5c 6c3c
000001a0: 14fa 79bc 4356 7cbd f27e 753b 2f26 c6bc
000001b0: 712a d7ba fff6 0abd c631 9dbb 2084 0d3c
000001c0: 2c63 b53c ac32 533d eeb5 833c 42fb 193c
000001d0: c237 11bb 6bbf 45bc aa25 72bb b9dd 70bc
000001e0: c5ea bc3c 34ee f23c 6b67 793c aef8 403c
000001f0: 550a a4bb 8438 babc 29b2 343c 1db9 a0bc
00000200: f62d 233b e5b6 71bc 9458 b1bb 99e7 b4bc
00000210: 234c 27bc 60b9 a0ba 9d2e 4abc 1c8a 6ebd
00000220: 9f91 4a3d 77ef 65bd 1c01 1c3c 255e 7c3d
00000230: 1b3f 74bd e86e c33c 4b1f d9bc 7977 64bd
00000240: 88d5 59ba 11f4 a538 a92e eb3c f138 533c
00000250: cbcf c5ba 970e ea3c 0f57 36bb e417 b0bb
00000260: e0b2 b83a d475 973c 2d39 d8bc ba9b 603a
00000270: f130 2f3b 8ad0 1abc 702f a33b 53ff f8bb
00000280: 9c12 dc3c 2760 75bd 9161 3b3b 8dfc 1e3b
00000290: 3a6b af3c a0de edbc 92f1 2f3b 52d0 783b
000002a0: 03f2 6db9 c56f c6bc 4391 c1b9 9b38 6c3a
000002b0: bdf7 ec3b 2332 193d a2f4 b83c cfac cdba
000002c0: e8dd ba3b bf54 6cbc a84c 0ebd 6cb7 03bc
000002d0: 21b1 033c 6321 4a3c 6b13 12bd 08ab 483d
000002e0: 8e14 d83c 9663 73bc f4aa 93bc ea84 8239
000002f0: e4e4 333b b170 3a3d b97f 293c 8209 74bc
00000300: aacd eaba e399 993b fed5 7cbd 000f 17bc
00000310: e630 d2bb da91 4e3b 30af 2c3d c1aa db3c
00000320: aac2 a9bc 1759 75bd d241 4b3a 19bb 82bb
00000330: 94f6 3a3c d735 b13b 1680 8b3c 175a 083d
00000340: c735 ed3c e94c 16bb 051e 11bd 3230 6239
00000350: 0ece 873b fd69 023b cc9f e3b8 e4b8 043c
00000360: 2e27 8bbb 731e 2dbb c929 643b 09cd 973c
00000370: 8cca 453b 5e03 02bd 6707 d73a a400 7fbb
00000380: 0daa 3e3d fa2c 863c 629c 65bc 6e74 b8ba
00000390: 5954 55bd 7185 9fbc 7100 9f3c bc8c b6bb
000003a0: 5e8f b43b 732a 32bb f517 36bd 2a54 82bc
000003b0: dc31 553b 0eac a13a f7eb cf34 bd90 6fbb
000003c0: a805 b73c 6235 363b 8a0b b2bb 2702 79bc
000003d0: d6f2 553d 9b44 e73a 7cc1 7fbb a9ce b3bc
000003e0: b694 693b b03d 223b e7e1 9dbb 753b 8b3c
000003f0: d4f6 8eb9 eb12 07bd ec7b 8c3a 5972 80bd

conv1.nn.2.bias f4 [7040]
0.11024266 -0.0944016 0.09316444 0.18596697 -0.08561788 0.02713267 0.14564177 0.010178801
-0.119631186 -0.12734562 -0.006611589 -0.12132541 0.03698005 0.12851404 -0.047801364 0.07732379
-0.07255727 0.1649357 0.14842351 0.02053388 -0.049708102 -0.06942736 0.10822207 0.14802329
-0.13241251 -0.06481716 -0.14614782 -0.14580674 -0.020828027 0.045934048 -0.12319202 -0.08443827
0.17667864 0.18489634 0.14825356 0.06610016 -0.009163664 0.060428597 0.06540602 0.08453901
0.14514439 -0.033903442 0.09932357 -0.09065404 0.030048247 -0.03315382 0.12606947 0.08674315
-0.088269636 0.10185016 -0.008326492 -0.16947286 0.12727028 -0.09909852 0.011544757 0.18955474
0.11861179 0.056476984 -0.15690401 0.06281385 -0.056318104 -0.117419556 0.09397638 0.019488756
-0.034169666 -0.044163022 0.10649411 0.00065653445 -0.09395973 0.111530356 0.017259246 0.037196506
0.014070094 0.0037623902 -0.017347883 0.086202025 0.007118189 0.029938694 0.047598645 -0.06589673
0.14029422 -0.08531536 -0.07504524 0.011154599 0.15960257 0.049668144 -0.040657803 0.18638712
-0.088371724 -0.11613266 -0.09285935 0.07951737 0.108606055 -0.02922809 0.057224624 0.16513298
0.08015456 -0.1661052 -0.15044402 -0.108602256 0.045530733 0.061548818 0.028169345 -0.007011484
-0.14900464 0.072471075 0.17243463 -0.03541044 0.047707904 0.07293317 0.004498441 0.12863998
-0.0024843917 -0.07610226 0.012969084 -0.09907953 -0.04012319 0.10355221 0.0071070916 -0.08193984
0.039221127 0.06897575 0.18868317 0.027445896 0.19686995 -0.053751215 0.076758295 -0.1244732
-0.10613681 0.06124353 0.14006679 0.04598913 -0.19010311 -0.012754399 0.03939266 -0.042447582
0.044289194 0.015188601 -0.09582991 -0.0130715445 -0.036244527 0.17514062 -0.05293871 0.041655272
0.03595523 -0.04678795 0.045691706 -0.16613756 0.14815146 0.07519359 -0.044091437 0.05971964
0.16355711 0.05124843 0.13453166 -0.16528079 0.07344505 -0.1376985 0.11365946 0.091875866
0.04838654 -0.12338601 -0.1995471 -0.15896861 -0.04503594 -0.027744953 -0.12722233 -0.06039004
-0.1455293 0.11866604 0.011069469 0.0891061 -0.086353034 -0.08543449 0.0738798 0.072569214
-0.045428768 0.12437611 -0.0532265 0.16541639 -0.10621096 0.19683838 0.04845496 0.06928848
0.19599336 0.16670726 0.10693551 -0.024645418 0.18342963 0.082700886 -0.041158944 0.032163475
-0.13430542 0.060090307 0.09633073 -0.008105281 -0.19568336 0.04258818 -0.10493317 -0.012550436
0.15425704 0.08864451 -0.11833774 -0.07320246 -0.07940497 0.0168538 -0.13951126 -0.032573286
0.1940973 -0.14545232 0.17346719 0.0022157326 -0.19368707 0.015076971 0.061400417 -0.108692095
-0.096774705 0.17591347 0.045382254 0.15095222 -0.052845437 0.057338405 -0.12065777 -0.1713795
-0.014612122 -0.08055715 0.18548758 0.061436594 0.008640664 0.035130274 -0.05247447 0.02411099
0.08916771 -0.119896576 0.15285768 -0.15346442 -0.032794073 -0.022243878 0.19860575 -0.032249223
7.93433e-05 -0.1577929 0.008146231 -0.13207385 -0.053295482 0.034575794 -0.11492422 -0.095824085
-0.16819479 -0.15709955 0.05074345 0.13872674 -0.0349538 -0.09810995 0.11669086 0.13417092
00000000: e7c6 e13d a055 c1bd ffcc be3d 206e 3e3e
00000010: 6d58 afbd 5545 de3c 1e23 153e fcc4 263c
00000020: 3201 f5bd e466 02be 07a6 d8bb 7579 f8bd
00000030: 6578 173d 2f99 033e 5dcb 43bd ef5b 9e3d
00000040: e898 94bd e7e4 283e 55fc 173e ab36 a83c
00000050: b99a 4bbd ef2f 8ebd 88a3 dd3d 6b93 173e
00000060: 2597 07be dcbe 84bd c6a7 15be 5d4e 15be
00000070: 8a9f aabc 5725 3c3d 194c fcbd f9ed acbd
00000080: 3feb 343e 7755 3d3e c8cf 173e 855f 873d
00000090: 3123 16bc fa83 773d 97f3 853d ca22 ad3d
000000a0: bba0 143e 56de 0abd 286a cb3d d3a8 b9bd
000000b0: be27 f63c 4dcc 07bd 5b18 013e 65a6 b13d
000000c0: b6c6 b4bd d196 d03d d76b 08bc 4b8a 2dbe
000000d0: 2453 023e 2af4 cabd 3826 3d3c a31a 423e
000000e0: bdea f23d 6954 673d 72ab 20be 8ca4 803d
000000f0: d0ad 66bd aa79 f0bd b076 c03d e2a6 9f3c
00000100: 7ef5 0bbd 49e4 34bd 9519 da3d 481b 2c3a
00000110: f56d c0bd 076a e43d 4363 8d3c 5d5b 183d
00000120: 4086 663c 6f92 763b 261d 8ebc b08a b03d
00000130: b23f e93b fe41 f53c ccf6 423d ddf4 86bd
00000140: 4aa9 0f3e d2b9 aebd 52b1 99bd c7c1 363c
00000150: db6e 233e d370 4b3d cc88 26bd 44dc 3e3e
00000160: 3cfc b4bd f6d6 edbd 0b2d bebd 01da a23d
00000170: da6c de3d bf6f efbc 5e64 6a3d 9f18 293e
00000180: 1328 a43d 7b17 2abe ff0d 1abe dc6a debd
00000190: 6f7e 3a3d 9d1a 7c3d 66c3 e63c 97c0 e5bb
000001a0: ac94 18be b76b 943d b492 303e 8a0a 11bd
000001b0: 5d69 433d fc5d 953d a867 933b 33ba 033e
000001c0: 2dd1 22bb 80db 9bbd 487c 543c 35ea cabd
000001d0: 3758 24bd 2e13 d43d 9be2 e83b 13d0 a7bd
000001e0: 55a6 203d 2843 8d3d 2936 413e 37d6 e03c
000001f0: 4798 493e 3c2a 5cbd 7433 9d3d ceeb febd
00000200: 415e d9bd 7fda 7a3d ab6d 0f3e 195f 3c3d
00000210: 64aa 42be d4f7 50bc 335a 213d 84dd 2dbd
00000220: 9668 353d 9cd9 783c 7942 c4bd 082a 56bc
00000230: 2475 14bd 1058 333e 43d6 58bd b89e 2a3d
00000240: cb45 133d b9a4 3fbd 3a27 3b3d f71f 2abe
00000250: 04b5 173e 19ff 993d 3999 34bd 959c 743d
00000260: 847b 273e e0e9 513d abc2 093e 5e3f 29be
00000270: 5c6a 963d d600 0dbe 4ac6 e83d 6a29 bc3d
00000280: f730 463d ceb1 fcbd 1356 4cbe abc8 22be
00000290: 9b77 38bd 6249 e3bc 9246 02be 8c5b 77bd
000002a0: a205 15be 2e07 f33d b85c 353c 427d b63d
000002b0: dcd9 b0bd 47f8 aebd 4b4e 973d 2b9f 943d
000002c0: 8413 3abd e7b8 fe3d 0804 5abd ea62 293e
000002d0: 2285 d9bd 0090 493e b578 463d 1ee7 8d3d
000002e0: 7cb2 483e 4fb5 2a3e 0101 db3d 30e5 c9bc
000002f0: fad4 3b3e 155f a93d 4896 28bd d9bd 033d
00000300: 5c87 09be 4121 763d 0c49 c53d 03cc 04bc
00000310: 3861 48be f270 2e3d 34e7 d6bd 58a0 4dbc
00000320: 8ff5 1d3e 418b b53d 0f5b f2bd 2ceb 95bd
00000330: 139f a2bd fb10 8a3c 0adc 0ebe 916b 05bd
00000340: 71c1 463e 74f1 14be 62a1 313e d335 113b
00000350: e755 46be 6605 773c 017f 7b3d f699 debd
00000360: d131 c6bd a922 343e bee2 393d 3893 1a3e
00000370: 7574 58bd addb 6a3d 6c1b f7bd 1c7e 2fbe
00000380: af67 6fbc 26fb a4bd 75f0 3d3e f0a4 7b3d
00000390: 9291 0d3c c3e4 0f3d 78ef 56bd 6984 c53c
000003a0: 8f9d b63d 568c f5bd b986 1c3e c725 1dbe
000003b0: 1453 06bd cb38 b6bc 4e5f 4b3e c317 04bd
000003c0: 1c65 a638 7694 21be c577 053c 5e3e 07be
000003d0: 5d4c 5abd 599f 0d3d 645d ebbd 6b3f c4bd
000003e0: 413b 2cbe b4de 20be 5dd8 4f3d 620e 0e3e
000003f0: b72b 0fbd dfed c8bd 9efb ee3d 1a64 093e

pool1.select.weight f4 [1, 32]
-0.13106109 0.14140978 0.17696331 0.10307564 -0.12917654 0.05610991 -0.057268504 0.031028587
-0.0333937 -0.076965086 -0.12363012 -0.013553294 -0.098060966 -0.0795418 -0.13816826 -0.034977593
-0.1482567 -0.096381836 0.043243397 0.020266814 -0.13026264 -0.020166378 -0.05011265 -0.106145345
-0.16499302 -0.0188734 -0.1038533 -0.050280333 0.13748729 0.040331863 0.040568724 0.08402811
00000000: e134 06be bacd 103e df35 353e 5219 d33d
00000010: db46 04be 81d3 653d 6192 6abd aa2f fe3c
00000020: d5c7 08bd df9f 9dbd ca31 fdbd a30e 5ebc
00000030: 30d4 c8bd d0e6 a2bd fb7b 0dbe aa44 0fbd
00000040: 9bd0 17be d763 c5bd fd1f 313d 9706 a63c
00000050: 9263 05be f633 a5bc ec42 4dbd bb62 d9bd
00000060: eef3 28be 639c 9abc 0ab1 d4bd c0f2 4dbd
00000070: 78c9 0c3e 0633 253d 642b 263d ee16 ac3d

n2.0.weight f4 [8, 116]
-0.0005359262 8.775646e-10 -0.002878602 0.014379859 0.12170401 -0.0046471907 -6.104138e-05 0.00035481472
-0.0053949 -0.00021619725 -7.7903206e-10 0.0027641866 -0.003286088 0.034088645 -0.00016299103 -0.0019645474
-0.00034213616 -1.5349313e-05 -0.00013749363 -4.4381133e-05 0.0019223221 -0.0013892738 0.024268484 -2.010984e-05
0.07594933 -2.651421e-05 -0.0011566444 -0.0062758746 -6.0295522e-05 -4.1044386e-05 0.00469633 -8.2105566e-07
-1.0942655e-07 -0.00013561286 0.029765712 -0.0010960548 -3.0298286e-06 0.0032447572 -0.010244446 0.03481749
0.028539151 0.00031548552 -2.3561937e-05 2.3314764e-12 -2.1253161e-13 1.0319378e-12 -5.057083e-07 -7.698236e-06
-1.8393938e-10 -2.2212482e-10 0.00045216933 -2.2335584e-05 -3.3890658e-05 0.0022550276 0.045917258 0.0023538324
-0.0005912356 -3.9279565e-12 5.1742295e-12 1.0633186e-11 1.5706774e-12 6.1868588e-12 0.00010126689 4.1451585e-11
-7.3331727e-13 -1.877085e-12 -0.00017214677 0.00022700697 -5.5961063e-05 0.0008992945 -0.00037019994 0.008592236
0.008805406 -0.00028286406 0.012412323 0.013304718 -6.508397e-06 0.0013799474 -5.226848e-05 -1.995678e-12
-5.5685006e-05 -2.6610482e-07 -0.00022687894 -0.0005362322 0.017281227 0.00062457426 -0.00083056453 -6.1997e-05
-0.00029328497 -0.00033467196 -0.00010776734 -0.0010216776 0.04321962 -0.00042115347 -4.8549642e-05 0.019368332
0.02893474 0.024701407 -0.0003035353 -0.0005724643 -0.004822819 0.049216133 -0.00015350759 -3.6588564e-05
0.012632895 -0.0017507888 -6.5236185e-05 -0.0011689698 -0.0006562754 0.010464497 -8.966601e-05 -1.0512626e-05
-0.0016187484 0.02407156 0.043422557 -0.0005232343 0.02790075 -9.7788635e-12 0.019928101 0.0033608165
-0.0019340365 0.041827492 0.005635638 -5.4392716e-05 0.12582603 -0.0006677614 0.031082079 0.0018405912
-2.3836752e-05 0.012282266 0.00087698613 0.028725756 -5.705315e-06 -3.156565e-05 0.024054388 -2.2549106e-05
-2.1822489e-05 -0.0014220271 -0.0006361673 0.006645426 -0.0009417841 -0.00023722388 -0.0059134094 -0.0014402298
-6.453635e-05 -0.0002715847 0.038922172 -7.768968e-08 0.026747115 0.009663627 0.020154813 0.068253376
0.03496282 -1.1001585e-05 0.017228309 -0.0003249205 0.010178789 -1.1625413e-05 0.0010463794 -1.1030431e-14
2.024621e-12 -6.293748e-12 -0.00031253396 -4.99998e-05 1.4705401e-10 9.0231446e-13 0.00022374025 -2.9190078e-05
-0.0001071051 0.024875352 0.012061598 -0.0017727568 -0.00011935174 -2.5927234e-09 7.0038676e-11 -3.2956506e-12
-5.694264e-13 3.2817223e-12 -0.0005948898 -9.092245e-14 1.9439117e-11 -4.560325e-13 -0.0004939806 -2.9670437e-06
0.043907233 0.000585764 0.02997872 0.015637476 -0.0003690154 1.218901e-07 -0.0010092 -0.00065669307
0.020139292 0.0328132 -5.108342e-06 -2.3236788e-12 0.0015155126 5.5816847e-05 -0.00014564996 0.045953054
-0.00016621375 0.0041858084 0.050233945 0.039673023 0.029570235 -0.0004811085 0.026111357 0.042813458
-0.0010470957 -0.0021541035 -0.0006050829 0.016747395 0.013400283 0.046502903 0.021983972 0.018369488
0.12872174 -0.000589167 -1.7261713e-05 0.08214463 -0.00043373334 0.01777048 -0.0029869557 0.119037636
-0.00027612402 -0.0004809653 -5.5219425e-06 0.00528462 0.010318871 0.012790738 -5.3129406e-07 0.051442012
-0.0007004701 4.0639805e-10 0.0065214294 -0.0010929933 0.0068040104 0.036373843 -1.9246297e-06 9.9898425e-05
0.1028491 -0.00439953 0.0032408165 9.038358e-05 0.030908758 -0.0003475396 0.037037008 -0.0008269714
0.0062450995 -1.1735974e-06 0.012830952 0.016890347 -1.2927954e-05 -0.0008074808 0.0052856104 0.000657512
00000000: 667d 0cba 1e39 7130 eda6 3cbb 8099 6b3c
00000010: f43f f93d 7647 98bb 5703 80b8 6d06 ba39
00000020: b4c7 b0bb 02b3 62b9 8223 56b0 5b27 353b
00000030: 685b 57bb 89a0 0b3d 92e8 2ab9 a3bf 00bb
00000040: bd60 b3b9 66c2 80b7 2a2c 10b9 e125 3ab8
00000050: 6df6 fb3a 4b18 b6ba b3ce c63c 8db1 a8b7
00000060: 538b 9b3d d56a deb7 8c9a 97ba daa5 cdbb
00000070: d3e5 7cb8 1327 2cb8 ace3 993b 8466 5cb5
00000080: e2fd eab3 4d33 0eb9 39d7 f33c 7fa9 8fba
00000090: 0f54 4bb6 fea5 543b 52d8 27bc c99c 0e3d
000000a0: f0ca e93c c067 a539 e0a6 c5b7 2510 242c
000000b0: 114a 6faa 7a3b 912b 02c0 07b5 ac27 01b7
000000c0: 553e 4aaf 943a 74af 2411 ed39 4d5d bbb7
000000d0: d125 0eb8 16c9 133b bc13 3c3d c142 1a3b
000000e0: 26fd 1aba e333 8aac 510d b62c 9d0f 3b2d
000000f0: 9e0d dd2b 45ae d92c 3f5f d438 564e 362e
00000100: 1469 4eab 8f16 04ac 4c82 34b9 b808 6e39
00000110: bcb7 6ab8 a2be 6b3a 6517 c2b9 73c6 0c3c
00000120: 8d44 103c 5f4d 94b9 0e5d 4b3c 08fc 593c
00000130: b462 dab6 5adf b43a da3a 5bb8 f06e 0cac
00000140: 528f 69b8 2bdd 8eb4 5ae6 6db9 ef91 0cba
00000150: 5c91 8d3c 78ba 233a 3eba 59ba 6304 82b8
00000160: 0bc4 99b9 e976 afb9 2601 e2b8 d0e9 85ba
00000170: 0e07 313d 43ce dcb9 c8a1 4bb8 56aa 9e3c
00000180: 8c08 ed3c 9b5a ca3c d123 9fb9 6e11 16ba
00000190: bd08 9ebb db96 493d e1f6 20b9 ac76 19b8
000001a0: 34fa 4e3c b97a e5ba 69cf 88b8 1e38 99ba
000001b0: e609 2cba 4873 2b3c 130b bcb8 635f 30b7
000001c0: 2f2c d4ba b831 c53c dadb 313d a929 09ba
000001d0: 1d90 e43c 1608 2cad 4240 a33c 2541 5c3b
000001e0: 7f7f fdba 4e53 2b3d 28ab b83b bc23 64b8
000001f0: 8ad8 003e b50c 2fba d89f fe3c fe3f f13a
00000200: 09f5 c7b7 8f3b 493c 8be5 653a 4752 eb3c
00000210: 4870 bfb6 5c65 04b8 b50d c53c d627 bdb7
00000220: 700f b7b7 5063 baba 77c4 26ba e0c1 d93b
00000230: 10e2 76ba 4dbf 78b9 46c5 c1bb 18c6 bcba
00000240: b057 87b8 7b63 8eb9 db6c 1f3d 5ad6 a6b3
00000250: c41c db3c 3054 1e3c b51b a53c 6dc8 8b3d
00000260: 2d35 0f3d 7393 38b7 6222 8d3c 175a aab9
00000270: efc4 263c c50a 43b7 ab26 893a e2b4 46a8
00000280: 5478 0e2c 0b71 ddac 99db a3b9 e0b6 51b8
00000290: 06b0 212f 9cfa 7d2b d19b 6a39 37dd f4b7
000002a0: 9d9d e0b8 65c7 cb3c 029e 453c d95b e8ba
000002b0: 7a4c fab8 ac2b 32b1 4504 9a2e 2ae9 67ac
000002c0: 7f47 20ab 41ee 662c 61f2 1bba 39bd cca9
000002d0: 00fd aa2d 9b5c 00ab 7a7e 01ba 6c1d 47b6
000002e0: 12d8 333d f58d 193a ef95 f53c 2a1a 803c
000002f0: 6978 c1b9 e5e0 0234 2247 84ba ed25 2cba
00000300: 28fb a43c 2267 063d 5368 abb6 ad83 23ac
00000310: 2aa4 c63a e21c 6a38 9db9 18b9 4539 3c3d
00000320: aa49 2eb9 1b29 893b 1cc2 4d3d 2e80 223d
00000330: 473d f23c 4a3d fcb9 7ce7 d53c 2a5d 2f3d
00000340: b43e 89ba dc2b 0dbb 6d9e 1eba d531 893c
00000350: dc8c 5b3c d479 3e3d bb17 b43c 9c7b 963c
00000360: a2cf 033e 5472 1aba 3fcd 90b7 723b a83d
00000370: b466 e3b9 6693 913c cdc0 43bb 01ca f33d
00000380: bdc4 90b9 122a fcb9 2049 b9b6 9b2a ad3b
00000390: 7b10 293c 3e90 513c 409e 0eb5 dcb4 523d
000003a0: c19f 37ba 716b df2f b7b1 d53b c542 8fba
000003b0: 2df4 de3b bdfc 143d e328 01b6 8f80 d138
000003c0: 8da2 d23d ef29 90bb e163 543b 518c bd38
000003d0: 5d34 fd3c fa35 b6b9 1eb4 173d 1cc9 58ba
000003e0: b1a3 cc3b 8084 9db5 ea38 523c a05d 8a3c
000003f0: 24e5 58b7 1fad 53ba ea32 ad3b e25c 2c3a
