Contrast/BrainGNN/save/model7.pth (torch, 403178 bytes, 30 tensors)

n1.0.weight f4 [8, 116]
000000 d0 a4 bb 3c 38 0c 00 b9 62 5c 6d b6 57 14 80 3b
       0.022905737 -0.00012211583 -3.5369526e-06 0.0039086747
000010 b6 c2 34 3d 2d a1 da 3d 9f cc 83 3c 94 85 81 3c
       0.044131003 0.10675273 0.016088782 0.015810765
000020 54 b7 fd ba ce 99 09 ba d6 08 44 3c 3a d8 16 3c
       -0.0019357004 -0.0005249054 0.011964997 0.009206826
000030 c7 ec 09 3d 74 86 ec 3c 85 2a e3 bb f0 ed 8f 3c
       0.033673074 0.028872706 -0.006932559 0.017569512
000040 56 68 75 3b a7 c3 a5 b8 16 b6 85 3c 1d ac ac bb
       0.0037446222 -7.904256e-05 0.016322177 -0.005269541
000050 43 18 1f 3c e7 8d 33 3d 2a ff d4 b5 c2 70 4c bb
       0.009710374 0.0438365 -1.5869493e-06 -0.0031195139
000060 d1 2b a9 ba 95 b2 65 bb bd f8 fb 3c 09 c0 c9 3d
       -0.0012906735 -0.003504907 0.030758256 0.09851081
000070 73 8b 85 3d ef 19 b1 3b 53 cf 63 3c 8a 0a d7 b9
       0.065207385 0.005404703 0.01390441 -0.00041015848
000080 98 5f 83 3b 5d da 43 3c 00 c3 9a bb ef 6b 5b 3d
       0.0040091984 0.011953917 -0.004722953 0.05356973
000090 01 cd 3d ba 71 71 1d 3d af 0f e9 3c a9 1a 48 ba
       -0.0007240326 0.038438264 0.028449861 -0.0007633367
0000a0 40 8a 5b 3d 18 14 5c bb d1 75 01 3c 6b 0c 0c b9
       0.053598642 -0.0033581313 0.007901625 -0.00013356066
0000b0 e5 58 38 bb bb 10 f5 3c 38 03 95 3c 59 b4 9b ba
       -0.0028129157 0.029915204 0.018190011 -0.0011879309
0000c0 e1 52 05 bb 17 6a d2 ba c8 94 be bb 79 7a 6f bb
       -0.002034359 -0.0016053346 -0.005816076 -0.0036541505
0000d0 fe e3 c1 bb 1a 2c 84 3c 31 f6 bc bb f6 29 8c 3d
       -0.0059170714 0.01613431 -0.005766653 0.06843941
0000e0 36 d5 2a bc 6b a6 80 ba 0f a1 2a ba 8e 3e ea b9
       -0.01042681 -0.0009815221 -0.0006508985 -0.00044678565
0000f0 b0 9c 8b ba 92 24 94 3c 95 f5 8b bb f4 cf 2b bc
       -0.0010651555 0.018083844 -0.004271219 -0.010486592
000100 28 51 03 3d 71 cb e9 bb fb 04 eb b8 7b 6e 96 3c
       0.03205982 -0.007134848 -0.00011206601 0.018363228
000110 18 28 d4 ba 0b 74 ec 3c 3b a3 69 3d 9b dd 22 3d
       -0.0016186265 0.028863927 0.057040434 0.03976212
000120 bf 54 8c 3a 52 8d d2 3b 7d 06 c9 3a 83 69 e2 3c
       0.0010706409 0.006425538 0.0015337017 0.027638203
000130 4f 24 a9 3c 4b 18 db 3a 3d 62 73 3b b8 b9 16 bc
       0.020647196 0.0016715614 0.0037137412 -0.009199552
000140 b5 f4 e5 b7 a3 48 15 bb 40 b2 cd b8 a9 63 05 bb
       -2.7412878e-05 -0.002277889 -9.8083634e-05 -0.0020353592
000150 90 e4 ad 3c ad eb 38 ba 94 da 93 ba d9 57 0d 3d
       0.021227151 -0.00070541614 -0.0011280351 0.034507606
000160 0e 68 e5 b4 26 7d 1c 3c 7c 45 33 3b ae 95 95 b6
       -4.2730284e-07 0.009551322 0.0027354648 -4.457971e-06
000170 3b 16 08 3d 6f 70 d4 39 01 e0 1f 3b 87 06 ac b7
       0.033224326 0.0004051956 0.0024394991 -2.0507037e-05
000180 be 78 94 b7 32 0d 24 bb f5 d4 d1 ba a0 a3 3c b4
       -1.76992e-05 -0.002503228 -0.0016008901 -1.7568391e-07
000190 92 03 18 bb 2f 4f d3 b6 49 39 21 3c 75 9c 26 3d
       -0.0023195487 -6.297508e-06 0.009840318 0.040676553
0001a0 97 43 49 b6 9d d1 04 b9 ef 4d 62 b9 ec 43 82 3d
       -2.9990676e-06 -0.00012666588 -0.00021582072 0.06360611
0001b0 96 8b 28 3d 55 84 ca b9 19 e4 75 3c 9f 6b a2 3c
       0.041148745 -0.00038627037 0.015007996 0.019826708
0001c0 7c 93 d1 b8 a8 a4 a2 ba 82 05 be bb 81 ba 83 3c
       -9.993368e-05 -0.001240869 -0.0057989964 0.016080143
0001d0 c7 8b 8a ba e9 cb 15 bc da db 8a 3a 9b 2e c4 3c
       -0.0010570221 -0.009142854 0.0010594085 0.023948004
0001e0 cd e2 ec 3b 56 2d 2c 3d ad 04 a0 3c c9 87 9c 3c
       0.007229185 0.042035423 0.01953348 0.019107716
0001f0 72 54 83 ba fd 6d 31 ba 16 e5 b8 3a 2e 10 c7 3c
       -0.0010019674 -0.00067684037 0.0014106359 0.024299707
000200 b8 b2 37 3c c7 b4 ac bb fd 9e e0 ba bf d1 98 ba
       0.011212043 -0.005270574 -0.0017137226 -0.0011659189
000210 23 88 24 b7 6e 18 25 bb 20 54 a2 bb 7d fd 66 3d
       -9.8068585e-06 -0.0025191563 -0.004953876 0.05639409
000220 3d 56 0e b8 35 c6 45 3d bc 6f 1a ba 65 ff 8e ba
       -3.3935754e-05 0.048284728 -0.00058912835 -0.0010909854
000230 53 57 14 3d 2c c3 99 bb ed bb f5 b9 b3 67 27 3d
       0.03621609 -0.0046924558 -0.00046870057 0.04087038
000240 cf 47 92 bb 33 63 67 bc f2 98 10 b9 6a 94 84 3d
       -0.0044641267 -0.014122772 -0.00013789887 0.0647362
000250 26 1a 4c ba ee 8a d1 3c fe b4 50 3d f5 7c 49 b8
       -0.0007785879 0.025578942 0.050953858 -4.803851e-05
000260 34 26 31 bc c1 3d 81 bb a7 40 36 ba 32 f6 e6 3c
       -0.010812331 -0.003944129 -0.0006952383 0.028193567
000270 14 69 c4 3c d0 7f 3f bb 8b 0f c2 3c 78 f6 65 3b
       0.023975886 -0.002922047 0.023689052 0.0035089534
000280 57 28 26 ba 5b c1 0d 3d 92 fb 1f b8 04 7d ec b9
       -0.00063384086 0.034608226 -3.8142847e-05 -0.00045106572
000290 10 86 a2 bb 5e 41 e4 3c 17 b6 80 bc 36 32 14 bc
       -0.004959829 0.0278632 -0.015711827 -0.009045174
0002a0 f6 e8 ee 3c 07 03 a1 3c 37 e1 45 3c 6b fe a9 3c
       0.029163819 0.019654764 0.012077621 0.020751199
0002b0 14 d3 64 bb c3 88 1b 3d 7d 60 e3 bb af e5 03 bc
       -0.0034915851 0.037972223 -0.0069389925 -0.008050366
0002c0 5a 43 8c ba 6b ea 40 bc e9 d7 ff b9 20 c7 b3 bb
       -0.0010701225 -0.01177464 -0.00048798256 -0.005486384
0002d0 59 0d c9 3c dc 4f b8 3c 33 29 9e 3c 3d 53 7d 3d
       0.024542497 0.022499017 0.019306755 0.06184696
0002e0 25 9a 93 36 78 99 c7 b9 b9 99 cf bb e1 9a 90 3d
       4.398886e-06 -0.0003807058 -0.006335464 0.07060791
0002f0 10 a3 d7 b7 a9 44 e6 b5 c8 3f cb b4 43 7a 32 3c
       -2.570593e-05 -1.7156318e-06 -3.7858103e-07 0.010893407
000300 4b e5 5b 3d 65 07 e6 3c a5 15 f6 3b 62 9e 01 bc
       0.053685468 0.028079698 0.0075099044 -0.007911297
000310 3d 1a 09 3d 2f 41 bc b9 f4 e3 14 bc e6 f8 a0 3d
       0.03347229 -0.0003590672 -0.009087551 0.078599736
000320 6d af 29 ba 3d a4 3c bb e7 54 6e 3d 26 09 53 3d
       -0.0006472979 -0.0028784417 0.058186438 0.051522397
000330 40 a1 19 ba af db a7 3d 91 ed 13 3d e3 6f 6f 3c
       -0.0005860515 0.08196198 0.036115233 0.014614078
000340 76 42 83 b9 42 63 8c 3c 8a 26 e7 bb 89 95 14 3d
       -0.00025035784 0.017137174 -0.0070541548 0.03627542
000350 ff 33 c2 bb 48 de 40 3d 48 51 15 bb ef 65 79 3d
       -0.0059266086 0.047086984 -0.0022784043 0.060888227
000360 fa c9 2b b9 53 1f 0d 3d 44 ca 36 b8 7a e2 9e 3d
       -0.00016383073 0.0344537 -4.3580556e-05 0.07758041
000370 63 7e 23 bb b4 6e 82 3d 6e 5f 62 3d 64 74 f3 b8
       -0.0024947159 0.06368771 0.05526679 -0.000116088224
000380 36 6c 22 bc 9b 99 de ba cc 0f b7 3c cf e1 fc bb
       -0.009913495 -0.0016983034 0.0223464 -0.007717348
000390 8f fa 73 3d d9 45 d2 b5 8e 86 a0 3d 54 fd d5 bb
       0.059565123 -1.5666548e-06 0.07838164 -0.006530443
0003a0 34 0a 58 3d 18 31 83 3b 47 cf 14 3d 0d 59 a9 3c
       0.052744105 0.004003655 0.036330488 0.020672346
0003b0 52 e3 1b 3d 14 6d a8 ba 2b 5f 80 b9 45 8d 7b 3c
       0.038058586 -0.0012849891 -0.00024484968 0.0153535055
0003c0 21 81 15 3c 20 7e ab ba aa 1f 22 bb b0 e7 a8 3b
       0.009125025 -0.0013083853 -0.0024738112 0.0051545724
0003d0 36 02 80 b8 0e 41 9e 3d 44 a7 2d bb 71 8b 97 bb
       -6.1039274e-05 0.07727252 -0.0026497403 -0.004624777
0003e0 10 0f 0d b8 fa 0c 5a 3d 35 62 c5 b9 c1 ab 32 ba
       -3.3631048e-05 0.05323503 -0.00037647938 -0.00068157545
0003f0 8f 78 eb 3c ce fb 83 b9 73 82 a5 b9 4a 1a 7a 3b
       0.02874401 -0.00025173876 -0.00031568445 0.0038162642

n1.2.weight f4 [7040, 8]
000000 1b 1a 13 3c 33 5d 52 bc 28 a4 49 3b 76 2b 00 3b
       0.008978392 -0.012839603 0.003076801 0.0019557155
000010 e7 69 51 bd 10 b4 5b bc b0 8b 4c bd ba a2 09 bd
       -0.051126387 -0.013409629 -0.049937904 -0.033602454
000020 7a 21 bf 3c 91 ff a3 bc 22 20 55 bc 35 4f 36 bd
       0.023331393 -0.020019324 -0.013008149 -0.04450913
000030 3b 4e f1 3d ff ba 9a bb 99 c2 1d 3d 19 08 1b 3c
       0.117824994 -0.0047219987 0.03851566 0.00946238
000040 a6 7e bd bb ea df c9 bd d5 aa 80 3b e5 41 e2 bd
       -0.00578292 -0.09857161 0.0039266148 -0.11047725
000050 67 3b ac bd 7d df fe bd e5 ad f5 3b b4 79 b4 bc
       -0.084097676 -0.12444971 0.0074975365 -0.022030689
000060 61 6c aa 3d fd 58 b9 3b 8a b6 aa bc f7 62 d2 3d
       0.08321453 0.00565636 -0.020838995 0.10272782
000070 9b c0 36 3b be a7 25 39 3c 1e 0b bb 27 e2 a6 3d
       0.0027885798 0.00015798115 -0.0021227738 0.08148604
000080 f6 f4 23 3b 2d 86 11 bd 38 73 2c 3b 36 0a b2 bb
       0.0025017834 -0.03552835 0.0026313793 -0.005433346
000090 87 c9 08 3d d5 51 47 b8 90 82 fa 3d f3 9c f1 bc
       0.033395316 -4.752151e-05 0.12231934 -0.029493785
0000a0 25 31 13 b8 94 f4 aa 3d ba 50 13 bb 9a 3c 2b bd
       -3.50933e-05 0.08347431 -0.0022478537 -0.04180584
0000b0 a9 6f d4 bd 74 5a 30 3c 16 a7 d5 ba 01 b9 7d bd
       -0.1037286 0.010763753 -0.0016300406 -0.06194401
0000c0 69 0d ce bc 4c db 10 bb ad f1 d6 3c 7b d8 43 bc
       -0.025152879 -0.0022103367 0.026238287 -0.011953468
0000d0 dd e0 06 3b fa 9d de 3c bb e9 27 3d 53 d0 cb 3d
       0.0020580806 0.027174938 0.040994387 0.09951844
0000e0 20 c4 3a 3d f3 99 b7 3a 4a 15 bf bc 65 1a d5 b9
       0.045597196 0.0014007672 -0.023325581 -0.0004064619
0000f0 0c ad ec 3d c3 4a 4c 3d b6 33 f1 ba 6a f4 d6 3d
       0.115564436 0.049875986 -0.0018402252 0.10495837
000100 cd a7 78 3b 96 17 a0 3a de 49 11 bb df 9e 42 3c
       0.0037941814 0.001221406 -0.0022169272 0.011878698
000110 e3 25 fd bb ac a7 75 3d 3e 92 da bc 97 84 8e 3c
       -0.0077254637 0.059974357 -0.026681062 0.017397208
000120 32 45 4a 3d 4b 77 84 3b 48 7b 9e bb f8 fd 26 3b
       0.049382396 0.004042541 -0.0048364736 0.0025480967
000130 fc 1c bb ba af df 9e ba d3 11 f8 3d 0a 5e 83 3d
       -0.0014275606 -0.0012121106 0.12112775 0.06414421
000140 cc 93 83 bc 7e ad e5 3b b5 30 be bc e1 4c e0 3a
       -0.016061686 0.0070092073 -0.023216585 0.0017112755
000150 97 d7 e3 bb 2e 89 21 3c 95 21 ca 3c 24 39 89 3c
       -0.0069531905 0.009859366 0.024674216 0.01675088
000160 24 c2 ed bb 5c f8 c9 3d 8a c7 13 3b 21 57 62 3c
       -0.0072558094 0.09861824 0.0022549354 0.013814718
000170 75 f2 e8 3d 30 b7 a4 bb ae 41 b7 3b 8d 8e 9a bc
       0.1137437 -0.0050267205 0.0055925464 -0.018866802
000180 7f 86 54 ba 41 1c 59 ba a1 51 8d 3b a8 ec 2d 3c
       -0.00081071997 -0.0008282103 0.0043127094 0.010615505
000190 04 d5 c4 3d 43 7a 8c bc 26 1c 25 b9 b6 c7 b9 bc
       0.09610942 -0.017148143 -0.00015746112 -0.022678237
0001a0 a3 69 70 3b d1 1b ab 3b 7c fd 24 bd 38 00 12 bd
       0.0036684058 0.005221822 -0.040280804 -0.03564474
0001b0 81 92 cc 3d 58 bc fc 3c 5d 02 5a bb 52 1a f4 3d
       0.09988881 0.030851528 -0.0033265569 0.11919083
0001c0 4c 28 e5 3d 85 e7 a4 3d c7 d6 9c 3a b4 3d 99 3d
       0.11189327 0.08051971 0.0011965864 0.07482472
0001d0 70 09 a5 3d 58 b3 b9 bb ca 90 99 bc cc cf 64 bd
       0.08058441 -0.0056671314 -0.018745799 -0.055862233
0001e0 80 db c8 3d d1 b0 8d bd 5b 2b 7d bc 85 e7 63 3c
       0.09807491 -0.06918491 -0.015452231 0.013910179
0001f0 c6 d1 3c 3d c5 f5 98 bd 07 a4 d6 3b 4d be 0e be
       0.046098493 -0.07468752 0.0065503153 -0.13939781
000200 69 12 cd bd 06 d1 86 3b 2a d4 30 3d c4 aa e0 bd
       -0.10013277 0.004114273 0.043171085 -0.10970071
000210 56 d7 c6 3d b9 ac 9e 3a bf f3 5a 3c 1c 0d 95 3c
       0.09709041 0.0012105919 0.013363778 0.018194728
000220 e4 78 92 bc 98 fe 0d bd c1 22 de bc 30 cb 1d bd
       -0.01787991 -0.034666628 -0.027116181 -0.038523853
000230 ba 71 06 be 20 6b f6 3c af 00 f5 3a 09 9a fe bd
       -0.1312932 0.030080378 0.001869222 -0.124317236
000240 ad 23 8a bb 51 4c 26 bd 4f 5c 04 be a4 67 85 bc
       -0.0042156787 -0.040600125 -0.12925838 -0.016284771
000250 e9 34 f4 bb 18 c9 ce ba b0 fe 98 ba 1c 3e 4c bc
       -0.0074525964 -0.0015776483 -0.0011672582 -0.01246598
000260 4b db ca 3b 89 c7 3a bb 7e 03 90 bb 47 61 55 ba
       0.0061906925 -0.002850028 -0.0043949476 -0.00081398006
000270 be c1 cf b8 78 4e 0a bc 1e 07 92 bd bc 5c cb bd
       -9.9066165e-05 -0.00844156 -0.07130264 -0.09929797
000280 f9 89 f8 bd bc ac 3c ba 37 1c 98 3d 78 00 2a bd
       -0.12135691 -0.000719737 0.074272566 -0.041504353
000290 78 53 33 3d c8 d1 32 3a 04 33 c7 3d cc 47 a7 bd
       0.043780774 0.0006821421 0.09726527 -0.08167991
0002a0 19 f5 af ba d5 ec 02 3e 5b f8 ad ba 40 b2 84 3d
       -0.0013424485 0.12785657 -0.0013272868 0.06479311
0002b0 e9 90 b7 3a 3e 5c e6 3c 9e d0 40 3c 01 d3 9e bd
       0.0014004979 0.028120156 0.011768488 -0.077550896
0002c0 47 b5 44 3d 23 a0 99 3b 6e 6c f1 bd 81 d0 c4 3d
       0.048024442 0.0046882792 -0.117882594 0.096100815
0002d0 50 47 0c 3d fe 5c 06 be 1a 21 08 be 3d d2 61 3d
       0.034247696 -0.13121411 -0.13293877 0.05513214
0002e0 b7 65 6b bd 02 69 82 bd 53 9b 48 bb e9 ec ff 3c
       -0.05747005 -0.06367685 -0.0030610159 0.031240897
0002f0 fb 00 09 3c 7b 52 4f 3b 26 59 1a be 46 a3 f2 3d
       0.00836205 0.0031634856 -0.1507307 0.11847548
000300 18 b1 8a bb b3 16 81 bd ea 55 d4 bd 5e 37 de bd
       -0.004232537 -0.06303158 -0.10367949 -0.10850404
000310 d6 4a 4a bd 76 aa 97 3b 5c d5 c3 bb 51 cf 2f bc
       -0.049387775 0.004628475 -0.005976362 -0.01073058
000320 96 1d c3 3d 8c 54 1d b8 4d 72 35 3a 76 17 53 39
       0.095271274 -3.7510457e-05 0.0006921634 0.00020131268
000330 50 48 01 ba 39 d1 9d 3d 39 f2 ef bd 38 f5 c6 bb
       -0.0004931735 0.07705922 -0.11716122 -0.006071713
000340 8b 31 83 bb da e5 5b 3c 67 27 26 3d 95 f6 e9 3c
       -0.0040037087 0.0134215 0.04056492 0.028559962
000350 8d 80 bf bc e9 ae c4 3d 9a 46 e9 bd fe 34 3c 3c
       -0.023376727 0.09603674 -0.11390419 0.011487244
000360 b1 ba 40 b9 ab 7d 11 bb 4a 63 b4 ba 26 ef 0a bb
       -0.00018380095 -0.0022200148 -0.0013762501 -0.0021199672
000370 4c 2d 1a bb 64 7b b2 3c de cc 91 3b 3d 16 99 bb
       -0.0023525534 0.021787353 0.004449471 -0.0046718405
000380 41 c1 f1 3d 64 8b b6 3b e1 0d 03 3e bb 1f 9a 3d
       0.118044384 0.005570816 0.12798263 0.07525583
000390 56 fa 07 3c 1a dd d4 3a 21 a3 e8 3d ab 21 fb 39
       0.008299431 0.001624021 0.11359239 0.00047899535
0003a0 87 98 44 bd b4 a4 98 bb 78 c4 8e bd 74 d0 59 3b
       -0.047997024 -0.004658306 -0.06971067 0.003323582
0003b0 d4 c2 b8 3c f5 bd 14 bb 75 f3 cc bd de 46 4f bd
       0.022553839 -0.002269623 -0.10007373 -0.050604694
0003c0 86 ea 54 bd 80 70 88 bb 7e ce 22 3c 85 66 a8 3b
       -0.05198147 -0.0041638017 0.009936927 0.0051391744
0003d0 f2 c0 fc 3d 03 66 42 3c a0 72 24 3b e8 29 be 3d
       0.12341489 0.011865142 0.0025092736 0.09285337
0003e0 3a fa be 3d f1 7d ee b9 1f 66 29 3c c3 fd a9 bd
       0.09325071 -0.0004548873 0.010339289 -0.08300354
0003f0 db 23 91 3c 44 f8 07 3c 5e 74 4d 3d 34 56 0a ba
       0.017717293 0.008298937 0.050159805 -0.00052771275

n1.2.bias f4 [7040]
000000 4e 6c e1 bd 75 26 31 be 23 91 4b 3e cf 83 a3 bd
       -0.110069856 -0.17299826 0.19879584 -0.07984125
000010 d9 e3 13 be 10 0f 81 3d 05 48 6d be 59 81 51 be
       -0.14442386 0.06301701 -0.23172005 -0.20459498
000020 52 8d 5f 3e c5 8d 69 bc 6e e5 56 be 1c 22 b1 3c
       0.21831253 -0.014254992 -0.20985958 0.02162271
000030 2f ce 9d bd fc cc fe bc bd 93 43 3e d2 80 42 3e
       -0.07705342 -0.031103604 0.19099326 0.18994454
000040 d4 d0 80 3e fa f5 d1 3d 2a ae 61 3e bb 1c aa bd
       0.25159323 0.102519944 0.22039095 -0.08306261
000050 80 2f 8e 3d 8f 3d 29 be 9e 37 6d 3e 1b d3 25 be
       0.06942654 -0.16527389 0.23165748 -0.16193812
000060 c5 c2 77 3d 7b a2 d9 3d aa ae 4d 3e 83 97 67 bd
       0.06048848 0.10626694 0.2008616 -0.056540977
000070 1d b5 a8 3d 36 9e 84 bd 96 61 15 3e 2b 75 41 bd
       0.082376696 -0.06475489 0.14588007 -0.04723088
000080 1d 8b 07 be 43 73 f8 bd 03 d6 7a bd 4a 5b 1a be
       -0.13236661 -0.121313594 -0.061239254 -0.15073887
000090 d9 8d 0c be 93 6c 3f 3c 3c 6a 16 bd ed 96 24 be
       -0.13725986 0.011683601 -0.036722407 -0.16073199
0000a0 27 03 06 be 7f e4 9c bd 0b fe e1 3d 32 9a 98 bd
       -0.1308714 -0.0766077 0.11034783 -0.074512854
0000b0 25 40 4a 3e 80 fa 45 be 01 68 13 3e 98 da 21 3d
       0.19751032 -0.1933384 0.14395143 0.039515108
0000c0 90 58 84 3e a9 70 cb bd 79 a8 27 3e a6 99 5e be
       0.25848818 -0.099335976 0.16372861 -0.217383
0000d0 c9 0e e2 3d e2 9c 17 3e 1e bc 41 3e ad cc a0 3c
       0.11037976 0.1480594 0.18919417 0.019628847
0000e0 82 4b 90 bd 3e 30 26 be ce c3 2b 3e 1d c8 17 3d
       -0.07045652 -0.1622934 0.16773912 0.037056077
0000f0 5a 86 6e be 90 4b 6e bd 31 34 14 be 21 90 28 3e
       -0.23293439 -0.05817753 -0.14473034 0.16461231
000100 1c 05 43 3e 03 a6 33 3e ca d9 06 3e 92 74 b2 3d
       0.19044918 0.17543797 0.13169017 0.0871364
000110 7d ac e9 bd 03 2e 1d 3e 99 c7 71 3c a2 dc ea 3d
       -0.11409853 0.15349583 0.01475706 0.114678636
000120 ae b9 bb 3d 01 bc af bc 43 70 2b 3e 9a fe 49 be
       0.09166275 -0.021451952 0.16742043 -0.19726029
000130 6e cd 17 be dc 36 cd 3d 48 2d 53 be f7 58 64 3e
       -0.14824459 0.10020229 -0.20622742 0.22299562
000140 0b a7 f0 3d b9 9b 51 3e da 0f b9 bd a8 57 b7 bd
       0.11750611 0.2046956 -0.090362266 -0.08952266
000150 4e 1e 95 3d 85 7c 45 bd 94 2b f2 bd 8c 8a 7b 3e
       0.07281171 -0.048214454 -0.11824718 0.2456457
000160 34 bf 2c 3e 1d 9a e5 3d a3 db 12 be e0 45 7b 3d
       0.16869813 0.112110354 -0.14341597 0.061345935
000170 91 92 1d 3e bc a9 5d be 71 fe 3a be 6e 49 0d bd
       0.15387942 -0.2164678 -0.18261124 -0.034493856
000180 86 79 a4 bd 96 3a 8e bd a0 5a e0 3d fe 4c c8 bd
       -0.08030991 -0.06944768 0.10954785 -0.0978031
000190 8d f9 37 bc 49 a6 00 3e f3 c1 06 be a5 f9 9e bd
       -0.011228931 0.12563433 -0.13159923 -0.0776246
0001a0 f4 e4 5e 3e 94 57 83 be 77 80 58 be 9d 31 27 3e
       0.21767026 -0.25652754 -0.21142755 0.1632752
0001b0 c0 98 1b be 76 c4 02 bd a4 a4 9a 3c eb 2c 6c 3e
       -0.15194988 -0.03192564 0.018877335 0.2306401
0001c0 b1 7d b2 bc 05 9a 30 bd 9c c1 20 3e f2 d2 32 3e
       -0.02178845 -0.043115634 0.15698856 0.17463282
0001d0 70 b9 06 be 39 58 89 bd 05 bf 93 bd 0d 43 d8 3c
       -0.13156676 -0.0670628 -0.072141685 0.02639916
0001e0 7c c0 57 be d6 f6 0b bc 94 42 da bd 20 50 58 3d
       -0.2106952 -0.008542737 -0.1065723 0.05281079
0001f0 10 69 42 be 38 6a 1d 3e e3 30 7e 3e 12 9e 46 bd
       -0.1898539 0.1537255 0.24823336 -0.04849059
000200 65 5a 15 be 97 e8 11 be 28 5a 00 3c e1 46 10 3e
       -0.14585264 -0.14248882 0.007833995 0.14089538
000210 1b 5c 4d 3e 25 b8 b2 bd 83 fa 45 be 98 fc 27 3e
       0.20054667 -0.08726529 -0.19333844 0.1640495
000220 e1 59 2b 3d 76 63 20 3e 59 07 7c bd 66 15 21 be
       0.041833762 0.15662941 -0.061530445 -0.15730819
000230 d1 ae df 3d 35 3c 1b 3c 51 46 c0 3d 7d de 61 3e
       0.109220155 0.009474804 0.09388412 0.22057529
000240 37 a3 54 be 57 a5 4d bd d7 5c c5 bd cf f4 85 be
       -0.20765387 -0.05020651 -0.096368484 -0.26163337
000250 04 a2 c9 3d 9f 8e ca bd 6e 1d 48 3e 00 71 85 3e
       0.09845355 -0.09890484 0.19542477 0.26062775
000260 e3 3c 62 be 9f 05 36 3e 8e ed 0d be f3 bd a8 bd
       -0.22093539 0.17775582 -0.13860151 -0.08239355
000270 cf f6 00 3e 10 2f 61 3b 36 7f a8 3d be af 30 be
       0.1259415 0.0034360327 0.082273886 -0.1725454
000280 37 86 06 3e 87 f1 6e 3c 84 39 14 bc 89 b7 11 3d
       0.13137136 0.014583952 -0.009046916 0.035575423
000290 32 72 ae 3a 5a ec bb bd cb 0f d5 bd e7 4c 32 be
       0.0013309179 -0.0917594 -0.10403403 -0.17412148
0002a0 41 8f 25 3e b5 1b 46 be ab ca ea 3d 9e 79 85 3d
       0.16167928 -0.19346507 0.11464437 0.06517337
0002b0 ac 83 13 be cc ea 3b bc 95 ed 49 bd 59 5f 58 3e
       -0.14405698 -0.011469554 -0.04929884 0.21130122
0002c0 d2 7a 1e be 17 88 3c 3e 54 f0 06 be c6 29 4b 3e
       -0.1547654 0.18411289 -0.13177615 0.19840154
0002d0 4e 65 5f bd 36 28 3b 3e 5c 9c 71 be 17 a0 ff bc
       -0.05453997 0.18277058 -0.23594803 -0.031204266
0002e0 d4 e3 a6 bd de af f4 bc 95 f9 b4 bc 7c 98 3f be
       -0.081489235 -0.029869016 -0.022091666 -0.18710512
0002f0 ca 63 79 3d 81 cc 04 3e 5a 24 7e 3e f1 4a 10 be
       0.060886182 0.12968637 0.24818555 -0.14091088
000300 23 3b e6 bd 47 a4 0a be dd 2d 4b bc fb c3 03 3e
       -0.11241748 -0.1353923 -0.012401071 0.1286773
000310 d4 fe 29 be 81 4d 86 3d c2 3a 84 be 5c a3 43 be
       -0.16601115 0.065577514 -0.2582608 -0.19105285
000320 1f e5 be bd 3b e0 86 3e 3e 42 d6 bd 98 7c 4f be
       -0.09321045 0.2634295 -0.104618534 -0.20262372
000330 96 10 81 3d bb 78 39 be ad d7 0b 3e e2 b8 5b be
       0.06301992 -0.18112461 0.13656493 -0.21457246
000340 14 7d f7 3d 2a b5 97 bd 86 cd 45 be 44 d8 1a 3e
       0.12084404 -0.07407601 -0.19316682 0.15121561
000350 19 e0 93 3d e5 18 8e 3d ac 84 c8 3d 06 37 0d 3e
       0.072204776 0.06938342 0.0979093 0.13790521
000360 05 6b 6b bb 96 85 f1 3d e0 04 37 3c 3a 98 42 be
       -0.0035921943 0.117930576 0.011170596 -0.19003382
000370 d5 8f 51 3d 00 37 c3 bd 76 c8 0b 3e 34 eb 83 bd
       0.05116256 -0.09531975 0.13650689 -0.06441346
000380 0f a5 a7 bd b1 ac 27 3e 5a aa 0b bd 32 e0 0a bd
       -0.08185779 0.1637447 -0.034098007 -0.033905216
000390 ee d9 ab 3d 11 fb af 3d 4a ac 31 be 37 2e 30 be
       0.08391176 0.08592809 -0.1735088 -0.1720513
0003a0 72 4e cf bd 4a e6 76 3e b9 06 05 3d f2 e5 81 bd
       -0.10122384 0.24111286 0.032477114 -0.06342687
0003b0 3c 35 98 3d 52 42 a1 bd e6 4c 46 3d 0a 7d 09 3e
       0.07432029 -0.07873978 0.04841318 0.13426605
0003c0 2d 10 8b 3e 28 d7 0e 3e 54 16 a0 bd 6e b8 49 be
       0.2716078 0.13949263 -0.07816759 -0.1969926
0003d0 f4 e5 7f be f6 35 53 3e b2 98 4c bd bd b5 70 be
       -0.24990064 0.20626053 -0.04995031 -0.23506828
0003e0 ef 0f 46 be bc 8a de bd 97 a6 0a 3d 27 6b 41 3e
       -0.19342016 -0.10866305 0.03385028 0.18888532
0003f0 ae 3b 63 be 2c 9a 4b 3d d5 9a 73 be 47 23 1e 3e
       -0.22190735 0.049707577 -0.23789532 0.15443145

conv1.bias f4 [32]
000000 ab f4 64 3d 05 03 0a bc 11 70 85 3d b2 93 ce 3c
       0.055897396 -0.0084235715 0.065155156 0.025216911
000010 2d a7 4c 3b 41 92 72 3d 48 8b 24 3c 0b c6 07 bd
       0.0031227574 0.05922151 0.010042973 -0.033147853
000020 c5 1a 8b 3b 95 2c ea bc ce 7b 82 bd 2c d2 19 bc
       0.0042451345 -0.028585711 -0.0637127 -0.009388488
000030 76 1d b0 3a ea 64 f3 3c 6e c4 6f 3d fb 87 1a 3d
       0.0013436514 0.029711206 0.05853694 0.037727337
000040 a5 7d 3b 3d 85 ba 82 bd 41 c7 87 bc 73 ce fd 3c
       0.04577412 -0.06383232 -0.016574504 0.030982232
000050 7a f4 87 3c 98 fc d8 3c 68 2e 6d bd 2c 5d 06 3d
       0.016596068 0.026487634 -0.057905585 0.0328037
000060 1b 85 18 bb 53 64 d8 3c 53 65 e5 bc 06 d2 8b 3d
       -0.0023272696 0.026415026 -0.028002417 0.06827168
000070 a3 b1 62 bd af fa 3f bd 89 2d d6 3c 5b db 51 3d
       -0.05534519 -0.04686993 0.02614476 0.051234584

conv1.nn.0.weight f4 [8, 116]
000000 d0 a4 bb 3c 38 0c 00 b9 62 5c 6d b6 57 14 80 3b
       0.022905737 -0.00012211583 -3.5369526e-06 0.0039086747
000010 b6 c2 34 3d 2d a1 da 3d 9f cc 83 3c 94 85 81 3c
       0.044131003 0.10675273 0.016088782 0.015810765
000020 54 b7 fd ba ce 99 09 ba d6 08 44 3c 3a d8 16 3c
       -0.0019357004 -0.0005249054 0.011964997 0.009206826
000030 c7 ec 09 3d 74 86 ec 3c 85 2a e3 bb f0 ed 8f 3c
       0.033673074 0.028872706 -0.006932559 0.017569512
000040 56 68 75 3b a7 c3 a5 b8 16 b6 85 3c 1d ac ac bb
       0.0037446222 -7.904256e-05 0.016322177 -0.005269541
000050 43 18 1f 3c e7 8d 33 3d 2a ff d4 b5 c2 70 4c bb
       0.009710374 0.0438365 -1.5869493e-06 -0.0031195139
000060 d1 2b a9 ba 95 b2 65 bb bd f8 fb 3c 09 c0 c9 3d
       -0.0012906735 -0.003504907 0.030758256 0.09851081
000070 73 8b 85 3d ef 19 b1 3b 53 cf 63 3c 8a 0a d7 b9
       0.065207385 0.005404703 0.01390441 -0.00041015848
000080 98 5f 83 3b 5d da 43 3c 00 c3 9a bb ef 6b 5b 3d
       0.0040091984 0.011953917 -0.004722953 0.05356973
000090 01 cd 3d ba 71 71 1d 3d af 0f e9 3c a9 1a 48 ba
       -0.0007240326 0.038438264 0.028449861 -0.0007633367
0000a0 40 8a 5b 3d 18 14 5c bb d1 75 01 3c 6b 0c 0c b9
       0.053598642 -0.0033581313 0.007901625 -0.00013356066
0000b0 e5 58 38 bb bb 10 f5 3c 38 03 95 3c 59 b4 9b ba
       -0.0028129157 0.029915204 0.018190011 -0.0011879309
0000c0 e1 52 05 bb 17 6a d2 ba c8 94 be bb 79 7a 6f bb
       -0.002034359 -0.0016053346 -0.005816076 -0.0036541505
0000d0 fe e3 c1 bb 1a 2c 84 3c 31 f6 bc bb f6 29 8c 3d
       -0.0059170714 0.01613431 -0.005766653 0.06843941
0000e0 36 d5 2a bc 6b a6 80 ba 0f a1 2a ba 8e 3e ea b9
       -0.01042681 -0.0009815221 -0.0006508985 -0.00044678565
0000f0 b0 9c 8b ba 92 24 94 3c 95 f5 8b bb f4 cf 2b bc
       -0.0010651555 0.018083844 -0.004271219 -0.010486592
000100 28 51 03 3d 71 cb e9 bb fb 04 eb b8 7b 6e 96 3c
       0.03205982 -0.007134848 -0.00011206601 0.018363228
000110 18 28 d4 ba 0b 74 ec 3c 3b a3 69 3d 9b dd 22 3d
       -0.0016186265 0.028863927 0.057040434 0.03976212
000120 bf 54 8c 3a 52 8d d2 3b 7d 06 c9 3a 83 69 e2 3c
       0.0010706409 0.006425538 0.0015337017 0.027638203
000130 4f 24 a9 3c 4b 18 db 3a 3d 62 73 3b b8 b9 16 bc
       0.020647196 0.0016715614 0.0037137412 -0.009199552
000140 b5 f4 e5 b7 a3 48 15 bb 40 b2 cd b8 a9 63 05 bb
       -2.7412878e-05 -0.002277889 -9.8083634e-05 -0.0020353592
000150 90 e4 ad 3c ad eb 38 ba 94 da 93 ba d9 57 0d 3d
       0.021227151 -0.00070541614 -0.0011280351 0.034507606
000160 0e 68 e5 b4 26 7d 1c 3c 7c 45 33 3b ae 95 95 b6
       -4.2730284e-07 0.009551322 0.0027354648 -4.457971e-06
000170 3b 16 08 3d 6f 70 d4 39 01 e0 1f 3b 87 06 ac b7
       0.033224326 0.0004051956 0.0024394991 -2.0507037e-05
000180 be 78 94 b7 32 0d 24 bb f5 d4 d1 ba a0 a3 3c b4
       -1.76992e-05 -0.002503228 -0.0016008901 -1.7568391e-07
000190 92 03 18 bb 2f 4f d3 b6 49 39 21 3c 75 9c 26 3d
       -0.0023195487 -6.297508e-06 0.009840318 0.040676553
0001a0 97 43 49 b6 9d d1 04 b9 ef 4d 62 b9 ec 43 82 3d
       -2.9990676e-06 -0.00012666588 -0.00021582072 0.06360611
0001b0 96 8b 28 3d 55 84 ca b9 19 e4 75 3c 9f 6b a2 3c
       0.041148745 -0.00038627037 0.015007996 0.019826708
0001c0 7c 93 d1 b8 a8 a4 a2 ba 82 05 be bb 81 ba 83 3c
       -9.993368e-05 -0.001240869 -0.0057989964 0.016080143
0001d0 c7 8b 8a ba e9 cb 15 bc da db 8a 3a 9b 2e c4 3c
       -0.0010570221 -0.009142854 0.0010594085 0.023948004
0001e0 cd e2 ec 3b 56 2d 2c 3d ad 04 a0 3c c9 87 9c 3c
       0.007229185 0.042035423 0.01953348 0.019107716
0001f0 72 54 83 ba fd 6d 31 ba 16 e5 b8 3a 2e 10 c7 3c
       -0.0010019674 -0.00067684037 0.0014106359 0.024299707
000200 b8 b2 37 3c c7 b4 ac bb fd 9e e0 ba bf d1 98 ba
       0.011212043 -0.005270574 -0.0017137226 -0.0011659189
000210 23 88 24 b7 6e 18 25 bb 20 54 a2 bb 7d fd 66 3d
       -9.8068585e-06 -0.0025191563 -0.004953876 0.05639409
000220 3d 56 0e b8 35 c6 45 3d bc 6f 1a ba 65 ff 8e ba
       -3.3935754e-05 0.048284728 -0.00058912835 -0.0010909854
000230 53 57 14 3d 2c c3 99 bb ed bb f5 b9 b3 67 27 3d
       0.03621609 -0.0046924558 -0.00046870057 0.04087038
000240 cf 47 92 bb 33 63 67 bc f2 98 10 b9 6a 94 84 3d
       -0.0044641267 -0.014122772 -0.00013789887 0.0647362
000250 26 1a 4c ba ee 8a d1 3c fe b4 50 3d f5 7c 49 b8
       -0.0007785879 0.025578942 0.050953858 -4.803851e-05
000260 34 26 31 bc c1 3d 81 bb a7 40 36 ba 32 f6 e6 3c
       -0.010812331 -0.003944129 -0.0006952383 0.028193567
000270 14 69 c4 3c d0 7f 3f bb 8b 0f c2 3c 78 f6 65 3b
       0.023975886 -0.002922047 0.023689052 0.0035089534
000280 57 28 26 ba 5b c1 0d 3d 92 fb 1f b8 04 7d ec b9
       -0.00063384086 0.034608226 -3.8142847e-05 -0.00045106572
000290 10 86 a2 bb 5e 41 e4 3c 17 b6 80 bc 36 32 14 bc
       -0.004959829 0.0278632 -0.015711827 -0.009045174
0002a0 f6 e8 ee 3c 07 03 a1 3c 37 e1 45 3c 6b fe a9 3c
       0.029163819 0.019654764 0.012077621 0.020751199
0002b0 14 d3 64 bb c3 88 1b 3d 7d 60 e3 bb af e5 03 bc
       -0.0034915851 0.037972223 -0.0069389925 -0.008050366
0002c0 5a 43 8c ba 6b ea 40 bc e9 d7 ff b9 20 c7 b3 bb
       -0.0010701225 -0.01177464 -0.00048798256 -0.005486384
0002d0 59 0d c9 3c dc 4f b8 3c 33 29 9e 3c 3d 53 7d 3d
       0.024542497 0.022499017 0.019306755 0.06184696
0002e0 25 9a 93 36 78 99 c7 b9 b9 99 cf bb e1 9a 90 3d
       4.398886e-06 -0.0003807058 -0.006335464 0.07060791
0002f0 10 a3 d7 b7 a9 44 e6 b5 c8 3f cb b4 43 7a 32 3c
       -2.570593e-05 -1.7156318e-06 -3.7858103e-07 0.010893407
000300 4b e5 5b 3d 65 07 e6 3c a5 15 f6 3b 62 9e 01 bc
       0.053685468 0.028079698 0.0075099044 -0.007911297
000310 3d 1a 09 3d 2f 41 bc b9 f4 e3 14 bc e6 f8 a0 3d
       0.03347229 -0.0003590672 -0.009087551 0.078599736
000320 6d af 29 ba 3d a4 3c bb e7 54 6e 3d 26 09 53 3d
       -0.0006472979 -0.0028784417 0.058186438 0.051522397
000330 40 a1 19 ba af db a7 3d 91 ed 13 3d e3 6f 6f 3c
       -0.0005860515 0.08196198 0.036115233 0.014614078
000340 76 42 83 b9 42 63 8c 3c 8a 26 e7 bb 89 95 14 3d
       -0.00025035784 0.017137174 -0.0070541548 0.03627542
000350 ff 33 c2 bb 48 de 40 3d 48 51 15 bb ef 65 79 3d
       -0.0059266086 0.047086984 -0.0022784043 0.060888227
000360 fa c9 2b b9 53 1f 0d 3d 44 ca 36 b8 7a e2 9e 3d
       -0.00016383073 0.0344537 -4.3580556e-05 0.07758041
000370 63 7e 23 bb b4 6e 82 3d 6e 5f 62 3d 64 74 f3 b8
       -0.0024947159 0.06368771 0.05526679 -0.000116088224
000380 36 6c 22 bc 9b 99 de ba cc 0f b7 3c cf e1 fc bb
       -0.009913495 -0.0016983034 0.0223464 -0.007717348
000390 8f fa 73 3d d9 45 d2 b5 8e 86 a0 3d 54 fd d5 bb
       0.059565123 -1.5666548e-06 0.07838164 -0.006530443
0003a0 34 0a 58 3d 18 31 83 3b 47 cf 14 3d 0d 59 a9 3c
       0.052744105 0.004003655 0.036330488 0.020672346
0003b0 52 e3 1b 3d 14 6d a8 ba 2b 5f 80 b9 45 8d 7b 3c
       0.038058586 -0.0012849891 -0.00024484968 0.0153535055
0003c0 21 81 15 3c 20 7e ab ba aa 1f 22 bb b0 e7 a8 3b
       0.009125025 -0.0013083853 -0.0024738112 0.0051545724
0003d0 36 02 80 b8 0e 41 9e 3d 44 a7 2d bb 71 8b 97 bb
       -6.1039274e-05 0.07727252 -0.0026497403 -0.004624777
0003e0 10 0f 0d b8 fa 0c 5a 3d 35 62 c5 b9 c1 ab 32 ba
       -3.3631048e-05 0.05323503 -0.00037647938 -0.00068157545
0003f0 8f 78 eb 3c ce fb 83 b9 73 82 a5 b9 4a 1a 7a 3b
       0.02874401 -0.00025173876 -0.00031568445 0.0038162642

conv1.nn.2.weight f4 [7040, 8]
000000 1b 1a 13 3c 33 5d 52 bc 28 a4 49 3b 76 2b 00 3b
       0.008978392 -0.012839603 0.003076801 0.0019557155
000010 e7 69 51 bd 10 b4 5b bc b0 8b 4c bd ba a2 09 bd
       -0.051126387 -0.013409629 -0.049937904 -0.033602454
000020 7a 21 bf 3c 91 ff a3 bc 22 20 55 bc 35 4f 36 bd
       0.023331393 -0.020019324 -0.013008149 -0.04450913
000030 3b 4e f1 3d ff ba 9a bb 99 c2 1d 3d 19 08 1b 3c
       0.117824994 -0.0047219987 0.03851566 0.00946238
000040 a6 7e bd bb ea df c9 bd d5 aa 80 3b e5 41 e2 bd
       -0.00578292 -0.09857161 0.0039266148 -0.11047725
000050 67 3b ac bd 7d df fe bd e5 ad f5 3b b4 79 b4 bc
       -0.084097676 -0.12444971 0.0074975365 -0.022030689
000060 61 6c aa 3d fd 58 b9 3b 8a b6 aa bc f7 62 d2 3d
       0.08321453 0.00565636 -0.020838995 0.10272782
000070 9b c0 36 3b be a7 25 39 3c 1e 0b bb 27 e2 a6 3d
       0.0027885798 0.00015798115 -0.0021227738 0.08148604
000080 f6 f4 23 3b 2d 86 11 bd 38 73 2c 3b 36 0a b2 bb
       0.0025017834 -0.03552835 0.0026313793 -0.005433346
000090 87 c9 08 3d d5 51 47 b8 90 82 fa 3d f3 9c f1 bc
       0.033395316 -4.752151e-05 0.12231934 -0.029493785
0000a0 25 31 13 b8 94 f4 aa 3d ba 50 13 bb 9a 3c 2b bd
       -3.50933e-05 0.08347431 -0.0022478537 -0.04180584
0000b0 a9 6f d4 bd 74 5a 30 3c 16 a7 d5 ba 01 b9 7d bd
       -0.1037286 0.010763753 -0.0016300406 -0.06194401
0000c0 69 0d ce bc 4c db 10 bb ad f1 d6 3c 7b d8 43 bc
       -0.025152879 -0.0022103367 0.026238287 -0.011953468
0000d0 dd e0 06 3b fa 9d de 3c bb e9 27 3d 53 d0 cb 3d
       0.0020580806 0.027174938 0.040994387 0.09951844
0000e0 20 c4 3a 3d f3 99 b7 3a 4a 15 bf bc 65 1a d5 b9
       0.045597196 0.0014007672 -0.023325581 -0.0004064619
0000f0 0c ad ec 3d c3 4a 4c 3d b6 33 f1 ba 6a f4 d6 3d
       0.115564436 0.049875986 -0.0018402252 0.10495837
000100 cd a7 78 3b 96 17 a0 3a de 49 11 bb df 9e 42 3c
       0.0037941814 0.001221406 -0.0022169272 0.011878698
000110 e3 25 fd bb ac a7 75 3d 3e 92 da bc 97 84 8e 3c
       -0.0077254637 0.059974357 -0.026681062 0.017397208
000120 32 45 4a 3d 4b 77 84 3b 48 7b 9e bb f8 fd 26 3b
       0.049382396 0.004042541 -0.0048364736 0.0025480967
000130 fc 1c bb ba af df 9e ba d3 11 f8 3d 0a 5e 83 3d
       -0.0014275606 -0.0012121106 0.12112775 0.06414421
000140 cc 93 83 bc 7e ad e5 3b b5 30 be bc e1 4c e0 3a
       -0.016061686 0.0070092073 -0.023216585 0.0017112755
000150 97 d7 e3 bb 2e 89 21 3c 95 21 ca 3c 24 39 89 3c
       -0.0069531905 0.009859366 0.024674216 0.01675088
000160 24 c2 ed bb 5c f8 c9 3d 8a c7 13 3b 21 57 62 3c
       -0.0072558094 0.09861824 0.0022549354 0.013814718
000170 75 f2 e8 3d 30 b7 a4 bb ae 41 b7 3b 8d 8e 9a bc
       0.1137437 -0.0050267205 0.0055925464 -0.018866802
000180 7f 86 54 ba 41 1c 59 ba a1 51 8d 3b a8 ec 2d 3c
       -0.00081071997 -0.0008282103 0.0043127094 0.010615505
000190 04 d5 c4 3d 43 7a 8c bc 26 1c 25 b9 b6 c7 b9 bc
       0.09610942 -0.017148143 -0.00015746112 -0.022678237
0001a0 a3 69 70 3b d1 1b ab 3b 7c fd 24 bd 38 00 12 bd
       0.0036684058 0.005221822 -0.040280804 -0.03564474
0001b0 81 92 cc 3d 58 bc fc 3c 5d 02 5a bb 52 1a f4 3d
       0.09988881 0.030851528 -0.0033265569 0.11919083
0001c0 4c 28 e5 3d 85 e7 a4 3d c7 d6 9c 3a b4 3d 99 3d
       0.11189327 0.08051971 0.0011965864 0.07482472
0001d0 70 09 a5 3d 58 b3 b9 bb ca 90 99 bc cc cf 64 bd
       0.08058441 -0.0056671314 -0.018745799 -0.055862233
0001e0 80 db c8 3d d1 b0 8d bd 5b 2b 7d bc 85 e7 63 3c
       0.09807491 -0.06918491 -0.015452231 0.013910179
0001f0 c6 d1 3c 3d c5 f5 98 bd 07 a4 d6 3b 4d be 0e be
       0.046098493 -0.07468752 0.0065503153 -0.13939781
000200 69 12 cd bd 06 d1 86 3b 2a d4 30 3d c4 aa e0 bd
       -0.10013277 0.004114273 0.043171085 -0.10970071
000210 56 d7 c6 3d b9 ac 9e 3a bf f3 5a 3c 1c 0d 95 3c
       0.09709041 0.0012105919 0.013363778 0.018194728
000220 e4 78 92 bc 98 fe 0d bd c1 22 de bc 30 cb 1d bd
       -0.01787991 -0.034666628 -0.027116181 -0.038523853
000230 ba 71 06 be 20 6b f6 3c af 00 f5 3a 09 9a fe bd
       -0.1312932 0.030080378 0.001869222 -0.124317236
000240 ad 23 8a bb 51 4c 26 bd 4f 5c 04 be a4 67 85 bc
       -0.0042156787 -0.040600125 -0.12925838 -0.016284771
000250 e9 34 f4 bb 18 c9 ce ba b0 fe 98 ba 1c 3e 4c bc
       -0.0074525964 -0.0015776483 -0.0011672582 -0.01246598
000260 4b db ca 3b 89 c7 3a bb 7e 03 90 bb 47 61 55 ba
       0.0061906925 -0.002850028 -0.0043949476 -0.00081398006
000270 be c1 cf b8 78 4e 0a bc 1e 07 92 bd bc 5c cb bd
       -9.9066165e-05 -0.00844156 -0.07130264 -0.09929797
000280 f9 89 f8 bd bc ac 3c ba 37 1c 98 3d 78 00 2a bd
       -0.12135691 -0.000719737 0.074272566 -0.041504353
000290 78 53 33 3d c8 d1 32 3a 04 33 c7 3d cc 47 a7 bd
       0.043780774 0.0006821421 0.09726527 -0.08167991
0002a0 19 f5 af ba d5 ec 02 3e 5b f8 ad ba 40 b2 84 3d
       -0.0013424485 0.12785657 -0.0013272868 0.06479311
0002b0 e9 90 b7 3a 3e 5c e6 3c 9e d0 40 3c 01 d3 9e bd
       0.0014004979 0.028120156 0.011768488 -0.077550896
0002c0 47 b5 44 3d 23 a0 99 3b 6e 6c f1 bd 81 d0 c4 3d
       0.048024442 0.0046882792 -0.117882594 0.096100815
0002d0 50 47 0c 3d fe 5c 06 be 1a 21 08 be 3d d2 61 3d
       0.034247696 -0.13121411 -0.13293877 0.05513214
0002e0 b7 65 6b bd 02 69 82 bd 53 9b 48 bb e9 ec ff 3c
       -0.05747005 -0.06367685 -0.0030610159 0.031240897
0002f0 fb 00 09 3c 7b 52 4f 3b 26 59 1a be 46 a3 f2 3d
       0.00836205 0.0031634856 -0.1507307 0.11847548
000300 18 b1 8a bb b3 16 81 bd ea 55 d4 bd 5e 37 de bd
       -0.004232537 -0.06303158 -0.10367949 -0.10850404
000310 d6 4a 4a bd 76 aa 97 3b 5c d5 c3 bb 51 cf 2f bc
       -0.049387775 0.004628475 -0.005976362 -0.01073058
000320 96 1d c3 3d 8c 54 1d b8 4d 72 35 3a 76 17 53 39
       0.095271274 -3.7510457e-05 0.0006921634 0.00020131268
000330 50 48 01 ba 39 d1 9d 3d 39 f2 ef bd 38 f5 c6 bb
       -0.0004931735 0.07705922 -0.11716122 -0.006071713
000340 8b 31 83 bb da e5 5b 3c 67 27 26 3d 95 f6 e9 3c
       -0.0040037087 0.0134215 0.04056492 0.028559962
000350 8d 80 bf bc e9 ae c4 3d 9a 46 e9 bd fe 34 3c 3c
       -0.023376727 0.09603674 -0.11390419 0.011487244
000360 b1 ba 40 b9 ab 7d 11 bb 4a 63 b4 ba 26 ef 0a bb
       -0.00018380095 -0.0022200148 -0.0013762501 -0.0021199672
000370 4c 2d 1a bb 64 7b b2 3c de cc 91 3b 3d 16 99 bb
       -0.0023525534 0.021787353 0.004449471 -0.0046718405
000380 41 c1 f1 3d 64 8b b6 3b e1 0d 03 3e bb 1f 9a 3d
       0.118044384 0.005570816 0.12798263 0.07525583
000390 56 fa 07 3c 1a dd d4 3a 21 a3 e8 3d ab 21 fb 39
       0.008299431 0.001624021 0.11359239 0.00047899535
0003a0 87 98 44 bd b4 a4 98 bb 78 c4 8e bd 74 d0 59 3b
       -0.047997024 -0.004658306 -0.06971067 0.003323582
0003b0 d4 c2 b8 3c f5 bd 14 bb 75 f3 cc bd de 46 4f bd
       0.022553839 -0.002269623 -0.10007373 -0.050604694
0003c0 86 ea 54 bd 80 70 88 bb 7e ce 22 3c 85 66 a8 3b
       -0.05198147 -0.0041638017 0.009936927 0.0051391744
0003d0 f2 c0 fc 3d 03 66 42 3c a0 72 24 3b e8 29 be 3d
       0.12341489 0.011865142 0.0025092736 0.09285337
0003e0 3a fa be 3d f1 7d ee b9 1f 66 29 3c c3 fd a9 bd
       0.09325071 -0.0004548873 0.010339289 -0.08300354
0003f0 db 23 91 3c 44 f8 07 3c 5e 74 4d 3d 34 56 0a ba
       0.017717293 0.008298937 0.050159805 -0.00052771275

conv1.nn.2.bias f4 [7040]
000000 4e 6c e1 bd 75 26 31 be 23 91 4b 3e cf 83 a3 bd
       -0.110069856 -0.17299826 0.19879584 -0.07984125
000010 d9 e3 13 be 10 0f 81 3d 05 48 6d be 59 81 51 be
       -0.14442386 0.06301701 -0.23172005 -0.20459498
000020 52 8d 5f 3e c5 8d 69 bc 6e e5 56 be 1c 22 b1 3c
       0.21831253 -0.014254992 -0.20985958 0.02162271
000030 2f ce 9d bd fc cc fe bc bd 93 43 3e d2 80 42 3e
       -0.07705342 -0.031103604 0.19099326 0.18994454
000040 d4 d0 80 3e fa f5 d1 3d 2a ae 61 3e bb 1c aa bd
       0.25159323 0.102519944 0.22039095 -0.08306261
000050 80 2f 8e 3d 8f 3d 29 be 9e 37 6d 3e 1b d3 25 be
       0.06942654 -0.16527389 0.23165748 -0.16193812
000060 c5 c2 77 3d 7b a2 d9 3d aa ae 4d 3e 83 97 67 bd
       0.06048848 0.10626694 0.2008616 -0.056540977
000070 1d b5 a8 3d 36 9e 84 bd 96 61 15 3e 2b 75 41 bd
       0.082376696 -0.06475489 0.14588007 -0.04723088
000080 1d 8b 07 be 43 73 f8 bd 03 d6 7a bd 4a 5b 1a be
       -0.13236661 -0.121313594 -0.061239254 -0.15073887
000090 d9 8d 0c be 93 6c 3f 3c 3c 6a 16 bd ed 96 24 be
       -0.13725986 0.011683601 -0.036722407 -0.16073199
0000a0 27 03 06 be 7f e4 9c bd 0b fe e1 3d 32 9a 98 bd
       -0.1308714 -0.0766077 0.11034783 -0.074512854
0000b0 25 40 4a 3e 80 fa 45 be 01 68 13 3e 98 da 21 3d
       0.19751032 -0.1933384 0.14395143 0.039515108
0000c0 90 58 84 3e a9 70 cb bd 79 a8 27 3e a6 99 5e be
       0.25848818 -0.099335976 0.16372861 -0.217383
0000d0 c9 0e e2 3d e2 9c 17 3e 1e bc 41 3e ad cc a0 3c
       0.11037976 0.1480594 0.18919417 0.019628847
0000e0 82 4b 90 bd 3e 30 26 be ce c3 2b 3e 1d c8 17 3d
       -0.07045652 -0.1622934 0.16773912 0.037056077
0000f0 5a 86 6e be 90 4b 6e bd 31 34 14 be 21 90 28 3e
       -0.23293439 -0.05817753 -0.14473034 0.16461231
000100 1c 05 43 3e 03 a6 33 3e ca d9 06 3e 92 74 b2 3d
       0.19044918 0.17543797 0.13169017 0.0871364
000110 7d ac e9 bd 03 2e 1d 3e 99 c7 71 3c a2 dc ea 3d
       -0.11409853 0.15349583 0.01475706 0.114678636
000120 ae b9 bb 3d 01 bc af bc 43 70 2b 3e 9a fe 49 be
       0.09166275 -0.021451952 0.16742043 -0.19726029
000130 6e cd 17 be dc 36 cd 3d 48 2d 53 be f7 58 64 3e
       -0.14824459 0.10020229 -0.20622742 0.22299562
000140 0b a7 f0 3d b9 9b 51 3e da 0f b9 bd a8 57 b7 bd
       0.11750611 0.2046956 -0.090362266 -0.08952266
000150 4e 1e 95 3d 85 7c 45 bd 94 2b f2 bd 8c 8a 7b 3e
       0.07281171 -0.048214454 -0.11824718 0.2456457
000160 34 bf 2c 3e 1d 9a e5 3d a3 db 12 be e0 45 7b 3d
       0.16869813 0.112110354 -0.14341597 0.061345935
000170 91 92 1d 3e bc a9 5d be 71 fe 3a be 6e 49 0d bd
       0.15387942 -0.2164678 -0.18261124 -0.034493856
000180 86 79 a4 bd 96 3a 8e bd a0 5a e0 3d fe 4c c8 bd
       -0.08030991 -0.06944768 0.10954785 -0.0978031
000190 8d f9 37 bc 49 a6 00 3e f3 c1 06 be a5 f9 9e bd
       -0.011228931 0.12563433 -0.13159923 -0.0776246
0001a0 f4 e4 5e 3e 94 57 83 be 77 80 58 be 9d 31 27 3e
       0.21767026 -0.25652754 -0.21142755 0.1632752
0001b0 c0 98 1b be 76 c4 02 bd a4 a4 9a 3c eb 2c 6c 3e
       -0.15194988 -0.03192564 0.018877335 0.2306401
0001c0 b1 7d b2 bc 05 9a 30 bd 9c c1 20 3e f2 d2 32 3e
       -0.02178845 -0.043115634 0.15698856 0.17463282
0001d0 70 b9 06 be 39 58 89 bd 05 bf 93 bd 0d 43 d8 3c
       -0.13156676 -0.0670628 -0.072141685 0.02639916
0001e0 7c c0 57 be d6 f6 0b bc 94 42 da bd 20 50 58 3d
       -0.2106952 -0.008542737 -0.1065723 0.05281079
0001f0 10 69 42 be 38 6a 1d 3e e3 30 7e 3e 12 9e 46 bd
       -0.1898539 0.1537255 0.24823336 -0.04849059
000200 65 5a 15 be 97 e8 11 be 28 5a 00 3c e1 46 10 3e
       -0.14585264 -0.14248882 0.007833995 0.14089538
000210 1b 5c 4d 3e 25 b8 b2 bd 83 fa 45 be 98 fc 27 3e
       0.20054667 -0.08726529 -0.19333844 0.1640495
000220 e1 59 2b 3d 76 63 20 3e 59 07 7c bd 66 15 21 be
       0.041833762 0.15662941 -0.061530445 -0.15730819
000230 d1 ae df 3d 35 3c 1b 3c 51 46 c0 3d 7d de 61 3e
       0.109220155 0.009474804 0.09388412 0.22057529
000240 37 a3 54 be 57 a5 4d bd d7 5c c5 bd cf f4 85 be
       -0.20765387 -0.05020651 -0.096368484 -0.26163337
000250 04 a2 c9 3d 9f 8e ca bd 6e 1d 48 3e 00 71 85 3e
       0.09845355 -0.09890484 0.19542477 0.26062775
000260 e3 3c 62 be 9f 05 36 3e 8e ed 0d be f3 bd a8 bd
       -0.22093539 0.17775582 -0.13860151 -0.08239355
000270 cf f6 00 3e 10 2f 61 3b 36 7f a8 3d be af 30 be
       0.1259415 0.0034360327 0.082273886 -0.1725454
000280 37 86 06 3e 87 f1 6e 3c 84 39 14 bc 89 b7 11 3d
       0.13137136 0.014583952 -0.009046916 0.035575423
000290 32 72 ae 3a 5a ec bb bd cb 0f d5 bd e7 4c 32 be
       0.0013309179 -0.0917594 -0.10403403 -0.17412148
0002a0 41 8f 25 3e b5 1b 46 be ab ca ea 3d 9e 79 85 3d
       0.16167928 -0.19346507 0.11464437 0.06517337
0002b0 ac 83 13 be cc ea 3b bc 95 ed 49 bd 59 5f 58 3e
       -0.14405698 -0.011469554 -0.04929884 0.21130122
0002c0 d2 7a 1e be 17 88 3c 3e 54 f0 06 be c6 29 4b 3e
       -0.1547654 0.18411289 -0.13177615 0.19840154
0002d0 4e 65 5f bd 36 28 3b 3e 5c 9c 71 be 17 a0 ff bc
       -0.05453997 0.18277058 -0.23594803 -0.031204266
0002e0 d4 e3 a6 bd de af f4 bc 95 f9 b4 bc 7c 98 3f be
       -0.081489235 -0.029869016 -0.022091666 -0.18710512
0002f0 ca 63 79 3d 81 cc 04 3e 5a 24 7e 3e f1 4a 10 be
       0.060886182 0.12968637 0.24818555 -0.14091088
000300 23 3b e6 bd 47 a4 0a be dd 2d 4b bc fb c3 03 3e
       -0.11241748 -0.1353923 -0.012401071 0.1286773
000310 d4 fe 29 be 81 4d 86 3d c2 3a 84 be 5c a3 43 be
       -0.16601115 0.065577514 -0.2582608 -0.19105285
000320 1f e5 be bd 3b e0 86 3e 3e 42 d6 bd 98 7c 4f be
       -0.09321045 0.2634295 -0.104618534 -0.20262372
000330 96 10 81 3d bb 78 39 be ad d7 0b 3e e2 b8 5b be
       0.06301992 -0.18112461 0.13656493 -0.21457246
000340 14 7d f7 3d 2a b5 97 bd 86 cd 45 be 44 d8 1a 3e
       0.12084404 -0.07407601 -0.19316682 0.15121561
000350 19 e0 93 3d e5 18 8e 3d ac 84 c8 3d 06 37 0d 3e
       0.072204776 0.06938342 0.0979093 0.13790521
000360 05 6b 6b bb 96 85 f1 3d e0 04 37 3c 3a 98 42 be
       -0.0035921943 0.117930576 0.011170596 -0.19003382
000370 d5 8f 51 3d 00 37 c3 bd 76 c8 0b 3e 34 eb 83 bd
       0.05116256 -0.09531975 0.13650689 -0.06441346
000380 0f a5 a7 bd b1 ac 27 3e 5a aa 0b bd 32 e0 0a bd
       -0.08185779 0.1637447 -0.034098007 -0.033905216
000390 ee d9 ab 3d 11 fb af 3d 4a ac 31 be 37 2e 30 be
       0.08391176 0.08592809 -0.1735088 -0.1720513
0003a0 72 4e cf bd 4a e6 76 3e b9 06 05 3d f2 e5 81 bd
       -0.10122384 0.24111286 0.032477114 -0.06342687
0003b0 3c 35 98 3d 52 42 a1 bd e6 4c 46 3d 0a 7d 09 3e
       0.07432029 -0.07873978 0.04841318 0.13426605
0003c0 2d 10 8b 3e 28 d7 0e 3e 54 16 a0 bd 6e b8 49 be
       0.2716078 0.13949263 -0.07816759 -0.1969926
0003d0 f4 e5 7f be f6 35 53 3e b2 98 4c bd bd b5 70 be
       -0.24990064 0.20626053 -0.04995031 -0.23506828
0003e0 ef 0f 46 be bc 8a de bd 97 a6 0a 3d 27 6b 41 3e
       -0.19342016 -0.10866305 0.03385028 0.18888532
0003f0 ae 3b 63 be 2c 9a 4b 3d d5 9a 73 be 47 23 1e 3e
       -0.22190735 0.049707577 -0.23789532 0.15443145

pool1.select.weight f4 [1, 32]
000000 77 df ac 3c 9a f1 b2 3c 10 9a fa 3d 51 39 8a bd
       0.02110265 0.02184372 0.12236416 -0.067492135
000010 49 2c e3 3d d4 bd 06 bd b6 7c 18 3e 38 3c f2 bc
       0.11092431 -0.032895878 0.14891323 -0.02956973
000020 9b 94 dc bd dc af f0 bd ed b3 6d 3d 5b 6e 18 3d
       -0.10770532 -0.117522925 0.05803292 0.03721462
000030 f8 ac 97 bd a3 07 9c bd 5e 17 13 3d 94 92 02 3e
       -0.07406038 -0.07618644 0.035910957 0.12751228
000040 d2 ea d5 bd 29 ba cb 3d b6 fa 60 3d 13 93 43 3c
       -0.10445179 0.099476166 0.054926597 0.011936921
000050 6e 63 60 3d 24 be 0b 3d 79 4b 02 be e1 c0 1f be
       0.054782324 0.03411688 -0.12724103 -0.15600921
000060 2c 99 e4 bd d2 2b 9f bc 58 b3 d8 bd bc 81 94 3d
       -0.11162028 -0.019430075 -0.10581082 0.07251307
000070 ec b9 90 bd 0a df 32 be c5 4c 17 3e 1d 6c 86 bd
       -0.07066712 -0.17467895 0.14775379 -0.0656359
