Contrast/BrainGNN/save/model3.pth (torch, 403178 bytes, 30 tensors)

n1.0.weight f4 [8, 116]
-0.0034239267 0.030758355 -0.03204757 0.03947564 -0.044036776 0.057863697 0.018653076 -0.0054526464
0.09420072 0.04889823 -0.011497007 -0.0164631 0.053093266 -0.009198097 0.047256682 -0.011143041
-0.04175494 -0.020595439 -0.036229566 -0.042205736 0.015131543 0.043216005 -0.00021622845 -0.055244923
0.015646303 0.034149483 0.008909216 0.06969497 0.06356015 -0.045516077 0.060492802 0.005679332
-0.042674456 0.027821146 0.04808777 0.002012778 -0.030480566 -0.01505974 4.764256e-05 -0.0004939131
0.0117582595 -0.0008387999 -0.006950158 -0.04341088 -0.0189799 0.06449549 -0.07109864 0.056079082
0.004126347 -0.038835958 0.09974911 -0.027049527 -0.055260457 0.07561809 -0.018593652 -0.00019959323
0.0013884915 0.0696904 -0.0025801032 0.010205008 -0.04755421 -0.06496749 0.04304664 -0.020795258
-0.01735266 -0.0052700625 0.004663675 -0.0013492925 0.0026860773 0.0058299634 -0.0008077564 -0.02448857
-0.0022331136 -0.07284905 0.020041753 0.043012362 -0.036856335 2.7021217e-05 0.0070317173 0.033012096
0.0063044885 0.02447602 -0.0010655206 0.016442774 -0.06880638 -0.061175816 -0.050099626 -0.020094255
0.06929034 0.01847033 -0.0130591225 0.07382748 0.051057104 -0.007944375 0.07618131 0.034519184
-0.001021521 -0.029017255 -0.0015090533 -0.06523232 0.07766312 0.07664202 0.0013775756 -0.05469892
-0.015025553 0.026231218 0.065599196 0.051025998 -0.0036143437 0.09530886 0.070008144 -0.016628046
-0.026520554 0.07201168 -0.06447193 0.047415998 0.021247867 0.0002841931 -0.03604099 -0.018085074
-0.0007420531 -0.004998958 0.03525886 -0.0010489132 -0.005747509 -0.04482274 -0.011744239 0.067511834
-0.055916503 -0.051714063 0.0035696928 0.056803167 0.02269908 -0.0043015517 0.06610112 0.06624454
0.03269358 -0.013107124 -0.069863655 0.02930856 -0.034772586 0.015609357 0.009076467 0.0059946943
-0.031330038 0.016815333 -0.0013446987 -0.06559335 0.002827847 -0.0070623304 0.04099137 -0.008827828
0.012540975 0.014392155 0.01229932 -0.0049605393 0.049597338 0.062582254 0.017444497 -0.011747884
-0.0017044218 -0.0614645 -0.0016584097 0.09767378 -0.027074164 0.02929259 -0.0027074036 -0.015969133
0.073648535 -0.012446099 0.00162971 -0.063609414 -0.06559206 0.074337125 0.028259462 0.029453175
0.027720688 0.0365265 0.08616624 -0.031919032 -0.06506113 0.00017313499 0.026913512 -0.03254276
0.08988253 0.08850835 0.05216443 -0.012693956 -0.02541846 0.053489875 0.0059576356 0.0319414
-0.0028010358 0.0502302 -0.022170095 0.057969857 0.011809635 0.00864923 0.07558206 -0.006264087
-0.036867157 0.00042723652 0.03589633 0.05332597 0.010221023 0.07619063 0.06709729 -0.062233295
-0.07052888 0.018047284 -0.07303427 0.035741266 0.060699247 -0.025594603 -0.021573935 0.04435307
-0.013793051 -0.060700245 -0.011738773 0.07249424 0.0036148673 0.04028926 -0.06998509 0.00653416
0.007573577 0.00072327117 -0.0031457304 0.071624614 0.004125233 0.029644353 -0.026377972 -0.041619502
-0.003773326 -0.047673393 0.03494684 0.08006941 0.0135269705 -0.024744289 -0.014453371 -0.0005262456
0.051523797 0.063085705 -0.03295015 0.047611542 0.0023968474 0.05926819 0.028941471 0.038607854
-0.015567034 0.0111320615 0.09007553 0.07269268 -0.045975827 -0.00044432314 -0.007078788 -0.03385055
00000000: f563 60bb f2f8 fb3c 5044 03bd 35b1 213d
00000010: e85f 34bd 7c02 6d3d 56ce 983c 1dac b2bb
00000020: 4fec c03d 8349 483d f15d 3cbc a0dd 86bc
00000030: 5378 593d 9db3 16bc 3990 413d 4d91 36bc
00000040: 3a07 2bbd c4b7 a8bc 7465 14bd ecdf 2cbd
00000050: 4bea 773c 4403 313d 62bb 62b9 8048 62bd
00000060: ad2c 803c 54e0 0b3d f6f7 113c 3dbc 8e3d
00000070: d32b 823d 116f 3abd 4dc7 773d b119 ba3b
00000080: 69cb 2ebd 2ce9 e33c aef7 443d d0e8 033b
00000090: 61b2 f9bc 21bd 76bc cfd3 4738 f279 01ba
000000a0: b7a5 403c e9e2 5bba 27be e3bb 9bcf 31bd
000000b0: bc7b 9bbc 3616 843d 2a9c 91bd 2eb3 653d
000000c0: 4f36 873b 7412 1fbd 4349 cc3d f896 ddbc
000000d0: ca58 62bd a8dd 9a3d b751 98bc e649 51b9
000000e0: 0bfe b53a d7b9 8e3d f316 29bb e832 273c
000000f0: 34c8 42bd ad0d 85bd ac51 303d d15a aabc
00000100: 2a27 8ebc 7db0 acbb bed1 983b beda b0ba
00000110: e608 303b 4709 bf3b 9dbf 53ba 419c c8bc
00000120: 6e59 12bb e231 95bd 9a2e a43c bb2d 303d
00000130: abf6 16bd 9fab e237 526a e63b b137 073d
00000140: e295 ce3b ef81 c83c f0a8 8bba ffb2 863c
00000150: 5cea 8cbd 7e93 7abd 4435 4dbd b59c a4bc
00000160: 18e8 8d3d 174f 973c eef5 55bc dd32 973d
00000170: 4121 513d 2029 02bc f204 9c3d fd63 0d3d
00000180: 8fe4 85ba 98b5 edbc 6dcb c5ba 8698 85bd
00000190: d80d 9f3d 7ef6 9c3d c48f b43a fa0b 60bd
000001a0: bd2d 76bc dae2 d63c df58 863d a300 513d
000001b0: a0de 6cbb 4b31 c33d 6e60 8f3d 8a37 88bc
000001c0: a241 d9bc dc7a 933d dc09 84bd 4737 423d
000001d0: 0210 ae3c c1ff 9439 b89f 13bd 2627 94bc
000001e0: 5786 42ba 4dce a3bb 986b 103d b07b 89ba
000001f0: 9a55 bcbb 0d98 37bd e96a 40bc a543 8a3d
00000200: b408 65bd 20d2 53bd 82f1 693b 70aa 683d
00000210: 6cf3 b93c 08f4 8cbb 0660 873d 38ab 873d
00000220: b4e9 053d 43bf 56bc ad14 8fbd 8118 f03c
00000230: b36d 0ebd 63be 7f3c 76b5 143c 246f c43b
00000240: ed53 00bd 4fc0 893c 9a40 b0ba ce55 86bd
00000250: 6653 393b 1f6b e7bb 91e6 273d 98a2 10bc
00000260: a978 4d3c 13cd 6b3c 1683 493c 058c a2bb
00000270: 9426 4b3d 202b 803d c3e7 8e3c 327a 40bc
00000280: e866 dfba 33c2 7bbd ff5e d9ba 3109 c83d
00000290: a3ca ddbc 04f7 ef3c b26e 31bb b3d1 82bc
000002a0: 0bd5 963d b9ea 4bbc fe9b d53a a745 82bd
000002b0: 2155 86bd 103e 983d 6380 e73c c947 f13c
000002c0: 7f16 e33c d09c 153d ed77 b03d 88bd 02bd
000002d0: c53e 85bd 928b 3539 ba79 dc3c 8f4b 05bd
000002e0: 5514 b83d de43 b53d 5faa 553d 4ffa 4fbc
000002f0: 603a d0bc 3318 5b3d 4538 c33b fcd4 023d
00000300: 9591 37bb 2fbe 4d3d 0f9e b5bc cd71 6d3d
00000310: 337d 413c 80b5 0d3c c4ca 9a3d f842 cdbb
00000320: 0402 17bd b7fe df39 0808 133d 556c 5a3d
00000330: 1476 273c d509 9c3d 4e6a 893d 57e8 7ebd
00000340: 7271 90bd e6d7 933c fe92 95bd 6f65 123d
00000350: c69f 783d c6ab d1bc d2bb b0bc 91ab 353d
00000360: 40fc 61bc d2a0 78bd fc53 40bc dc77 943d
00000370: 69e7 6c3b 5a06 253d 5854 8fbd 821c d63b
00000380: c52b f83b e899 3d3a 9928 4ebb edaf 923d
00000390: f62c 873b b7d8 f23c 9e16 d8bc 3679 2abd
000003a0: e849 77bb 2d45 43bd 6b24 0f3d 6efb a33d
000003b0: 3aa0 5d3c 89b4 cabc d5cd 6cbc bff3 09ba
000003c0: 9e0a 533d 1433 813d bdf6 06bd 5204 433d
000003d0: 6d14 1d3b 34c3 723d aa16 ed3c 4523 1e3d
000003e0: df0c 7fbc 4063 363c 8579 b83d e6df 943d
000003f0: 2651 3cbd 0bf4 e8b9 2df5 e7bb e0a6 0abd

n1.2.weight f4 [7040, 8]
0.2335141 -0.1650176 -0.31630796 -0.036918666 0.2898759 0.31961057 0.067178875 -0.26909143
-0.09712446 -0.19399627 0.12629762 0.16721112 -0.28778046 0.20517707 -0.20259817 0.10108354
0.18139854 -0.31848907 0.22413778 -0.025900511 -0.007949494 -0.002504835 -0.031997938 0.20406826
0.01049536 -0.320565 0.2643373 -0.14705923 0.057399336 0.32199335 -0.09300604 0.10325689
0.16516216 -0.0124238115 -0.062277615 -0.019560084 0.041855797 -0.007874091 -0.10336996 -0.17394216
-0.07197609 -0.2337567 -0.25975206 0.32993397 -0.20907782 0.037846055 -0.256342 -0.18336338
0.049365338 -0.21356541 0.13850814 -0.23930539 -0.19331504 0.0532895 0.024695823 0.32006302
0.15630892 -0.1364202 -0.15206818 -0.024673445 0.26357976 0.2159839 -0.17725317 0.21687274
-0.0047372873 -0.24763803 -0.13150387 -0.074193425 0.065151535 -0.30205008 -0.08987337 -0.15040807
-0.06961422 0.16912442 0.16125819 -0.048635844 -0.11633297 0.0006965327 -0.33297327 -0.28005147
0.13176283 0.12322104 -0.28541312 -0.036160186 0.20179519 -0.21047369 0.1379588 -0.14892478
0.2923207 -0.10718395 0.037524357 0.29625252 -0.08579754 -0.22117949 0.20429294 0.08101612
0.249708 0.12629241 0.122039706 -0.26041666 0.03126101 0.027880277 -0.124928094 0.12992115
-0.0011027405 -0.21146244 -0.057965923 0.0639896 0.2798779 -0.06658886 0.05983933 -0.24486785
-0.23675634 -0.16405797 0.07196993 -0.08150528 0.3190348 -0.321084 -0.090141974 -0.33110943
0.1785475 0.06479755 -0.33048272 0.260366 -0.011751122 -0.26505506 0.28610703 -0.20379789
-0.17690113 0.12502684 -0.06083683 -0.005362319 0.013855466 0.13193658 -0.15197952 0.0734475
-0.21770371 0.042972114 -0.0022928265 0.1337917 -0.13254814 -0.0068561533 0.0053747133 -0.2265886
-0.32073146 -0.044313245 0.0036165253 0.21189272 -0.08327825 -0.03250028 -0.059655726 -0.09939055
0.15028806 -0.057928767 0.17422077 -0.32378015 0.05456423 0.09572121 0.2707237 -0.25237173
0.038882665 0.2938702 0.1286313 0.2523684 -0.15993133 0.26379013 -0.12593298 0.28140736
-0.06425005 -0.16015479 -0.22259025 -0.06798744 0.2520008 0.017814813 0.04822787 0.30506605
0.21549137 0.17745556 0.025232723 -0.014901895 -0.2550987 0.32873744 -0.008907994 -0.06415972
0.023665385 0.1272239 -0.26931342 -0.21722797 -0.19678131 0.18366678 0.1791379 -0.1626568
-0.044775818 -0.09155978 0.27027386 -0.19844107 -0.023776207 -0.101760864 0.16680938 0.2543891
-0.0064308685 -0.3086009 -0.08805556 0.17409731 0.28742027 0.3250009 0.17598078 -0.29726553
0.20467785 -0.28303784 0.02130448 0.0922794 -0.12398602 0.3015326 -0.13406464 0.2733005
0.037246402 -0.09032793 0.31765196 -0.18790312 0.29233727 -0.13865605 -0.0672904 0.20692143
0.16752832 0.0014872635 0.004474598 -0.028488904 0.25910878 -0.26594853 0.014620836 -0.2537013
0.20423454 -0.037708607 0.19096796 0.037474833 -0.28503415 0.2971309 0.24708481 0.18341298
-0.17263626 -0.010202934 -0.29632923 -0.14254686 0.10014989 -0.16231197 0.011144094 -0.30034813
-0.20098199 0.1333466 0.19421166 0.20608413 -0.14544669 0.23488705 -0.05098779 0.17268744
00000000: 521e 6f3e 60fa 28be 1ef3 a1be 0738 17bd
00000010: 9d6a 943e ffa3 a33e 1495 893d 5ac6 89be
00000020: 30e9 c6bd f5a6 46be 2a54 013e 6439 2b3e
00000030: f657 93be f019 523e e575 4fbe e304 cf3d
00000040: 8ac0 393e 0011 a3be 6084 653e 4f2d d4bc
00000050: 983e 02bc 2828 24bb 4510 03bd 45f7 503e
00000060: bbf4 2b3c 1821 a4be 3857 873e b296 16be
00000070: 911b 6b3d 50dc a43e f379 bebd 5978 d33d
00000080: 4520 293e 3e8d 4bbc d016 7fbd 783c a0bc
00000090: fc70 2b3d 5502 01bc a1b3 d3bd e51d 32be
000000a0: 3368 93bd eb5d 6fbe 39fe 84be 1bed a83e
000000b0: 7f18 56be 7704 1b3d 423f 83be 9cc3 3bbe
000000c0: 4f33 4a3d e4b0 5abe 14d5 0d3e 790c 75be
000000d0: 61f4 45be 1746 5a3d e54e ca3c 4ddf a33e
000000e0: 720f 203e bdb1 0bbe c3b7 1bbe f71f cabc
000000f0: edf3 863e e22a 5d3e db81 35be e313 5e3e
00000100: 3f3b 9bbb d394 7dbe f3a8 06be b9f2 97bd
00000110: 2b6e 853d 4fa6 9abe 880f b8bd 9304 1abe
00000120: e691 8ebd f42e 2d3e de20 253e 6136 47bd
00000130: fb3f eebd 8597 363a 797b aabe e862 8fbe
00000140: d6ec 063e 505b fc3d ab21 92be b41c 14bd
00000150: 66a3 4e3e 6a86 57be 1245 0d3e bd7f 18be
00000160: 0fab 953e 4283 dbbd 24b3 193d 69ae 973e
00000170: 9fb6 afbd e07c 62be 2b32 513e c8eb a53d
00000180: 74b3 7f3e cc52 013e f4ef f93d 5555 85be
00000190: 8b0b 003d 2e65 e43c 4dda ffbd 0d0a 053e
000001a0: d589 90ba 9c89 58be ad6d 6dbd fb0c 833d
000001b0: 284c 8f3e bd5f 88bd 161a 753d a3be 7abe
000001c0: 4170 72be d0fe 27be f864 933d 3eec a6bd
000001d0: 8858 a33e 1f65 a4be 5b9c b8bd 2d87 a9be
000001e0: 28d5 363e 94b4 843d 0835 a9be b14e 853e
000001f0: c787 40bc 4cb5 87be 9f7c 923e 65b0 50be
00000200: 9225 35be 0907 003e 0a30 79bd 64b6 afbb
00000210: 0902 633c 621a 073e 85a0 1bbe a56b 963d
00000220: b9ed 5ebe 8703 303d 3f43 16bb b100 093e
00000230: b3ba 07be 95a9 e0bb 5d1e b03b d806 68be
00000240: ea36 a4be ce81 35bd 3a03 6d3b 68fa 583e
00000250: ca8d aabd 031f 05bd 9059 74bd 468d cbbd
00000260: 1de5 193e b746 6dbd ee66 323e 83c6 a5be
00000270: be7e 5f3d 7b09 c43d 4c9c 8a3e de36 81be
00000280: 6e43 1f3d 2876 963e ecb7 033e 6e36 813e
00000290: 0ac5 23be 800f 873e 93f4 00be a014 903e
000002a0: 8895 83bd 9eff 23be b3ee 63be 003d 8bbd
000002b0: 4006 813e 5ff0 913c 968a 453d 9e31 9c3e
000002c0: c5a9 5c3e e9b6 353e dbb4 ce3c 1427 74bc
000002d0: 4c9c 82be 4650 a83e d6f2 11bc 2c66 83bd
000002e0: e9dd c13c fb46 023e 73e3 89be 0271 5ebe
000002f0: 0a81 49be 2513 3c3e ed6f 373e 818f 26be
00000300: d966 37bd b283 bbbd 5661 8a3e 2334 4bbe
00000310: 52c6 c2bc 0068 d0bd 14d0 2a3e 4a3f 823e
00000320: 09ba d2bb f000 9ebe 7956 b4bd 9146 323e
00000330: c028 933e 8566 a63e 4e34 343e 3033 98be
00000340: 1297 513e 56ea 90be bc86 ae3c fbfc bc3d
00000350: 62ec fdbd 7b62 9a3e 3e48 09be 0bee 8b3e
00000360: af8f 183d dafd b8bd 47a3 a23e ad69 40be
00000370: 3bad 953e dafb 0dbe 8dcf 89bd 36e3 533e
00000380: 8b8c 2b3e 48f0 c23a a69f 923b 9061 e9bc
00000390: e8a9 843e 682a 88be 3b8c 6f3c 23e5 81be
000003a0: dc22 513e 5774 1abd 1b8d 433e 367f 193d
000003b0: ffef 91be 8b21 983e cd03 7d3e 9dd0 3b3e
000003c0: 8fc7 30be 352a 27bc 77b8 97be cef7 11be
000003d0: 631b cd3d 1c35 26be b895 363c 3bc7 99be
000003e0: 39ce 4dbe 038c 083e 6cdf 463e b807 533e
000003f0: faef 14be 3b86 703e 93d8 50bd fad4 303e

n1.2.bias f4 [7040]
-0.34003213 0.059307445 0.00792768 0.012616891 0.35116023 -0.28598127 0.007944357 -0.18074355
-0.18204573 0.3047016 0.26618326 -0.050670102 -0.29054934 -0.31603748 -0.3297818 0.20438914
0.052343428 0.29843438 -0.0037744087 0.121740915 0.16583887 -0.06489135 0.17205155 -0.25597414
-0.33919972 0.06519661 0.07698716 -0.28906024 0.2807323 -0.079371355 0.10837516 0.26596683
0.23218231 -0.044062838 -0.29949602 0.29996592 -0.14722213 0.15361625 0.30436945 -0.21381299
-0.19951722 -0.2530891 0.022214731 -0.22995898 0.01704053 -0.22927369 -0.19866592 0.086855814
0.16255759 -0.25907442 0.030384764 0.10982915 0.2977355 -0.22624776 0.34277952 -0.13287272
-0.29515272 0.06173157 -0.016598454 -0.06382498 0.08380773 0.26923016 -0.31482452 -0.19909923
-0.07025432 -0.0989191 -0.30887252 -0.18019691 -0.13801458 0.26698914 -0.19519359 -0.21176209
0.07721081 -0.2981017 0.15084393 -0.025271585 0.32245252 0.32929835 0.1182491 0.17843536
-0.08043084 -0.12742284 -0.22795087 -0.25169575 0.14243685 0.27613556 -0.08956077 -0.06861341
-0.2275009 -0.044104874 -0.1015971 -0.25149155 -0.25014898 -0.33561736 0.24572374 0.19376495
-0.05532562 0.25722492 0.09895079 0.08975256 -0.24042192 0.12112317 -0.18277882 -0.14509824
-0.133609 0.29341424 0.2190501 0.16518967 0.093988515 0.19681849 0.2181519 -0.10040324
0.04835787 -0.0006076333 0.17813702 0.005118785 0.20690149 0.037062354 -0.064432725 0.26748914
0.12331916 -0.24285196 0.010912659 0.053801913 -0.1389975 0.28402406 -0.0029835955 0.05104637
-0.15974115 -0.22821063 0.102378786 0.08835502 0.049053144 -0.12130834 -0.1394074 -0.12252593
-0.3165956 -0.070763536 0.27278948 0.026092937 0.29918358 0.10177796 -0.021484576 -0.1396368
0.014444668 -0.2817522 0.025316074 0.18334575 -0.08848496 -0.2291241 -0.24627371 0.30566138
0.2845592 -0.09457443 -0.12687083 0.065490656 0.039919913 -0.10254934 -0.32561317 -0.03470068
0.25068897 0.06835031 -0.07280389 -0.26629877 -0.2681486 0.14211734 0.005602846 0.00940215
0.13544299 -0.07847254 -0.23207015 0.04708003 0.098906845 0.0058788294 -0.010465528 -0.2588167
0.13486841 -0.014707868 -0.24846183 0.010604217 0.061829947 0.06967607 0.042049155 0.2529269
-0.31256565 -0.25185928 -0.2517889 0.13180275 0.16435945 -0.20852432 0.33344314 -0.020767681
0.010404163 -0.13132335 0.1971797 -0.09450422 0.16927812 -0.11950974 0.24148217 0.30710006
-0.21348196 -0.005449206 0.18516704 0.027162189 0.2442794 -0.1874227 -0.10686567 0.027880833
-0.25616324 -0.21241169 0.30153948 0.06582347 0.050303012 -0.2618745 -0.24609433 0.28917894
0.03273971 -0.04344577 -0.30611813 0.32901394 0.24068673 -0.32524016 0.23114486 0.25438944
0.029375568 0.08422231 0.06476954 -0.16905148 -0.11229585 -0.3357091 -0.0052200207 0.3174177
0.10205762 0.31359923 -0.24083854 -0.3007494 0.051359393 0.1764111 -0.10781749 -0.14374553
-0.08207343 -0.07113997 -0.059206564 -0.1513993 0.20687588 0.3349257 0.030288808 0.20759647
0.13859496 0.063295774 -0.059598576 -0.16874357 0.25775188 0.12035482 0.013773973 0.04236784
00000000: b118 aebe 5dec 723d 1ae3 013c 14b7 4e3c
00000010: 46cb b33e 236c 92be 0c29 023c d614 39be
00000020: 326a 3abe d901 9c3e 2c49 883e 748b 4fbd
00000030: e2c2 94be aacf a1be 29d9 a8be 634b 513e
00000040: 1066 563d 64cc 983e 125c 77bb 4d53 f93d
00000050: aad1 293e c2e5 84bd 482e 303e 0b0f 83be
00000060: 96ab adbe cd85 853d 72ab 9d3d b4ff 93be
00000070: 25bc 8f3e 738d a2bd ccf3 dd3d ce2c 883e
00000080: 33c1 6d3e 3c7b 34bd 8b57 99be 2295 993e
00000090: 66c1 16be 944d 1d3e 50d6 9b3e cbf1 5abe
000000a0: 3e4e 4cbe e594 81be abfb b53c 5e7a 6bbe
000000b0: 9598 8b3c b9c6 6abe 146f 4bbe 76e1 b13d
000000c0: 7f75 263e 67a5 84be 78e9 f83c 1bee e03d
000000d0: ca70 983e 7ead 67be cc80 af3e c90f 08be
000000e0: 421e 97be 3eda 7c3d 7bf9 87bc acb6 82bd
000000f0: 63a3 ab3d 89d8 893e ae30 a1be abe0 4bbe
00000100: 7fe1 8fbd 1996 cabd 8a24 9ebe 8a85 38be
00000110: b253 0dbe cdb2 883e d4e0 47be 29d8 58be
00000120: b320 9e3d c9a0 98be d576 1a3e 5b06 cfbc
00000130: 7f18 a53e cb99 a83e 962c f23d c2b7 363e
00000140: edb8 a4bd 227b 02be f46b 69be 44de 80be
00000150: f7da 113e a461 8d3e a36b b7bd 3085 8cbd
00000160: fff5 68be 50a7 34bd 2412 d0bd 80c3 80be
00000170: 8713 80be 0ad6 abbe 019f 7b3e 526a 463e
00000180: 1e9d 62bd fcb2 833e b6a6 ca3d 31d0 b73d
00000190: 2a31 76be 6d0f f83d 5f2a 3bbe a294 14be
000001a0: ccd0 08be 643a 963e ab4e 603e 7b27 293e
000001b0: 0d7d c03d c98a 493e 3663 5f3e 37a0 cdbd
000001c0: e712 463d 9549 1fba 8d69 363e 7bbb a73b
000001d0: fcdd 533e b2ce 173d 4ef5 83bd 56f4 883e
000001e0: c18e fc3d 2fae 78be 02cb 323c 655f 5c3d
000001f0: 5c55 0ebe 9a6b 913e 6d88 43bb 0016 513d
00000200: 2f93 23be 0cb0 69be f8ab d13d 7af3 b43d
00000210: f3eb 483d 8270 f8bd d0c0 0ebe e0ee fabd
00000220: d218 a2be 79ec 90bd 10ab 8b3e dbc0 d53c
00000230: 972e 993e f770 d03d 6c00 b0bc f3fc 0ebe
00000240: 54a9 6c3c d341 90be a863 cf3c fdbe 3b3e
00000250: 9a37 b5bd 829f 6abe 2d2f 7cbe a67f 9c3e
00000260: beb1 913e 3db0 c1bd 6dea 01be f71f 863d
00000270: 1083 233d 6305 d2bd c5b6 a6be 4d22 0ebd
00000280: 4e5a 803e 3ffb 8b3d 351a 95bd 5058 88be
00000290: c64a 89be 3587 113e 1498 b73b 7a0b 1a3c
000002a0: 91b1 0a3e 36b6 a0bd cca3 6dbe fdd6 403d
000002b0: ac8f ca3d 32a3 c03b 9b77 2bbc 9f83 84be
000002c0: f21a 0a3e 45f9 70bc c76c 7ebe 4fbd 2d3c
000002d0: 6641 7d3d 54b2 8e3d bc3b 2c3d a27f 813e
000002e0: 9b08 a0be b3f3 80be 7aea 80be 4df7 063e
000002f0: d84d 283e 6687 55be 0fb9 aa3e fc20 aabc
00000300: 3976 2a3c a179 06be 7ae9 493e 6e8b c1bd
00000310: 3e57 2d3e 86c1 f4bd 1a47 773e 383c 9d3e
00000320: 049b 5abe 418f b2bb 6e9c 3d3e 3d83 de3c
00000330: 6124 7a3e bceb 3fbe 63dc dabd 5866 e43c
00000340: d427 83be 7382 59be 6263 9a3e 75ce 863d
00000350: 880a 4e3d 6a14 86be 2700 7cbe 430f 943e
00000360: 131a 063d 31f4 31bd 84bb 9cbe 8474 a83e
00000370: 9576 763e e185 a6be 3db1 6c3e 553f 823e
00000380: 08a5 f03c bf7c ac3d e5a5 843d d51b 2dbe
00000390: 5efb e5bd 10e2 abbe b50c abbb 9384 a23e
000003a0: 9603 d13d 1490 a03e 619e 76be d3fb 99be
000003b0: 3a5e 523d 1da5 343e 6bcf dcbd 0732 13be
000003c0: 1d16 a8bd d5b1 91bd 9582 72bd 6b08 1bbe
000003d0: 45d7 533e 627b ab3e 3c20 f83c 2b94 543e
000003e0: d6eb 0d3e 37a1 813d a31d 74bd 1dcb 2cbe
000003f0: 0ef8 833e 967c f63d 3bac 613c e689 2d3d

conv1.bias f4 [32]
0.009607729 -0.006598727 0.04871596 0.009526702 0.0534988 -0.06253075 0.058859095 0.019201895
0.020162422 0.04822021 0.049959335 0.061723042 -0.046234287 -0.014755342 0.031106753 -0.018882146
-0.053752664 0.060416214 0.03761724 -0.053681504 0.037632626 -0.0061323354 -0.060917012 -0.038082343
0.027791891 -0.023274247 -0.035484955 0.03401251 0.028466977 -0.0031275717 -0.030296156 0.0068177436
00000000: bc69 1d3c 223a d8bb 638a 473d e215 1c3c
00000010: 8f21 5b3d 1f10 80bd 3c16 713d 4b4d 9d3c
00000020: aa2b a53c 8e82 453d 29a2 4c3d 4dd1 7c3d
00000030: 2a60 3dbd 64c0 71bc 97d3 fe3c bbae 9abc
00000040: c12b 5cbd fe76 773d 8914 1a3d 23e1 5bbd
00000050: ab24 1a3d c2f1 c8bb 1e84 79bd 3bfc 1bbd
00000060: d2ab e33c a2a9 bebc ac58 11bd b450 0b3d
00000070: 9433 e93c f2f7 4cbb a52f f8bc 6167 df3b

conv1.nn.0.weight f4 [8, 116]
-0.0034239267 0.030758355 -0.03204757 0.03947564 -0.044036776 0.057863697 0.018653076 -0.0054526464
0.09420072 0.04889823 -0.011497007 -0.0164631 0.053093266 -0.009198097 0.047256682 -0.011143041
-0.04175494 -0.020595439 -0.036229566 -0.042205736 0.015131543 0.043216005 -0.00021622845 -0.055244923
0.015646303 0.034149483 0.008909216 0.06969497 0.06356015 -0.045516077 0.060492802 0.005679332
-0.042674456 0.027821146 0.04808777 0.002012778 -0.030480566 -0.01505974 4.764256e-05 -0.0004939131
0.0117582595 -0.0008387999 -0.006950158 -0.04341088 -0.0189799 0.06449549 -0.07109864 0.056079082
0.004126347 -0.038835958 0.09974911 -0.027049527 -0.055260457 0.07561809 -0.018593652 -0.00019959323
0.0013884915 0.0696904 -0.0025801032 0.010205008 -0.04755421 -0.06496749 0.04304664 -0.020795258
-0.01735266 -0.0052700625 0.004663675 -0.0013492925 0.0026860773 0.0058299634 -0.0008077564 -0.02448857
-0.0022331136 -0.07284905 0.020041753 0.043012362 -0.036856335 2.7021217e-05 0.0070317173 0.033012096
0.0063044885 0.02447602 -0.0010655206 0.016442774 -0.06880638 -0.061175816 -0.050099626 -0.020094255
0.06929034 0.01847033 -0.0130591225 0.07382748 0.051057104 -0.007944375 0.07618131 0.034519184
-0.001021521 -0.029017255 -0.0015090533 -0.06523232 0.07766312 0.07664202 0.0013775756 -0.05469892
-0.015025553 0.026231218 0.065599196 0.051025998 -0.0036143437 0.09530886 0.070008144 -0.016628046
-0.026520554 0.07201168 -0.06447193 0.047415998 0.021247867 0.0002841931 -0.03604099 -0.018085074
-0.0007420531 -0.004998958 0.03525886 -0.0010489132 -0.005747509 -0.04482274 -0.011744239 0.067511834
-0.055916503 -0.051714063 0.0035696928 0.056803167 0.02269908 -0.0043015517 0.06610112 0.06624454
0.03269358 -0.013107124 -0.069863655 0.02930856 -0.034772586 0.015609357 0.009076467 0.0059946943
-0.031330038 0.016815333 -0.0013446987 -0.06559335 0.002827847 -0.0070623304 0.04099137 -0.008827828
0.012540975 0.014392155 0.01229932 -0.0049605393 0.049597338 0.062582254 0.017444497 -0.011747884
-0.0017044218 -0.0614645 -0.0016584097 0.09767378 -0.027074164 0.02929259 -0.0027074036 -0.015969133
0.073648535 -0.012446099 0.00162971 -0.063609414 -0.06559206 0.074337125 0.028259462 0.029453175
0.027720688 0.0365265 0.08616624 -0.031919032 -0.06506113 0.00017313499 0.026913512 -0.03254276
0.08988253 0.08850835 0.05216443 -0.012693956 -0.02541846 0.053489875 0.0059576356 0.0319414
-0.0028010358 0.0502302 -0.022170095 0.057969857 0.011809635 0.00864923 0.07558206 -0.006264087
-0.036867157 0.00042723652 0.03589633 0.05332597 0.010221023 0.07619063 0.06709729 -0.062233295
-0.07052888 0.018047284 -0.07303427 0.035741266 0.060699247 -0.025594603 -0.021573935 0.04435307
-0.013793051 -0.060700245 -0.011738773 0.07249424 0.0036148673 0.04028926 -0.06998509 0.00653416
0.007573577 0.00072327117 -0.0031457304 0.071624614 0.004125233 0.029644353 -0.026377972 -0.041619502
-0.003773326 -0.047673393 0.03494684 0.08006941 0.0135269705 -0.024744289 -0.014453371 -0.0005262456
0.051523797 0.063085705 -0.03295015 0.047611542 0.0023968474 0.05926819 0.028941471 0.038607854
-0.015567034 0.0111320615 0.09007553 0.07269268 -0.045975827 -0.00044432314 -0.007078788 -0.03385055
00000000: f563 60bb f2f8 fb3c 5044 03bd 35b1 213d
00000010: e85f 34bd 7c02 6d3d 56ce 983c 1dac b2bb
00000020: 4fec c03d 8349 483d f15d 3cbc a0dd 86bc
00000030: 5378 593d 9db3 16bc 3990 413d 4d91 36bc
00000040: 3a07 2bbd c4b7 a8bc 7465 14bd ecdf 2cbd
00000050: 4bea 773c 4403 313d 62bb 62b9 8048 62bd
00000060: ad2c 803c 54e0 0b3d f6f7 113c 3dbc 8e3d
00000070: d32b 823d 116f 3abd 4dc7 773d b119 ba3b
00000080: 69cb 2ebd 2ce9 e33c aef7 443d d0e8 033b
00000090: 61b2 f9bc 21bd 76bc cfd3 4738 f279 01ba
000000a0: b7a5 403c e9e2 5bba 27be e3bb 9bcf 31bd
000000b0: bc7b 9bbc 3616 843d 2a9c 91bd 2eb3 653d
000000c0: 4f36 873b 7412 1fbd 4349 cc3d f896 ddbc
000000d0: ca58 62bd a8dd 9a3d b751 98bc e649 51b9
000000e0: 0bfe b53a d7b9 8e3d f316 29bb e832 273c
000000f0: 34c8 42bd ad0d 85bd ac51 303d d15a aabc
00000100: 2a27 8ebc 7db0 acbb bed1 983b beda b0ba
00000110: e608 303b 4709 bf3b 9dbf 53ba 419c c8bc
00000120: 6e59 12bb e231 95bd 9a2e a43c bb2d 303d
00000130: abf6 16bd 9fab e237 526a e63b b137 073d
00000140: e295 ce3b ef81 c83c f0a8 8bba ffb2 863c
00000150: 5cea 8cbd 7e93 7abd 4435 4dbd b59c a4bc
00000160: 18e8 8d3d 174f 973c eef5 55bc dd32 973d
00000170: 4121 513d 2029 02bc f204 9c3d fd63 0d3d
00000180: 8fe4 85ba 98b5 edbc 6dcb c5ba 8698 85bd
00000190: d80d 9f3d 7ef6 9c3d c48f b43a fa0b 60bd
000001a0: bd2d 76bc dae2 d63c df58 863d a300 513d
000001b0: a0de 6cbb 4b31 c33d 6e60 8f3d 8a37 88bc
000001c0: a241 d9bc dc7a 933d dc09 84bd 4737 423d
000001d0: 0210 ae3c c1ff 9439 b89f 13bd 2627 94bc
000001e0: 5786 42ba 4dce a3bb 986b 103d b07b 89ba
000001f0: 9a55 bcbb 0d98 37bd e96a 40bc a543 8a3d
00000200: b408 65bd 20d2 53bd 82f1 693b 70aa 683d
00000210: 6cf3 b93c 08f4 8cbb 0660 873d 38ab 873d
00000220: b4e9 053d 43bf 56bc ad14 8fbd 8118 f03c
00000230: b36d 0ebd 63be 7f3c 76b5 143c 246f c43b
00000240: ed53 00bd 4fc0 893c 9a40 b0ba ce55 86bd
00000250: 6653 393b 1f6b e7bb 91e6 273d 98a2 10bc
00000260: a978 4d3c 13cd 6b3c 1683 493c 058c a2bb
00000270: 9426 4b3d 202b 803d c3e7 8e3c 327a 40bc
00000280: e866 dfba 33c2 7bbd ff5e d9ba 3109 c83d
00000290: a3ca ddbc 04f7 ef3c b26e 31bb b3d1 82bc
000002a0: 0bd5 963d b9ea 4bbc fe9b d53a a745 82bd
000002b0: 2155 86bd 103e 983d 6380 e73c c947 f13c
000002c0: 7f16 e33c d09c 153d ed77 b03d 88bd 02bd
000002d0: c53e 85bd 928b 3539 ba79 dc3c 8f4b 05bd
000002e0: 5514 b83d de43 b53d 5faa 553d 4ffa 4fbc
000002f0: 603a d0bc 3318 5b3d 4538 c33b fcd4 023d
00000300: 9591 37bb 2fbe 4d3d 0f9e b5bc cd71 6d3d
00000310: 337d 413c 80b5 0d3c c4ca 9a3d f842 cdbb
00000320: 0402 17bd b7fe df39 0808 133d 556c 5a3d
00000330: 1476 273c d509 9c3d 4e6a 893d 57e8 7ebd
00000340: 7271 90bd e6d7 933c fe92 95bd 6f65 123d
00000350: c69f 783d c6ab d1bc d2bb b0bc 91ab 353d
00000360: 40fc 61bc d2a0 78bd fc53 40bc dc77 943d
00000370: 69e7 6c3b 5a06 253d 5854 8fbd 821c d63b
00000380: c52b f83b e899 3d3a 9928 4ebb edaf 923d
00000390: f62c 873b b7d8 f23c 9e16 d8bc 3679 2abd
000003a0: e849 77bb 2d45 43bd 6b24 0f3d 6efb a33d
000003b0: 3aa0 5d3c 89b4 cabc d5cd 6cbc bff3 09ba
000003c0: 9e0a 533d 1433 813d bdf6 06bd 5204 433d
000003d0: 6d14 1d3b 34c3 723d aa16 ed3c 4523 1e3d
000003e0: df0c 7fbc 4063 363c 8579 b83d e6df 943d
000003f0: 2651 3cbd 0bf4 e8b9 2df5 e7bb e0a6 0abd

conv1.nn.2.weight f4 [7040, 8]
0.2335141 -0.1650176 -0.31630796 -0.036918666 0.2898759 0.31961057 0.067178875 -0.26909143
-0.09712446 -0.19399627 0.12629762 0.16721112 -0.28778046 0.20517707 -0.20259817 0.10108354
0.18139854 -0.31848907 0.22413778 -0.025900511 -0.007949494 -0.002504835 -0.031997938 0.20406826
0.01049536 -0.320565 0.2643373 -0.14705923 0.057399336 0.32199335 -0.09300604 0.10325689
0.16516216 -0.0124238115 -0.062277615 -0.019560084 0.041855797 -0.007874091 -0.10336996 -0.17394216
-0.07197609 -0.2337567 -0.25975206 0.32993397 -0.20907782 0.037846055 -0.256342 -0.18336338
0.049365338 -0.21356541 0.13850814 -0.23930539 -0.19331504 0.0532895 0.024695823 0.32006302
0.15630892 -0.1364202 -0.15206818 -0.024673445 0.26357976 0.2159839 -0.17725317 0.21687274
-0.0047372873 -0.24763803 -0.13150387 -0.074193425 0.065151535 -0.30205008 -0.08987337 -0.15040807
-0.06961422 0.16912442 0.16125819 -0.048635844 -0.11633297 0.0006965327 -0.33297327 -0.28005147
0.13176283 0.12322104 -0.28541312 -0.036160186 0.20179519 -0.21047369 0.1379588 -0.14892478
0.2923207 -0.10718395 0.037524357 0.29625252 -0.08579754 -0.22117949 0.20429294 0.08101612
0.249708 0.12629241 0.122039706 -0.26041666 0.03126101 0.027880277 -0.124928094 0.12992115
-0.0011027405 -0.21146244 -0.057965923 0.0639896 0.2798779 -0.06658886 0.05983933 -0.24486785
-0.23675634 -0.16405797 0.07196993 -0.08150528 0.3190348 -0.321084 -0.090141974 -0.33110943
0.1785475 0.06479755 -0.33048272 0.260366 -0.011751122 -0.26505506 0.28610703 -0.20379789
-0.17690113 0.12502684 -0.06083683 -0.005362319 0.013855466 0.13193658 -0.15197952 0.0734475
-0.21770371 0.042972114 -0.0022928265 0.1337917 -0.13254814 -0.0068561533 0.0053747133 -0.2265886
-0.32073146 -0.044313245 0.0036165253 0.21189272 -0.08327825 -0.03250028 -0.059655726 -0.09939055
0.15028806 -0.057928767 0.17422077 -0.32378015 0.05456423 0.09572121 0.2707237 -0.25237173
0.038882665 0.2938702 0.1286313 0.2523684 -0.15993133 0.26379013 -0.12593298 0.28140736
-0.06425005 -0.16015479 -0.22259025 -0.06798744 0.2520008 0.017814813 0.04822787 0.30506605
0.21549137 0.17745556 0.025232723 -0.014901895 -0.2550987 0.32873744 -0.008907994 -0.06415972
0.023665385 0.1272239 -0.26931342 -0.21722797 -0.19678131 0.18366678 0.1791379 -0.1626568
-0.044775818 -0.09155978 0.27027386 -0.19844107 -0.023776207 -0.101760864 0.16680938 0.2543891
-0.0064308685 -0.3086009 -0.08805556 0.17409731 0.28742027 0.3250009 0.17598078 -0.29726553
0.20467785 -0.28303784 0.02130448 0.0922794 -0.12398602 0.3015326 -0.13406464 0.2733005
0.037246402 -0.09032793 0.31765196 -0.18790312 0.29233727 -0.13865605 -0.0672904 0.20692143
0.16752832 0.0014872635 0.004474598 -0.028488904 0.25910878 -0.26594853 0.014620836 -0.2537013
0.20423454 -0.037708607 0.19096796 0.037474833 -0.28503415 0.2971309 0.24708481 0.18341298
-0.17263626 -0.010202934 -0.29632923 -0.14254686 0.10014989 -0.16231197 0.011144094 -0.30034813
-0.20098199 0.1333466 0.19421166 0.20608413 -0.14544669 0.23488705 -0.05098779 0.17268744
00000000: 521e 6f3e 60fa 28be 1ef3 a1be 0738 17bd
00000010: 9d6a 943e ffa3 a33e 1495 893d 5ac6 89be
00000020: 30e9 c6bd f5a6 46be 2a54 013e 6439 2b3e
00000030: f657 93be f019 523e e575 4fbe e304 cf3d
00000040: 8ac0 393e 0011 a3be 6084 653e 4f2d d4bc
00000050: 983e 02bc 2828 24bb 4510 03bd 45f7 503e
00000060: bbf4 2b3c 1821 a4be 3857 873e b296 16be
00000070: 911b 6b3d 50dc a43e f379 bebd 5978 d33d
00000080: 4520 293e 3e8d 4bbc d016 7fbd 783c a0bc
00000090: fc70 2b3d 5502 01bc a1b3 d3bd e51d 32be
000000a0: 3368 93bd eb5d 6fbe 39fe 84be 1bed a83e
000000b0: 7f18 56be 7704 1b3d 423f 83be 9cc3 3bbe
000000c0: 4f33 4a3d e4b0 5abe 14d5 0d3e 790c 75be
000000d0: 61f4 45be 1746 5a3d e54e ca3c 4ddf a33e
000000e0: 720f 203e bdb1 0bbe c3b7 1bbe f71f cabc
000000f0: edf3 863e e22a 5d3e db81 35be e313 5e3e
00000100: 3f3b 9bbb d394 7dbe f3a8 06be b9f2 97bd
00000110: 2b6e 853d 4fa6 9abe 880f b8bd 9304 1abe
00000120: e691 8ebd f42e 2d3e de20 253e 6136 47bd
00000130: fb3f eebd 8597 363a 797b aabe e862 8fbe
00000140: d6ec 063e 505b fc3d ab21 92be b41c 14bd
00000150: 66a3 4e3e 6a86 57be 1245 0d3e bd7f 18be
00000160: 0fab 953e 4283 dbbd 24b3 193d 69ae 973e
00000170: 9fb6 afbd e07c 62be 2b32 513e c8eb a53d
00000180: 74b3 7f3e cc52 013e f4ef f93d 5555 85be
00000190: 8b0b 003d 2e65 e43c 4dda ffbd 0d0a 053e
000001a0: d589 90ba 9c89 58be ad6d 6dbd fb0c 833d
000001b0: 284c 8f3e bd5f 88bd 161a 753d a3be 7abe
000001c0: 4170 72be d0fe 27be f864 933d 3eec a6bd
000001d0: 8858 a33e 1f65 a4be 5b9c b8bd 2d87 a9be
000001e0: 28d5 363e 94b4 843d 0835 a9be b14e 853e
000001f0: c787 40bc 4cb5 87be 9f7c 923e 65b0 50be
00000200: 9225 35be 0907 003e 0a30 79bd 64b6 afbb
00000210: 0902 633c 621a 073e 85a0 1bbe a56b 963d
00000220: b9ed 5ebe 8703 303d 3f43 16bb b100 093e
00000230: b3ba 07be 95a9 e0bb 5d1e b03b d806 68be
00000240: ea36 a4be ce81 35bd 3a03 6d3b 68fa 583e
00000250: ca8d aabd 031f 05bd 9059 74bd 468d cbbd
00000260: 1de5 193e b746 6dbd ee66 323e 83c6 a5be
00000270: be7e 5f3d 7b09 c43d 4c9c 8a3e de36 81be
00000280: 6e43 1f3d 2876 963e ecb7 033e 6e36 813e
00000290: 0ac5 23be 800f 873e 93f4 00be a014 903e
000002a0: 8895 83bd 9eff 23be b3ee 63be 003d 8bbd
000002b0: 4006 813e 5ff0 913c 968a 453d 9e31 9c3e
000002c0: c5a9 5c3e e9b6 353e dbb4 ce3c 1427 74bc
000002d0: 4c9c 82be 4650 a83e d6f2 11bc 2c66 83bd
000002e0: e9dd c13c fb46 023e 73e3 89be 0271 5ebe
000002f0: 0a81 49be 2513 3c3e ed6f 373e 818f 26be
00000300: d966 37bd b283 bbbd 5661 8a3e 2334 4bbe
00000310: 52c6 c2bc 0068 d0bd 14d0 2a3e 4a3f 823e
00000320: 09ba d2bb f000 9ebe 7956 b4bd 9146 323e
00000330: c028 933e 8566 a63e 4e34 343e 3033 98be
00000340: 1297 513e 56ea 90be bc86 ae3c fbfc bc3d
00000350: 62ec fdbd 7b62 9a3e 3e48 09be 0bee 8b3e
00000360: af8f 183d dafd b8bd 47a3 a23e ad69 40be
00000370: 3bad 953e dafb 0dbe 8dcf 89bd 36e3 533e
00000380: 8b8c 2b3e 48f0 c23a a69f 923b 9061 e9bc
00000390: e8a9 843e 682a 88be 3b8c 6f3c 23e5 81be
000003a0: dc22 513e 5774 1abd 1b8d 433e 367f 193d
000003b0: ffef 91be 8b21 983e cd03 7d3e 9dd0 3b3e
000003c0: 8fc7 30be 352a 27bc 77b8 97be cef7 11be
000003d0: 631b cd3d 1c35 26be b895 363c 3bc7 99be
000003e0: 39ce 4dbe 038c 083e 6cdf 463e b807 533e
000003f0: faef 14be 3b86 703e 93d8 50bd fad4 303e

conv1.nn.2.bias f4 [7040]
-0.34003213 0.059307445 0.00792768 0.012616891 0.35116023 -0.28598127 0.007944357 -0.18074355
-0.18204573 0.3047016 0.26618326 -0.050670102 -0.29054934 -0.31603748 -0.3297818 0.20438914
0.052343428 0.29843438 -0.0037744087 0.121740915 0.16583887 -0.06489135 0.17205155 -0.25597414
-0.33919972 0.06519661 0.07698716 -0.28906024 0.2807323 -0.079371355 0.10837516 0.26596683
0.23218231 -0.044062838 -0.29949602 0.29996592 -0.14722213 0.15361625 0.30436945 -0.21381299
-0.19951722 -0.2530891 0.022214731 -0.22995898 0.01704053 -0.22927369 -0.19866592 0.086855814
0.16255759 -0.25907442 0.030384764 0.10982915 0.2977355 -0.22624776 0.34277952 -0.13287272
-0.29515272 0.06173157 -0.016598454 -0.06382498 0.08380773 0.26923016 -0.31482452 -0.19909923
-0.07025432 -0.0989191 -0.30887252 -0.18019691 -0.13801458 0.26698914 -0.19519359 -0.21176209
0.07721081 -0.2981017 0.15084393 -0.025271585 0.32245252 0.32929835 0.1182491 0.17843536
-0.08043084 -0.12742284 -0.22795087 -0.25169575 0.14243685 0.27613556 -0.08956077 -0.06861341
-0.2275009 -0.044104874 -0.1015971 -0.25149155 -0.25014898 -0.33561736 0.24572374 0.19376495
-0.05532562 0.25722492 0.09895079 0.08975256 -0.24042192 0.12112317 -0.18277882 -0.14509824
-0.133609 0.29341424 0.2190501 0.16518967 0.093988515 0.19681849 0.2181519 -0.10040324
0.04835787 -0.0006076333 0.17813702 0.005118785 0.20690149 0.037062354 -0.064432725 0.26748914
0.12331916 -0.24285196 0.010912659 0.053801913 -0.1389975 0.28402406 -0.0029835955 0.05104637
-0.15974115 -0.22821063 0.102378786 0.08835502 0.049053144 -0.12130834 -0.1394074 -0.12252593
-0.3165956 -0.070763536 0.27278948 0.026092937 0.29918358 0.10177796 -0.021484576 -0.1396368
0.014444668 -0.2817522 0.025316074 0.18334575 -0.08848496 -0.2291241 -0.24627371 0.30566138
0.2845592 -0.09457443 -0.12687083 0.065490656 0.039919913 -0.10254934 -0.32561317 -0.03470068
0.25068897 0.06835031 -0.07280389 -0.26629877 -0.2681486 0.14211734 0.005602846 0.00940215
0.13544299 -0.07847254 -0.23207015 0.04708003 0.098906845 0.0058788294 -0.010465528 -0.2588167
0.13486841 -0.014707868 -0.24846183 0.010604217 0.061829947 0.06967607 0.042049155 0.2529269
-0.31256565 -0.25185928 -0.2517889 0.13180275 0.16435945 -0.20852432 0.33344314 -0.020767681
0.010404163 -0.13132335 0.1971797 -0.09450422 0.16927812 -0.11950974 0.24148217 0.30710006
-0.21348196 -0.005449206 0.18516704 0.027162189 0.2442794 -0.1874227 -0.10686567 0.027880833
-0.25616324 -0.21241169 0.30153948 0.06582347 0.050303012 -0.2618745 -0.24609433 0.28917894
0.03273971 -0.04344577 -0.30611813 0.32901394 0.24068673 -0.32524016 0.23114486 0.25438944
0.029375568 0.08422231 0.06476954 -0.16905148 -0.11229585 -0.3357091 -0.0052200207 0.3174177
0.10205762 0.31359923 -0.24083854 -0.3007494 0.051359393 0.1764111 -0.10781749 -0.14374553
-0.08207343 -0.07113997 -0.059206564 -0.1513993 0.20687588 0.3349257 0.030288808 0.20759647
0.13859496 0.063295774 -0.059598576 -0.16874357 0.25775188 0.12035482 0.013773973 0.04236784
00000000: b118 aebe 5dec 723d 1ae3 013c 14b7 4e3c
00000010: 46cb b33e 236c 92be 0c29 023c d614 39be
00000020: 326a 3abe d901 9c3e 2c49 883e 748b 4fbd
00000030: e2c2 94be aacf a1be 29d9 a8be 634b 513e
00000040: 1066 563d 64cc 983e 125c 77bb 4d53 f93d
00000050: aad1 293e c2e5 84bd 482e 303e 0b0f 83be
00000060: 96ab adbe cd85 853d 72ab 9d3d b4ff 93be
00000070: 25bc 8f3e 738d a2bd ccf3 dd3d ce2c 883e
00000080: 33c1 6d3e 3c7b 34bd 8b57 99be 2295 993e
00000090: 66c1 16be 944d 1d3e 50d6 9b3e cbf1 5abe
000000a0: 3e4e 4cbe e594 81be abfb b53c 5e7a 6bbe
000000b0: 9598 8b3c b9c6 6abe 146f 4bbe 76e1 b13d
000000c0: 7f75 263e 67a5 84be 78e9 f83c 1bee e03d
000000d0: ca70 983e 7ead 67be cc80 af3e c90f 08be
000000e0: 421e 97be 3eda 7c3d 7bf9 87bc acb6 82bd
000000f0: 63a3 ab3d 89d8 893e ae30 a1be abe0 4bbe
00000100: 7fe1 8fbd 1996 cabd 8a24 9ebe 8a85 38be
00000110: b253 0dbe cdb2 883e d4e0 47be 29d8 58be
00000120: b320 9e3d c9a0 98be d576 1a3e 5b06 cfbc
00000130: 7f18 a53e cb99 a83e 962c f23d c2b7 363e
00000140: edb8 a4bd 227b 02be f46b 69be 44de 80be
00000150: f7da 113e a461 8d3e a36b b7bd 3085 8cbd
00000160: fff5 68be 50a7 34bd 2412 d0bd 80c3 80be
00000170: 8713 80be 0ad6 abbe 019f 7b3e 526a 463e
00000180: 1e9d 62bd fcb2 833e b6a6 ca3d 31d0 b73d
00000190: 2a31 76be 6d0f f83d 5f2a 3bbe a294 14be
000001a0: ccd0 08be 643a 963e ab4e 603e 7b27 293e
000001b0: 0d7d c03d c98a 493e 3663 5f3e 37a0 cdbd
000001c0: e712 463d 9549 1fba 8d69 363e 7bbb a73b
000001d0: fcdd 533e b2ce 173d 4ef5 83bd 56f4 883e
000001e0: c18e fc3d 2fae 78be 02cb 323c 655f 5c3d
000001f0: 5c55 0ebe 9a6b 913e 6d88 43bb 0016 513d
00000200: 2f93 23be 0cb0 69be f8ab d13d 7af3 b43d
00000210: f3eb 483d 8270 f8bd d0c0 0ebe e0ee fabd
00000220: d218 a2be 79ec 90bd 10ab 8b3e dbc0 d53c
00000230: 972e 993e f770 d03d 6c00 b0bc f3fc 0ebe
00000240: 54a9 6c3c d341 90be a863 cf3c fdbe 3b3e
00000250: 9a37 b5bd 829f 6abe 2d2f 7cbe a67f 9c3e
00000260: beb1 913e 3db0 c1bd 6dea 01be f71f 863d
00000270: 1083 233d 6305 d2bd c5b6 a6be 4d22 0ebd
00000280: 4e5a 803e 3ffb 8b3d 351a 95bd 5058 88be
00000290: c64a 89be 3587 113e 1498 b73b 7a0b 1a3c
000002a0: 91b1 0a3e 36b6 a0bd cca3 6dbe fdd6 403d
000002b0: ac8f ca3d 32a3 c03b 9b77 2bbc 9f83 84be
000002c0: f21a 0a3e 45f9 70bc c76c 7ebe 4fbd 2d3c
000002d0: 6641 7d3d 54b2 8e3d bc3b 2c3d a27f 813e
000002e0: 9b08 a0be b3f3 80be 7aea 80be 4df7 063e
000002f0: d84d 283e 6687 55be 0fb9 aa3e fc20 aabc
00000300: 3976 2a3c a179 06be 7ae9 493e 6e8b c1bd
00000310: 3e57 2d3e 86c1 f4bd 1a47 773e 383c 9d3e
00000320: 049b 5abe 418f b2bb 6e9c 3d3e 3d83 de3c
00000330: 6124 7a3e bceb 3fbe 63dc dabd 5866 e43c
00000340: d427 83be 7382 59be 6263 9a3e 75ce 863d
00000350: 880a 4e3d 6a14 86be 2700 7cbe 430f 943e
00000360: 131a 063d 31f4 31bd 84bb 9cbe 8474 a83e
00000370: 9576 763e e185 a6be 3db1 6c3e 553f 823e
00000380: 08a5 f03c bf7c ac3d e5a5 843d d51b 2dbe
00000390: 5efb e5bd 10e2 abbe b50c abbb 9384 a23e
000003a0: 9603 d13d 1490 a03e 619e 76be d3fb 99be
000003b0: 3a5e 523d 1da5 343e 6bcf dcbd 0732 13be
000003c0: 1d16 a8bd d5b1 91bd 9582 72bd 6b08 1bbe
000003d0: 45d7 533e 627b ab3e 3c20 f83c 2b94 543e
000003e0: d6eb 0d3e 37a1 813d a31d 74bd 1dcb 2cbe
000003f0: 0ef8 833e 967c f63d 3bac 613c e689 2d3d

pool1.select.weight f4 [1, 32]
0.01980452 0.069947384 0.08151031 0.10403541 -0.016887272 -0.072393976 -0.14743038 0.09797952
-0.11980037 -0.13913329 0.1376782 -0.15269695 0.02494309 -0.13314858 0.03362442 0.16209845
-0.09598959 -0.052354377 0.08505807 0.0520441 0.12122424 -0.12964307 0.09726497 -0.16210297
0.075420566 -0.0951723 -0.004741865 0.1526968 0.08474935 0.10279135 -0.08559304 0.036794357
00000000: 173d a23c 9340 8f3d e1ee a63d 8410 d53d
00000010: 2d57 8abc 4b43 94bd fdf7 16be 7da9 c83d
00000020: e559 f5bd f578 0ebe 84fb 0c3e 975c 1cbe
00000030: 7355 cc3c 1a58 08be c3b9 093d 23fd 253e
00000040: 3196 c4bd 8b71 56bd ed32 ae3d 322c 553d
00000050: 6a44 f83d 27c1 04be db32 c73d 52fe 25be
00000060: 1976 9a3d b2e9 c2bd a661 9bbb 8d5c 1c3e
00000070: 1191 ad3d 4584 d23d 674b afbd aeb5 163d

n2.0.weight f4 [8, 116]
-0.035015773 0.08996995 -0.011535603 0.05094631 -0.0019445957 -0.047469087 -0.02048591 -0.06878992
0.031925395 -0.07049516 -0.020724129 -0.05369168 -0.053281635 -0.058930933 -0.03950278 -0.052806914
0.060788225 0.04120321 -0.048837893 -0.038066998 -0.039102376 0.039482377 -0.0064246105 0.042057388
0.06742092 -0.054395724 0.05238948 0.059038285 0.04364081 -0.005561047 -0.04889779 0.05176942
-0.06317424 -0.001810921 -0.046654884 0.00019765511 -0.04717368 0.08280826 -0.021658197 0.00097249413
-0.071798496 -0.011993467 -0.031171069 -0.042904783 0.05962609 0.0013396208 0.026694935 -0.028190006
0.07354734 -0.02673187 0.032980084 0.011000951 0.00036915997 -0.029677277 0.00387285 -0.0016214108
-0.039155457 0.01486812 -0.03818776 -0.04464986 -0.0060667824 0.0012482185 0.08439369 4.2838856e-05
0.0069436785 -0.049100187 0.047080956 0.021084882 -0.026945652 -0.0037994809 0.027574122 0.0733772
-0.03288754 -0.032593343 -0.020870782 -0.030717306 -0.026692078 0.050574277 -0.0014698227 -0.03183474
0.0013058849 -0.06582118 0.038030803 0.016150182 0.04694564 -0.033725623 0.014040787 0.01387405
0.030169845 -0.03727021 -0.058826067 0.08659128 0.00048615038 0.0009214972 -0.01298503 -0.06685498
-0.011644939 0.025791027 0.026164638 0.0029180537 0.005546399 0.051067304 0.039684888 -0.058468383
-0.04466242 0.008642213 -0.021815171 -0.014391004 0.021416748 -0.044412125 0.046763 0.021842593
0.0829526 -0.026621757 0.055943485 0.026037447 -0.0010924432 -0.028854076 -0.04848205 -0.046224225
-0.06300842 0.070064515 -0.039276056 0.06972806 -0.0033906484 -0.053556997 0.001253846 -0.00261244
0.058596052 0.046348795 0.022247272 0.046233043 0.0012160852 -0.0018218103 -0.0028793954 -0.00505228
0.040344074 -0.05587521 -0.023713727 -0.030682018 -0.060637463 0.0059703155 0.02973535 0.044002846
0.08752494 0.060001343 -0.03781693 -0.018808354 -0.043127123 0.0058882935 0.08413825 0.03412965
0.08049258 0.0009026708 -0.04417115 0.030958658 -0.03984946 0.054528292 0.036281854 0.013898814
-0.011591219 -0.06635179 -0.049503244 0.067002326 -0.063567415 0.03912577 0.0054430286 0.072481275
-0.0032351806 -0.010003561 -0.05154566 0.00784437 0.026283598 -0.06571064 0.061588828 -0.050371952
0.0027339135 0.005568085 -0.06313131 -0.0027879833 0.02514029 0.061582208 -0.0025050987 -0.068945475
0.08392969 0.06345822 -0.0011387882 0.08486871 0.041823138 0.07842188 0.001595271 -0.069887556
-0.0077955383 -0.025339797 0.06351096 0.05598873 0.0405726 0.067132995 0.0067626177 -0.0021680926
0.07100661 0.066556826 0.02290557 -0.037975878 0.06298625 -0.002032766 -0.024729459 -0.06785263
-0.06694183 0.031148363 0.036210246 -0.02396094 0.073479116 -0.054756988 0.0023446612 -0.049743276
-0.03913491 -0.0008723606 0.044972427 -0.06939363 -0.017035177 0.045009065 0.023832895 0.0684306
-0.0638121 -0.02664458 -0.057134844 0.06382926 -0.035991613 0.021395732 -0.04524436 0.04526713
0.07226443 0.08290523 0.018278452 -0.0066940226 -0.010791523 0.02769088 -0.007803563 0.01790052
-0.002656989 0.03307536 -0.04755858 0.024805713 0.047327485 0.061787482 0.0035002762 -0.023441331
-0.008227892 -0.005471403 -0.015112212 -0.008044726 0.00026634955 0.069108754 -0.06719825 0.07727249
00000000: b36c 0fbd 2a42 b83d d3ff 3cbc 14ad 503d
00000010: cee1 feba f26e 42bd 11d2 a7bc bbe1 8cbd
00000020: 34c4 023d c45f 90bd a6c5 a9bc cfeb 5bbd
00000030: d83d 5abd 9061 71bd abcd 21bd 104c 58bd
00000040: 13fd 783d b2c4 283d 3e0a 48bd 24ec 1bbd
00000050: d029 20bd 46b8 213d 8a85 d2bb 5e44 2c3d
00000060: fb13 8a3d 0dce 5ebd 5a96 563d 21d2 713d
00000070: b5c0 323d 7139 b6bb 0d49 48bd 2c0c 543d
00000080: 7f61 81bd 6d5c edba 3119 3fbd a441 4f39
00000090: 3039 41bd 6197 a93d 886c b1bc faee 7e3a
000000a0: 170b 93bd 3f80 44bc 785a ffbc edbc 2fbd
000000b0: 7d3a 743d 3796 af3a 56af da3c baee e6bc
000000c0: fd9f 963d cbfc dabc 2016 073d 553d 343c
000000d0: d08b c139 c31d f3bc a4cf 7d3b 8585 d4ba
000000e0: 7961 20bd 6a99 733c c56a 1cbd c6e2 36bd
000000f0: dccb c6bb 439b a33a 99d6 ac3d dfad 3338
00000100: cc87 e33b 471d 49bd f6d7 403d 34ba ac3c
00000110: 21bd dcbc b600 79bb 20e3 e13c c946 963d
00000120: 16b5 06bd 9980 05bd 34f9 aabc dca2 fbbc
00000130: 58a9 dabc f926 4f3d 11a7 c0ba 2565 02bd
00000140: 3a2a ab3a 41cd 86bd 30c6 1b3d 634d 843c
00000150: 124a 403d e123 0abd 540b 663c fc4f 633c
00000160: c026 f73c a6a8 18bd 9af3 70bd c556 b13d
00000170: 00e2 fe39 a190 713a 2abf 54bc 44eb 88bd
00000180: 6aca 3ebc b447 d33c 3957 d63c d13c 3f3b
00000190: 91be b53b f32b 513d 9f8c 223d 8b7c 6fbd
000001a0: f1ef 36bd 1298 0d3c bbb5 b2bc 3fc8 6bbc
000001b0: 2d72 af3c 7de9 35bd 8f8a 3f3d 3def b23c
000001c0: 0ee3 a93d df15 dabc ff24 653d 7c4c d53c
000001d0: 5030 8fba 625f ecbc 1d95 46bd 9d55 3dbd
000001e0: 8f0a 81bd fc7d 8f3d eedf 20bd 96cd 8e3d
000001f0: a435 5ebb 955e 5bbd 1758 a43a 7835 2bbb
00000200: 6a02 703d 3cd8 3d3d e93f b63c dc5e 3d3d
00000210: 0c65 9f3a cfc9 eeba 3db4 3cbb 998d a5bb
00000220: d43f 253d 67dd 64bd 4a43 c2bc db58 fbbc
00000230: fd5e 78bd a3a2 c33b 8c97 f33c 543c 343d
00000240: 4740 b33d f8c3 753d ede5 1abd fa13 9abc
00000250: 11a6 30bd 96f2 c03b ad50 ac3d 88cb 0b3d
00000260: 4bd9 a43d 36a1 6c3a cfec 34bd 039d fd3c
00000270: 3039 23bd 0f59 5f3d 489c 143d dab7 633c
00000280: 19e9 3dbc 73e3 87bd eac3 4abd 8438 893d
00000290: a22f 82bd 5842 203d 6f5b b23b 1071 943d
000002a0: 5305 54bb fae5 23bc 8b21 53bd ac85 003c
000002b0: b350 d73c 4d93 86bd 9144 7c3d d252 4ebd
000002c0: 752b 333b 7b74 b63b fd4a 81bd 99b6 36bb
000002d0: 02f3 cd3c a03d 7c3d 952c 24bb 4933 8dbd
000002e0: 54e3 ab3d 62f6 813d 6443 95ba a5cf ad3d
000002f0: bd4e 2b3d a79b a03d 6a18 d13a 3521 8fbd
00000300: b771 ffbb 6895 cfbc 0912 823d 7054 653d
00000310: 742f 263d 067d 893d f398 dd3b 8f16 0ebb
00000320: ea6b 913d f24e 883d 76a4 bb3c 988c 1bbd
00000330: effe 803d 2738 05bb 6f95 cabc 52f6 8abd
00000340: cc18 89bd da2a ff3c 3251 143d bc49 c4bc
00000350: 387c 963d dd48 60bd e3a8 193b 9bbf 4bbd
00000360: ed4b 20bd 21af 64ba 0235 383d 3f1e 8ebd
00000370: 5b8d 8bbc 6d5b 383d 343d c33c 5825 8c3d
00000380: ebaf 82bd bc45 dabc 3a06 6abd eab8 823d
00000390: f16b 13bd 1a46 af3c 2652 39bd 076a 393d
000003a0: 60ff 933d 38ca a93d b1bc 953c 8859 dbbb
000003b0: eece 30bc fcd7 e23c 08b5 ffbb 1ca4 923c
000003c0: e120 2ebb 077a 073d c9cc 42bd 5a35 cb3c
000003d0: 77da 413d df14 7d3d e464 653b 0908 c0bc
000003e0: 48ce 06bc 7449 b3bb 3699 77bc 07ce 03bc
000003f0: d5a4 8b39 e488 8d3d 3c9f 89bd 0a41 9e3d
