Contrast/BrainGNN/save/model6.pth (torch, 403178 bytes, 30 tensors)

n1.0.weight f4 [8, 116]
0	0xbac93434	-0.0015350641
1	0xba1ef4fc	-0.0006063727
2	0xb7f65d9e	-2.936908e-05
3	0xba963f94	-0.001146304
4	0x3b9034ce	0.004400826
5	0x3c864c70	0.01639387
6	0x3d416cfa	0.04722307
7	0x3be43907	0.006964806
8	0x3da110dd	0.078645445
9	0xbb6fa2df	-0.0036565585
10	0xb9414612	-0.00018432018
11	0x3b2f5a2d	0.002675663
12	0x3d013fb3	0.03155489
13	0x3d94ac94	0.07259479
14	0xbb83344b	-0.0040040365
15	0x3d7f0f85	0.06227066
16	0x3bc211bb	0.005922524
17	0xbb0361de	-0.0020047347
18	0xb9eaf5db	-0.00044815135
19	0x3cc0c007	0.023529066
20	0x3ca074f5	0.01958702
21	0x3ccceb2b	0.02501448
22	0x3cb79a6b	0.0224125
23	0xbbd008a6	-0.006348687
24	0xbb9c5a7d	-0.004771529
25	0xbb289b46	-0.0025727316
26	0xba5ffda2	-0.0008544569
27	0x3db13222	0.0865214
28	0xba540213	-0.0008087467
29	0x3bfca085	0.007709565
30	0xb904625c	-0.00012625143
31	0x3b33b714	0.0027422355
32	0xb9c405d1	-0.00037388367
33	0xbb55034c	-0.0032503186
34	0xb983c2e2	-0.00025131466
35	0x3d6ead1e	0.058270566
36	0xb93a64c2	-0.00017775877
37	0x3d8c5d35	0.06853715
38	0x3d2f277e	0.042762272
39	0xbab2b473	-0.00136341
40	0xbb20ff73	-0.0024566322
41	0xbbc972f4	-0.0061477367
42	0xb9817b90	-0.0002469686
43	0xba1b6e86	-0.000592925
44	0x3ad433b3	0.0016189724
45	0x3b19f096	0.0023489348
46	0x3c8e24ce	0.017351534
47	0xbb14811f	-0.002265997
48	0x3a30076c	0.0006714973
49	0xba7fc0d0	-0.00097562093
50	0x3c46a1ea	0.012123564
51	0xb9bae419	-0.0003564663
52	0xbb2b98a4	-0.002618351
53	0x3c1ff4e4	0.009762976
54	0x3d9ffffd	0.07812498
55	0xbb360584	-0.0027774284
56	0x3cabc640	0.020968556
57	0xbaa26450	-0.0012389515
58	0xb9968cc2	-0.00028715102
59	0x3991845a	0.00027755165
60	0xb934111e	-0.00017172514
61	0xbae6f4ad	-0.0017620526
62	0x3a82e081	0.000998512
63	0xb8a7af78	-7.995864e-05
64	0xb9f607e0	-0.00046926644
65	0x3645553e	2.9404905e-06
66	0xbb22f1f1	-0.0024863447
67	0xbb069aff	-0.0020539162
68	0xb924ebf4	-0.00015728158
69	0xbbc7a51a	-0.0060926797
70	0xbc081981	-0.008306862
71	0xbbc679f0	-0.0060570166
72	0x3d4fd366	0.050738715
73	0x3b4e58dc	0.003148607
74	0x3b168202	0.0022965674
75	0xb966b5ee	-0.00022002283
76	0xbb6a14db	-0.0035717997
77	0x3d9edfc2	0.07757522
78	0xbaa34aa1	-0.0012458154
79	0xba351173	-0.0006907202
80	0x3c67180d	0.014104855
81	0xba360f3f	-0.0006945021
82	0x3cd71e52	0.026259575
83	0xbad8b904	-0.0016534631
84	0xb9c8ea9d	-0.00038321773
85	0xbb41c717	-0.002956813
86	0x3d16405b	0.036682468
87	0xbbd19461	-0.006395862
88	0x3c8dedf1	0.017325373
89	0xb80d6167	-3.3707733e-05
90	0xb916ceea	-0.00014382196
91	0xba726ece	-0.00092480786
92	0xbb9d1a8f	-0.004794426
93	0xbb1ad1f2	-0.0023623672
94	0x3d5f34d4	0.05449374
95	0xbad12001	-0.0015954972
96	0x3dd2460a	0.10267265
97	0xb9a6da91	-0.00031824832
98	0x3d676131	0.056489173
99	0x3cfc30d3	0.030785
100	0x3d7ac2a4	0.06122078
101	0xbbd47e63	-0.006484793
102	0xbaf1ae9a	-0.0018438876
103	0xbbf55cef	-0.007487885
104	0x3d302710	0.043006003
105	0x3d7a4ee4	0.061110392
106	0xba446702	-0.0007492156
107	0xb88eca06	-6.8087174e-05
108	0xbbf4193f	-0.0074492986
109	0xba159017	-0.000570537
110	0x3d600b32	0.054698177
111	0x3d9d1b50	0.07671225
112	0xbb21d97d	-0.0024696284
113	0x3d7fee6e	0.062483244
114	0x3dfb5694	0.12272373
115	0xb9cd8058	-0.0003919627
116	0x3d231566	0.03981533
117	0xba33caf6	-0.00068585516
118	0x3d6989fd	0.05701636
119	0xbb526248	-0.0032102037
120	0xbad2ac72	-0.0016073121
121	0x3d1209c6	0.035653852
122	0x3caacae6	0.020848703
123	0xb969b792	-0.00022288997
124	0x3c3272ed	0.010891658
125	0xb9f7c0f7	-0.0004725528
126	0xb9ff4499	-0.000486885
127	0x3b034273	0.002002862
128	0x3d6f914b	0.05848817
129	0x3d39b9c0	0.04534316
130	0xbb81e61f	-0.0039642
131	0x3d503655	0.050833065
132	0xbb20a366	-0.0024511456
133	0x3c1609b8	0.009157591
134	0x3d4b3703	0.04961301
135	0x3d2e9561	0.042622928
136	0x3d379828	0.044822842
137	0xbbd5c8ca	-0.00652418
138	0xbb222302	-0.0024740105
139	0xbb897e96	-0.0041959984
140	0x3aa96abc	0.0012925486
141	0xba7f0cb6	-0.0009729372
142	0xbb45975a	-0.0030150027
143	0x3be6de32	0.0070455307
144	0x3bc4200b	0.005985265
145	0x3c84646e	0.01616117
146	0x3c3bccff	0.011462449
147	0x3bd07592	0.0063616717
148	0xbb8c4c8d	-0.0042815865
149	0x3da5eb5b	0.08101531
150	0x3d2bae77	0.04191443
151	0xb7f358bc	-2.9009178e-05
152	0xbb2e88db	-0.0026631865
153	0xbb7ef137	-0.00389011
154	0xb9862f6e	-0.0002559381
155	0xbb3102cf	-0.002700973
156	0xbb7c3fb2	-0.0038490114
157	0x3d151a58	0.036402076
158	0x3bc8e44a	0.00613073
159	0xbaf714f4	-0.0018850849
160	0xba4b661f	-0.00077590527
161	0xba51d008	-0.00080037164
162	0x3d80a6e1	0.062818296
163	0x3d5bc60e	0.053655677
164	0x3c46efca	0.012142131
165	0xb4003112	-1.193878e-07
166	0xbb55f731	-0.0032648558
167	0xbacaf637	-0.0015484755
168	0x3d0ba001	0.03408814
169	0x3df1ae66	0.11800842
170	0x3d96280d	0.07331858
171	0xb8b9b51a	-8.85522e-05
172	0xba8dc9d0	-0.0010817591
173	0xbac30a5f	-0.001488041
174	0xbb3fc432	-0.0029261229
175	0x3c15e25b	0.009148206
176	0xbb441811	-0.0029921571
177	0x3be1bd98	0.0068890564
178	0x3b8f4a47	0.004372868
179	0xba180465	-0.00057989947
180	0x3c9715d0	0.018443018
181	0x3c47260a	0.012155065
182	0xba6cf86d	-0.0009039704
183	0xbb09b1e7	-0.002101058
184	0xba65660f	-0.00087508647
185	0x3d185832	0.037193485
186	0xbb49ce5d	-0.0030793168
187	0xbb19fd4d	-0.0023496926
188	0x3d63e0ee	0.05563443
189	0xba01f5ea	-0.00049576035
190	0x3d9e9005	0.07742313
191	0x3e278feb	0.16363494
192	0x3bf39d67	0.0074345353
193	0x3d97f3d6	0.07419555
194	0xbaf5518d	-0.0018716321
195	0xbb0eae9a	-0.002177155
196	0xbb8a3611	-0.004217871
197	0x3c180297	0.009277961
198	0x3d6a71bd	0.057237376
199	0x3c005d4b	0.007834743
200	0xba2b9284	-0.0006544965
201	0xbba4b137	-0.0050260085
202	0x3bb5d8c7	0.0055495235
203	0x3d0c091b	0.03418837
204	0xbbda8609	-0.0066688103
205	0xba6d55ce	-0.00090536184
206	0x3cf6818b	0.030091068
207	0xbb868b11	-0.0041059335
208	0xbbcd3f8e	-0.00626368
209	0xbbfc22ec	-0.0076945927
210	0x3d59234a	0.05301217
211	0x3c1a0f66	0.009403085
212	0x3dd5e108	0.10443312
213	0x3caa830b	0.02081444
214	0x3cc68923	0.024235314
215	0x3d245403	0.040119182
216	0xbabbdce9	-0.0014332804
217	0x3bf3e9af	0.0074436287
218	0xbb793405	-0.003802539
219	0x3dac0c92	0.08400835
220	0x3da4a343	0.08038952
221	0xbc0e6fa2	-0.0086936075
222	0xb985a818	-0.00025492976
223	0xb8c1296a	-9.210671e-05
224	0xbb4f3cc2	-0.0031621908
225	0x3bab74f0	0.005232446
226	0x3c88f1a2	0.016716782
227	0xbb49b1b9	-0.0030776097
228	0xba7e9aee	-0.00097124174
229	0xb9a26dda	-0.00030980894
230	0x3c5aee07	0.013362414
231	0xbb3df8d3	-0.0028987422
232	0xbab98a39	-0.0014155573
233	0xbb915fa9	-0.0044364524
234	0xbaef57cf	-0.0018260422
235	0xbac4eada	-0.0015023605
236	0xbb45cc15	-0.0030181457
237	0xbb1b7656	-0.0023721657
238	0x3c172f44	0.009227578
239	0x3c1a1233	0.009403753
240	0x3d76c7a7	0.060248997
241	0xba5741c1	-0.0008211397
242	0x3d9f59ff	0.07780837
243	0xbaab8e46	-0.0013088665
244	0xbb5d5cd5	-0.0033777256
245	0xb8e6bb08	-0.00011002092
246	0x3d3b0a6a	0.04566423
247	0x3d5efb47	0.054438855
248	0x3bd0e688	0.0063751377
249	0xbb8fb56a	-0.00438564
250	0x3c2f2bb8	0.010691576
251	0xbacd862a	-0.0015680243
252	0xba60a3c7	-0.00085693266
253	0x3d801685	0.06254295
254	0x3c59a09c	0.013282921
255	0x3c520457	0.0128184175

n1.2.weight f4 [7040, 8]
0	0x3e3d8030	0.18505931
1	0x3db07371	0.08615769
2	0xbe23e2d1	-0.16004492
3	0x3d3a3e12	0.04546935
4	0x3e34a0b0	0.17639422
5	0xbe57d0fd	-0.21075816
6	0xbad91ff9	-0.0016565315
7	0x3e1840ba	0.14868441
8	0x3cad1303	0.02112723
9	0xbd5dff7d	-0.05419873
10	0x3e2bc1b3	0.16773109
11	0x3c8ae7ea	0.016956288
12	0x3d2ba7b8	0.041907996
13	0xbc036958	-0.008020721
14	0xbe12a51e	-0.143208
15	0x3d97fa3b	0.074207745
16	0x3b61b104	0.0034437785
17	0xbb89d24c	-0.0042059775
18	0xbe425710	-0.18978524
19	0x3ca5d570	0.020243376
20	0x3c4a8e8a	0.0123630855
21	0x3e2553af	0.16145204
22	0x3d462bb8	0.048381537
23	0x3d06e9b7	0.03293773
24	0x3e3bd0c3	0.18341355
25	0xbc1492c1	-0.009068192
26	0x3e2fb281	0.17157938
27	0xbe087708	-0.13326657
28	0xbd35356d	-0.044240404
29	0x3df06d94	0.1173965
30	0xbab12cc3	-0.0013517368
31	0x3d9db699	0.07700843
32	0xbd40c016	-0.047058187
33	0x3e0cd94a	0.13754764
34	0xbd35f312	-0.044421263
35	0x3e5a3eb1	0.21312977
36	0x3dd6aad1	0.104817994
37	0xbcdf4c8c	-0.02725818
38	0x3e52c99a	0.20584717
39	0xbb91dd0e	-0.0044514006
40	0xbc05a65d	-0.00815734
41	0xbc633850	-0.013868406
42	0xbe401872	-0.18759325
43	0xbb1371e8	-0.0022498313
44	0x3d162fde	0.036666743
45	0xbd437c19	-0.04772577
46	0x3d180b6f	0.03712028
47	0xbd3760d5	-0.04477008
48	0xbb160dfb	-0.0022896517
49	0x3d6e5023	0.058181893
50	0x3dce5c95	0.10076252
51	0xbd9fb9f6	-0.07799141
52	0x3d4b31dd	0.0496081
53	0xbe01d885	-0.12680252
54	0x3e1f8a40	0.15580082
55	0x3e36882c	0.17825383
56	0xbcb88a29	-0.022526817
57	0x3bd2408a	0.006416385
58	0x3e4aed3c	0.1981706
59	0x3b0f9f1c	0.0021914905
60	0xbd40f0af	-0.047104534
61	0x3a86db50	0.0010288749
62	0xbdd96a78	-0.106160104
63	0xbe584a9c	-0.21122211
64	0x3beed23e	0.0072882464
65	0x3cc3b8b4	0.023891784
66	0x3e0fe435	0.14051898
67	0xb7546695	-1.2660069e-05
68	0x3e1018a3	0.14071898
69	0x3c7bafbb	0.015361722
70	0xbc23bfd0	-0.009994462
71	0x3cccae14	0.02498535
72	0x3e2ba3aa	0.16761652
73	0x3e392d8a	0.18083778
74	0xbe48fd95	-0.19627984
75	0xba8cb30c	-0.0010734512
76	0x3b2422d5	0.0025045176
77	0xbb6afe6e	-0.0035857218
78	0xbd8b4303	-0.06799891
79	0x3e54bf2e	0.20776054
80	0x3b330471	0.002731588
81	0x3cc48788	0.023990408
82	0xbd324a66	-0.043527983
83	0x3936e934	0.00017443747
84	0x3e38e0fb	0.18054573
85	0xbdbd6885	-0.09248451
86	0x3a58b988	0.00082673924
87	0xbc0376dc	-0.008023944
88	0xbbc331f6	-0.0059568835
89	0x3e583ca0	0.21116877
90	0x3be2b0c5	0.006918045
91	0x3e19d020	0.150208
92	0xbdf50099	-0.119630046
93	0x3deb20ca	0.114808634
94	0x3b892b75	0.0041860887
95	0x3b143a16	0.002261763
96	0x3dc7e1c7	0.097598605
97	0x3dac8dc8	0.0842548
98	0xbdebdf3c	-0.11517188
99	0xbe4298e0	-0.1900363
100	0x3dd3d40a	0.103431776
101	0xbcd8f0a2	-0.02648193
102	0xbe2a93e0	-0.16657972
103	0xbd33f9a0	-0.043939233
104	0x3d90960f	0.070598714
105	0xbe56cfa5	-0.20977648
106	0x3e250dde	0.16118571
107	0x3e34c63d	0.17653747
108	0x3e0b8d90	0.1362822
109	0x3e04a743	0.1295443
110	0xbc16d7fd	-0.009206769
111	0xbe5242a7	-0.20533238
112	0x3d50a832	0.050941654
113	0x3bb75ba7	0.0055956426
114	0xbe04a0e1	-0.12951995
115	0xbde47987	-0.11155992
116	0x3e11b0f2	0.14227656
117	0x3e0bcc87	0.1365224
118	0xbc9c9a63	-0.019116586
119	0xbcca83a3	-0.024720972
120	0xbe1cf390	-0.15327287
121	0xbc0395a9	-0.008031287
122	0x3e347368	0.17622149
123	0x3de70485	0.11280159
124	0x3c593f09	0.013259658
125	0x3c467545	0.01211292
126	0x3c09e6d8	0.008416854
127	0x3d05e731	0.032691184
128	0x3e10a171	0.14124085
129	0x3d70eace	0.058817677
130	0x3ba36ca3	0.0049873157
131	0xbc28f660	-0.010312647
132	0xbc7b9cc8	-0.015357204
133	0xbbad6b10	-0.005292304
134	0xbbdfabb9	-0.006825891
135	0xbc3f5aaf	-0.0116793355
136	0xbbe82907	-0.007084969
137	0xbe0016cb	-0.12508695
138	0xbc1ee674	-0.009698499
139	0xbc5a29a6	-0.013315594
140	0x3d2fefa9	0.042953167
141	0xbc3c9ae9	-0.011511543
142	0x3d143274	0.03618093
143	0x3e0758f2	0.13217524
144	0xbc04b327	-0.008099354
145	0x3da9f143	0.0829797
146	0xbe0dc8fe	-0.13846204
147	0x3d49b36c	0.049243376
148	0x3e15ec32	0.14640883
149	0xbe227b03	-0.15867238
150	0xbd5eac29	-0.054363403
151	0xbd32e581	-0.043675903
152	0xbd8d801d	-0.06909201
153	0xbe489592	-0.19588307
154	0xbdc04791	-0.0938865
155	0xbe57bef0	-0.2106893
156	0x3b964f11	0.004587062
157	0xbda5efcd	-0.08102379
158	0xbc9240e0	-0.0178532
159	0xbbb6ba50	-0.0055764094
160	0x3dc878e8	0.09788686
161	0xbc426593	-0.0118650375
162	0x3da0f5c1	0.07859374
163	0xbbd12b78	-0.0063833557
164	0xbe4638b5	-0.1935757
165	0x3e2f928a	0.17145744
166	0x3dbde7b4	0.092727095
167	0xbdd3dfea	-0.103454426
168	0xbe4552bc	-0.19269842
169	0x3b502784	0.0031761834
170	0xbcc0f404	-0.023553856
171	0x3e0e1567	0.13875352
172	0x3ca87026	0.020561289
173	0xbe1ed217	-0.1550983
174	0x3d985ff3	0.07440176
175	0x3e2bfb28	0.16795027
176	0x3e12cda2	0.14336255
177	0x3e5cf1aa	0.21576563
178	0x3e3e91d1	0.18610312
179	0xbe422e8f	-0.18963073
180	0xbd1634fa	-0.036671616
181	0xbcaafcb4	-0.020872451
182	0x3e30228f	0.17200683
183	0xbb164745	-0.0022930664
184	0x3b8b62d3	0.004253724
185	0xbddc6fb0	-0.1076349
186	0xbe44584c	-0.19174308
187	0x3a862f9c	0.0010237577
188	0xbcada497	-0.021196647
189	0xbc7cd6bd	-0.015432057
190	0x3d4d6770	0.050147474
191	0xbdcfd523	-0.101480745
192	0x3dcbc009	0.09948737
193	0x3d969828	0.0735324
194	0x3d19b27d	0.037523735
195	0xb98b8346	-0.00026609952
196	0xbe0ef197	-0.13959347
197	0xbba03e82	-0.004890264
198	0xbe10ddf5	-0.1414717
199	0x3e32b248	0.17450821
200	0x3b6b5fd8	0.0035915282
201	0x3b88d96f	0.0041763107
202	0x3e1e5da1	0.15465404
203	0x3d48a64a	0.04898671
204	0xbcbb0f29	-0.022834377
205	0x3b21e9d2	0.0024706018
206	0xba1cdf83	-0.00059842336
207	0xbe1509bf	-0.14554499
208	0xbda9d704	-0.08292964
209	0x3db09f2f	0.08624112
210	0x3e3dfc40	0.18553257
211	0xbc7e5399	-0.015522861
212	0x3b1c2f17	0.0023831779
213	0xbe379f63	-0.17931895
214	0x3e00b142	0.12567618
215	0xbda60fe5	-0.081085004
216	0xbd697489	-0.056995902
217	0x3d377ff9	0.04479978
218	0xbc5878e8	-0.01321242
219	0x39a7f51b	0.0003203534
220	0x3dfc8a27	0.12331038
221	0xbd83fbfc	-0.064445466
222	0x3e47b8a6	0.19504032
223	0x3c2c3906	0.010511642
224	0xbcb7d944	-0.022442468
225	0x3d860ef9	0.065458246
226	0xbd71918c	-0.058976695
227	0xbdbd8b33	-0.09255066
228	0x3bd7cf83	0.0065860166
229	0x3a5b7b13	0.00083725265
230	0x3e5a10d9	0.2129549
231	0x3a9b14f6	0.0011831808
232	0x3e1462d8	0.14490831
233	0x3e31c37b	0.17359726
234	0xbe55f1e6	-0.20893058
235	0x3ca90baa	0.020635445
236	0x3e2d8444	0.16944987
237	0x3c1f081d	0.009706524
238	0xbca70b82	-0.02039123
239	0x3d997907	0.07493787
240	0xbe440089	-0.19140829
241	0x3e45209a	0.19250718
242	0x3e37b6c0	0.17940807
243	0x3acfd45d	0.0015856136
244	0x3cd4c26a	0.02597161
245	0x3be7977d	0.0070676194
246	0x39dca948	0.00042087794
247	0xbdfc5761	-0.12321354
248	0x3d266544	0.04062392
249	0x3d8af787	0.06785493
250	0xbd0d7bb9	-0.03454182
251	0xbe303888	-0.17209065
252	0xbd766e96	-0.060164057
253	0x3df8cbb0	0.12148225
254	0x3d823f20	0.063596964
255	0x3e3074d9	0.17232074

n1.2.bias f4 [7040]
0	0xbe7e4e53	-0.24834566
1	0xbdf1ea50	-0.1181227
2	0xbdfeda16	-0.1244394
3	0xbe364a18	-0.17801702
4	0xbe866202	-0.2624665
5	0xbe8f2530	-0.2795806
6	0xbe068aca	-0.13138881
7	0x3e46e54a	0.19423404
8	0x3da334b4	0.07969037
9	0xbce5a811	-0.028034242
10	0xbe040aa1	-0.1289468
11	0x3e09c5ca	0.13454357
12	0x3e0cfb8c	0.13767833
13	0x3e3636d2	0.1779435
14	0xbe31a937	-0.17349707
15	0x3ce8dbfe	0.028425213
16	0x3dbc99f9	0.092090555
17	0x3bef24e0	0.007298097
18	0x3d2dbdd2	0.042417355
19	0x3e4980e4	0.19678074
20	0x3e3a47ff	0.18191527
21	0x3d4bff0e	0.049803786
22	0x3e1d0557	0.15334068
23	0x3ded6174	0.11590853
24	0xbe0162ec	-0.12635392
25	0xbdfb6015	-0.122741856
26	0xbe2acb21	-0.1667905
27	0x3cb9a4a1	0.022661509
28	0x3d4b9a4c	0.049707696
29	0xbe3a2a50	-0.18180203
30	0x3e7ae3f5	0.24501021
31	0xbe8bec24	-0.27328598
32	0x3d344aef	0.044016775
33	0xbd51a3d5	-0.051181633
34	0x3e6db693	0.23214178
35	0x3e14bb0a	0.14524475
36	0x3e277d83	0.16356473
37	0x3e1cf363	0.1532722
38	0x3e4cf027	0.20013486
39	0x3db5ed06	0.08883099
40	0xbdc8ccb4	-0.09804669
41	0xbbddce76	-0.006768997
42	0xbe1c4340	-0.15260029
43	0x3cea055c	0.028567009
44	0x3e14960b	0.14510362
45	0x3e40631e	0.1878781
46	0xbd6c1e8b	-0.057646316
47	0x3e2c0dbb	0.16802113
48	0xbca65170	-0.020302504
49	0x3dac9144	0.08426145
50	0x3d110bd9	0.03541169
51	0xbdce76da	-0.10081263
52	0x3e2bdc17	0.16783176
53	0xbe67d032	-0.22638014
54	0x3d4e0e94	0.05030687
55	0xbdb972dc	-0.09055111
56	0x3df45d70	0.11931884
57	0xbe59c265	-0.21265562
58	0xbc970737	-0.018436057
59	0x3d08aced	0.03336804
60	0xbe87503f	-0.2642841
61	0xbdf92b1a	-0.12166424
62	0xbd9f43eb	-0.07776626
63	0xbe15e577	-0.14638315
64	0x3e71a525	0.23598154
65	0x3e4e5f5d	0.20153566
66	0x3e4694da	0.1939272
67	0xbe48a69b	-0.19594805
68	0x3d8b645a	0.0680625
69	0xbe6fe098	-0.2342552
70	0xbe0059cb	-0.12534253
71	0xbdd859db	-0.105640136
72	0x3e699046	0.22808942
73	0x3e5e6774	0.21719152
74	0x3abd7e4f	0.0014457199
75	0xbdcb3a0e	-0.099231824
76	0xbe787a97	-0.24265514
77	0x3dac7d23	0.084223054
78	0xbe07e673	-0.13271503
79	0x3e2aca7d	0.16678806
80	0xbe04299e	-0.129065
81	0xbe75a99b	-0.2399048
82	0x3d84d66a	0.06486209
83	0x3d60231d	0.054720987
84	0x3e7cd9b7	0.24692427
85	0xbdf943fa	-0.121711686
86	0x3d2ff614	0.042959288
87	0xbe3e3626	-0.18575343
88	0x3e27b183	0.16376309
89	0xbd089e70	-0.033354223
90	0xbdd018d7	-0.10160988
91	0x3d0ebf3c	0.034850344
92	0x3e5b40b7	0.21411406
93	0x3e63da52	0.22251251
94	0x3d657714	0.056021765
95	0x3a1e948c	0.0006049357
96	0x3e0a9cf0	0.1353643
97	0xbe01cb79	-0.12675275
98	0xbe85e12e	-0.2614836
99	0x3d28973b	0.04115985
100	0xbde56901	-0.112016685
101	0xbe486e77	-0.19573389
102	0xbe7672a0	-0.24067163
103	0xbe48ec44	-0.19621378
104	0xbe7b60fc	-0.24548715
105	0x3d39a7ab	0.045325916
106	0x3d3b1ebc	0.045683607
107	0xbe5fea2a	-0.2186667
108	0x3e3de00f	0.18542503
109	0xbd93b226	-0.072117135
110	0x3ce3c1db	0.027802398
111	0xbe89f340	-0.26943398
112	0x3e507518	0.20357168
113	0x3e1fe454	0.15614444
114	0xbe33f0c0	-0.17572308
115	0x3e1e0c24	0.15434319
116	0xbe04252e	-0.12904808
117	0xbe3f42d4	-0.18677837
118	0xbe6d2521	-0.23158695
119	0xbd59720a	-0.05308727
120	0x3e8b4652	0.27202088
121	0x3e0d46cb	0.13796537
122	0x3e85572f	0.26043078
123	0xbe46ca93	-0.19413213
124	0x3d1417ff	0.036155697
125	0x3c9e03d8	0.019288942
126	0x3e139174	0.14410955
127	0xbd8227b8	-0.06355232
128	0x3c2bab9f	0.010477929
129	0x3ddce252	0.10785355
130	0xbd08d61b	-0.033407312
131	0x3dbe8b69	0.09303934
132	0x3da6e0b9	0.08148331
133	0x3e7e0101	0.2480507
134	0xbe73b3e8	-0.23799098
135	0x3e604ab4	0.21903497
136	0x3daf95d8	0.08573502
137	0xbe034444	-0.1281901
138	0xbde5232e	-0.111883506
139	0x3da433dc	0.08017704
140	0xbd43f948	-0.047845155
141	0x3c9758a3	0.018474882
142	0x3de34ebc	0.11099002
143	0x3d7f4cb9	0.062329028
144	0x3d56a5d9	0.05240426
145	0xbe135b50	-0.14390302
146	0x3e06b8d6	0.13156447
147	0xbc839f08	-0.016067043
148	0xbe759b96	-0.23985133
149	0x3e6b42ef	0.22974752
150	0xbcb66413	-0.022264516
151	0xbe74eef5	-0.2391928
152	0xbd774356	-0.06036695
153	0x3e680c6a	0.22660986
154	0xbdc4758c	-0.09592733
155	0x3d0540fa	0.03253267
156	0xbe859cce	-0.26096195
157	0x3e31ac7c	0.17350954
158	0x3e28c214	0.16480285
159	0x3e557fc9	0.20849527
160	0x3e22984d	0.1587841
161	0x3e8df68f	0.27727172
162	0xbdd927c1	-0.106032856
163	0xbc6ed096	-0.014576098
164	0x3ba5a2f5	0.0050548264
165	0xbd8d9d50	-0.069147706
166	0x3e11e118	0.14246023
167	0x3d056649	0.03256825
168	0xbdcc7f78	-0.0998525
169	0x3e685144	0.2268725
170	0xbe13d4f2	-0.14436701
171	0x3e052f85	0.13006409
172	0x3deb180e	0.114791974
173	0xbe4b49d9	-0.1985239
174	0x3d422b2d	0.047404457
175	0xbe1c5508	-0.15266812
176	0x3d12a5b1	0.035802547
177	0xbd8a6c47	-0.067589335
178	0x3e6bf62b	0.23043124
179	0xbb10ef4d	-0.002211529
180	0xbe53924b	-0.20661275
181	0xbe86b3ce	-0.26309055
182	0xbe41fc1f	-0.18943833
183	0x3dbd0c53	0.09230866
184	0xbe8626ce	-0.2620148
185	0xbde9b541	-0.114115246
186	0x3e58f602	0.21187595
187	0xbe7dd39f	-0.24787758
188	0x3dcee0b7	0.10101455
189	0x3e5637e0	0.20919752
190	0xbe1882b4	-0.1489361
191	0xbe5e0058	-0.21679819
192	0x3e3be092	0.18347386
193	0x3e8d3f58	0.2758739
194	0x3d71d8e6	0.05904474
195	0x3c5124a2	0.012765082
196	0x3d8af1fb	0.06784435
197	0xbe22e9e0	-0.15909529
198	0xbe095e94	-0.13414985
199	0x3ca9e341	0.020738246
200	0xbe676472	-0.2259691
201	0x3e151eaf	0.14562486
202	0x3e0543c2	0.13014129
203	0xbbf8bb96	-0.0075907214
204	0x3d40a636	0.04703351
205	0xbd1a09f8	-0.037607163
206	0x3e8415d0	0.25797892
207	0x3e8c65a6	0.27421302
208	0x3e5158a7	0.20443974
209	0xbd01d75f	-0.031699535
210	0xbdf00126	-0.11718969
211	0xbe480685	-0.19533737
212	0xbe7a46f5	-0.2444113
213	0xbe198fb0	-0.14996219
214	0x3da85b85	0.08220581
215	0x3e35f7b4	0.17770272
216	0xbcfd4d6b	-0.030920705
217	0xbe43173c	-0.19051832
218	0x3e84e27b	0.2595404
219	0xbe60a687	-0.21938525
220	0xbd5bc72e	-0.05365675
221	0xbe7a1097	-0.24420391
222	0xbdc874b9	-0.09787888
223	0x3e81559f	0.25260636
224	0x3e79ede9	0.24407162
225	0x3e80b1e3	0.25135717
226	0x3d90c408	0.0706864
227	0xbd1aae71	-0.037764017
228	0xbd76938a	-0.060199298
229	0xbe12c1ea	-0.14331785
230	0xbd03aa0d	-0.032144595
231	0x3e2b9478	0.16755855
232	0x3e2b1f0a	0.16711059
233	0xbdeed4a6	-0.11661653
234	0xbe03318a	-0.12811866
235	0x3db16e18	0.08663577
236	0xbdbe6d29	-0.092981644
237	0xbe8a1563	-0.26969442
238	0x3d3eace9	0.04655162
239	0x3caddf7d	0.021224732
240	0x3e44a428	0.19203246
241	0xbde4f811	-0.111801274
242	0x3e59e0df	0.21277188
243	0xbe57ca8d	-0.2107336
244	0x3d11b0b3	0.035568904
245	0xbdc2ba33	-0.09508171
246	0xbe523849	-0.20529284
247	0x3d08d481	0.033405785
248	0xbda5802e	-0.08081089
249	0x3d75a727	0.059973862
250	0xbd9d257d	-0.07673166
251	0x3e053dd8	0.13011873
252	0xbdd28ccc	-0.10280761
253	0xbe85403c	-0.2602557
254	0xbe144a50	-0.14481473
255	0xbd3135db	-0.04326425

conv1.bias f4 [32]
0	0xbce0f418	-0.027460143
1	0x3c2e0e22	0.010623487
2	0xbd60ae35	-0.054853637
3	0x3d05168e	0.032492213
4	0x3d865a17	0.06560152
5	0xbd1560ed	-0.03646939
6	0xbd2621a8	-0.04055944
7	0xbbff888d	-0.0077982605
8	0x3bf6acb3	0.0075279116
9	0x3d80cc2e	0.06288944
10	0x3d44666f	0.04794925
11	0x3c83f848	0.0161096
12	0x3d88e583	0.06684401
13	0xbd716c4d	-0.058941174
14	0x3c43c6e2	0.011949273
15	0xbd1a94a3	-0.037739407
16	0xbd032652	-0.032018967
17	0x3c094d33	0.008380222
18	0xbcf093ed	-0.029367412
19	0x3d3b6337	0.045748916
20	0x3c5ca3f2	0.013466822
21	0x3d3df632	0.04637737
22	0xbc2b12a5	-0.010441457
23	0x3cd1d363	0.025613492
24	0xbd36e94b	-0.04465608
25	0x3d8a246b	0.067452274
26	0xbdb810c0	-0.0898757
27	0x3c909466	0.017648887
28	0x3cebc39e	0.028779801
29	0x3cfc91eb	0.030831298
30	0xbc4a5629	-0.012349644
31	0x3c0304f0	0.007996783

conv1.nn.0.weight f4 [8, 116]
0	0xbac93434	-0.0015350641
1	0xba1ef4fc	-0.0006063727
2	0xb7f65d9e	-2.936908e-05
3	0xba963f94	-0.001146304
4	0x3b9034ce	0.004400826
5	0x3c864c70	0.01639387
6	0x3d416cfa	0.04722307
7	0x3be43907	0.006964806
8	0x3da110dd	0.078645445
9	0xbb6fa2df	-0.0036565585
10	0xb9414612	-0.00018432018
11	0x3b2f5a2d	0.002675663
12	0x3d013fb3	0.03155489
13	0x3d94ac94	0.07259479
14	0xbb83344b	-0.0040040365
15	0x3d7f0f85	0.06227066
16	0x3bc211bb	0.005922524
17	0xbb0361de	-0.0020047347
18	0xb9eaf5db	-0.00044815135
19	0x3cc0c007	0.023529066
20	0x3ca074f5	0.01958702
21	0x3ccceb2b	0.02501448
22	0x3cb79a6b	0.0224125
23	0xbbd008a6	-0.006348687
24	0xbb9c5a7d	-0.004771529
25	0xbb289b46	-0.0025727316
26	0xba5ffda2	-0.0008544569
27	0x3db13222	0.0865214
28	0xba540213	-0.0008087467
29	0x3bfca085	0.007709565
30	0xb904625c	-0.00012625143
31	0x3b33b714	0.0027422355
32	0xb9c405d1	-0.00037388367
33	0xbb55034c	-0.0032503186
34	0xb983c2e2	-0.00025131466
35	0x3d6ead1e	0.058270566
36	0xb93a64c2	-0.00017775877
37	0x3d8c5d35	0.06853715
38	0x3d2f277e	0.042762272
39	0xbab2b473	-0.00136341
40	0xbb20ff73	-0.0024566322
41	0xbbc972f4	-0.0061477367
42	0xb9817b90	-0.0002469686
43	0xba1b6e86	-0.000592925
44	0x3ad433b3	0.0016189724
45	0x3b19f096	0.0023489348
46	0x3c8e24ce	0.017351534
47	0xbb14811f	-0.002265997
48	0x3a30076c	0.0006714973
49	0xba7fc0d0	-0.00097562093
50	0x3c46a1ea	0.012123564
51	0xb9bae419	-0.0003564663
52	0xbb2b98a4	-0.002618351
53	0x3c1ff4e4	0.009762976
54	0x3d9ffffd	0.07812498
55	0xbb360584	-0.0027774284
56	0x3cabc640	0.020968556
57	0xbaa26450	-0.0012389515
58	0xb9968cc2	-0.00028715102
59	0x3991845a	0.00027755165
60	0xb934111e	-0.00017172514
61	0xbae6f4ad	-0.0017620526
62	0x3a82e081	0.000998512
63	0xb8a7af78	-7.995864e-05
64	0xb9f607e0	-0.00046926644
65	0x3645553e	2.9404905e-06
66	0xbb22f1f1	-0.0024863447
67	0xbb069aff	-0.0020539162
68	0xb924ebf4	-0.00015728158
69	0xbbc7a51a	-0.0060926797
70	0xbc081981	-0.008306862
71	0xbbc679f0	-0.0060570166
72	0x3d4fd366	0.050738715
73	0x3b4e58dc	0.003148607
74	0x3b168202	0.0022965674
75	0xb966b5ee	-0.00022002283
76	0xbb6a14db	-0.0035717997
77	0x3d9edfc2	0.07757522
78	0xbaa34aa1	-0.0012458154
79	0xba351173	-0.0006907202
80	0x3c67180d	0.014104855
81	0xba360f3f	-0.0006945021
82	0x3cd71e52	0.026259575
83	0xbad8b904	-0.0016534631
84	0xb9c8ea9d	-0.00038321773
85	0xbb41c717	-0.002956813
86	0x3d16405b	0.036682468
87	0xbbd19461	-0.006395862
88	0x3c8dedf1	0.017325373
89	0xb80d6167	-3.3707733e-05
90	0xb916ceea	-0.00014382196
91	0xba726ece	-0.00092480786
92	0xbb9d1a8f	-0.004794426
93	0xbb1ad1f2	-0.0023623672
94	0x3d5f34d4	0.05449374
95	0xbad12001	-0.0015954972
96	0x3dd2460a	0.10267265
97	0xb9a6da91	-0.00031824832
98	0x3d676131	0.056489173
99	0x3cfc30d3	0.030785
100	0x3d7ac2a4	0.06122078
101	0xbbd47e63	-0.006484793
102	0xbaf1ae9a	-0.0018438876
103	0xbbf55cef	-0.007487885
104	0x3d302710	0.043006003
105	0x3d7a4ee4	0.061110392
106	0xba446702	-0.0007492156
107	0xb88eca06	-6.8087174e-05
108	0xbbf4193f	-0.0074492986
109	0xba159017	-0.000570537
110	0x3d600b32	0.054698177
111	0x3d9d1b50	0.07671225
112	0xbb21d97d	-0.0024696284
113	0x3d7fee6e	0.062483244
114	0x3dfb5694	0.12272373
115	0xb9cd8058	-0.0003919627
116	0x3d231566	0.03981533
117	0xba33caf6	-0.00068585516
118	0x3d6989fd	0.05701636
119	0xbb526248	-0.0032102037
120	0xbad2ac72	-0.0016073121
121	0x3d1209c6	0.035653852
122	0x3caacae6	0.020848703
123	0xb969b792	-0.00022288997
124	0x3c3272ed	0.010891658
125	0xb9f7c0f7	-0.0004725528
126	0xb9ff4499	-0.000486885
127	0x3b034273	0.002002862
128	0x3d6f914b	0.05848817
129	0x3d39b9c0	0.04534316
130	0xbb81e61f	-0.0039642
131	0x3d503655	0.050833065
132	0xbb20a366	-0.0024511456
133	0x3c1609b8	0.009157591
134	0x3d4b3703	0.04961301
135	0x3d2e9561	0.042622928
136	0x3d379828	0.044822842
137	0xbbd5c8ca	-0.00652418
138	0xbb222302	-0.0024740105
139	0xbb897e96	-0.0041959984
140	0x3aa96abc	0.0012925486
141	0xba7f0cb6	-0.0009729372
142	0xbb45975a	-0.0030150027
143	0x3be6de32	0.0070455307
144	0x3bc4200b	0.005985265
145	0x3c84646e	0.01616117
146	0x3c3bccff	0.011462449
147	0x3bd07592	0.0063616717
148	0xbb8c4c8d	-0.0042815865
149	0x3da5eb5b	0.08101531
150	0x3d2bae77	0.04191443
151	0xb7f358bc	-2.9009178e-05
152	0xbb2e88db	-0.0026631865
153	0xbb7ef137	-0.00389011
154	0xb9862f6e	-0.0002559381
155	0xbb3102cf	-0.002700973
156	0xbb7c3fb2	-0.0038490114
157	0x3d151a58	0.036402076
158	0x3bc8e44a	0.00613073
159	0xbaf714f4	-0.0018850849
160	0xba4b661f	-0.00077590527
161	0xba51d008	-0.00080037164
162	0x3d80a6e1	0.062818296
163	0x3d5bc60e	0.053655677
164	0x3c46efca	0.012142131
165	0xb4003112	-1.193878e-07
166	0xbb55f731	-0.0032648558
167	0xbacaf637	-0.0015484755
168	0x3d0ba001	0.03408814
169	0x3df1ae66	0.11800842
170	0x3d96280d	0.07331858
171	0xb8b9b51a	-8.85522e-05
172	0xba8dc9d0	-0.0010817591
173	0xbac30a5f	-0.001488041
174	0xbb3fc432	-0.0029261229
175	0x3c15e25b	0.009148206
176	0xbb441811	-0.0029921571
177	0x3be1bd98	0.0068890564
178	0x3b8f4a47	0.004372868
179	0xba180465	-0.00057989947
180	0x3c9715d0	0.018443018
181	0x3c47260a	0.012155065
182	0xba6cf86d	-0.0009039704
183	0xbb09b1e7	-0.002101058
184	0xba65660f	-0.00087508647
185	0x3d185832	0.037193485
186	0xbb49ce5d	-0.0030793168
187	0xbb19fd4d	-0.0023496926
188	0x3d63e0ee	0.05563443
189	0xba01f5ea	-0.00049576035
190	0x3d9e9005	0.07742313
191	0x3e278feb	0.16363494
192	0x3bf39d67	0.0074345353
193	0x3d97f3d6	0.07419555
194	0xbaf5518d	-0.0018716321
195	0xbb0eae9a	-0.002177155
196	0xbb8a3611	-0.004217871
197	0x3c180297	0.009277961
198	0x3d6a71bd	0.057237376
199	0x3c005d4b	0.007834743
200	0xba2b9284	-0.0006544965
201	0xbba4b137	-0.0050260085
202	0x3bb5d8c7	0.0055495235
203	0x3d0c091b	0.03418837
204	0xbbda8609	-0.0066688103
205	0xba6d55ce	-0.00090536184
206	0x3cf6818b	0.030091068
207	0xbb868b11	-0.0041059335
208	0xbbcd3f8e	-0.00626368
209	0xbbfc22ec	-0.0076945927
210	0x3d59234a	0.05301217
211	0x3c1a0f66	0.009403085
212	0x3dd5e108	0.10443312
213	0x3caa830b	0.02081444
214	0x3cc68923	0.024235314
215	0x3d245403	0.040119182
216	0xbabbdce9	-0.0014332804
217	0x3bf3e9af	0.0074436287
218	0xbb793405	-0.003802539
219	0x3dac0c92	0.08400835
220	0x3da4a343	0.08038952
221	0xbc0e6fa2	-0.0086936075
222	0xb985a818	-0.00025492976
223	0xb8c1296a	-9.210671e-05
224	0xbb4f3cc2	-0.0031621908
225	0x3bab74f0	0.005232446
226	0x3c88f1a2	0.016716782
227	0xbb49b1b9	-0.0030776097
228	0xba7e9aee	-0.00097124174
229	0xb9a26dda	-0.00030980894
230	0x3c5aee07	0.013362414
231	0xbb3df8d3	-0.0028987422
232	0xbab98a39	-0.0014155573
233	0xbb915fa9	-0.0044364524
234	0xbaef57cf	-0.0018260422
235	0xbac4eada	-0.0015023605
236	0xbb45cc15	-0.0030181457
237	0xbb1b7656	-0.0023721657
238	0x3c172f44	0.009227578
239	0x3c1a1233	0.009403753
240	0x3d76c7a7	0.060248997
241	0xba5741c1	-0.0008211397
242	0x3d9f59ff	0.07780837
243	0xbaab8e46	-0.0013088665
244	0xbb5d5cd5	-0.0033777256
245	0xb8e6bb08	-0.00011002092
246	0x3d3b0a6a	0.04566423
247	0x3d5efb47	0.054438855
248	0x3bd0e688	0.0063751377
249	0xbb8fb56a	-0.00438564
250	0x3c2f2bb8	0.010691576
251	0xbacd862a	-0.0015680243
252	0xba60a3c7	-0.00085693266
253	0x3d801685	0.06254295
254	0x3c59a09c	0.013282921
255	0x3c520457	0.0128184175

conv1.nn.2.weight f4 [7040, 8]
0	0x3e3d8030	0.18505931
1	0x3db07371	0.08615769
2	0xbe23e2d1	-0.16004492
3	0x3d3a3e12	0.04546935
4	0x3e34a0b0	0.17639422
5	0xbe57d0fd	-0.21075816
6	0xbad91ff9	-0.0016565315
7	0x3e1840ba	0.14868441
8	0x3cad1303	0.02112723
9	0xbd5dff7d	-0.05419873
10	0x3e2bc1b3	0.16773109
11	0x3c8ae7ea	0.016956288
12	0x3d2ba7b8	0.041907996
13	0xbc036958	-0.008020721
14	0xbe12a51e	-0.143208
15	0x3d97fa3b	0.074207745
16	0x3b61b104	0.0034437785
17	0xbb89d24c	-0.0042059775
18	0xbe425710	-0.18978524
19	0x3ca5d570	0.020243376
20	0x3c4a8e8a	0.0123630855
21	0x3e2553af	0.16145204
22	0x3d462bb8	0.048381537
23	0x3d06e9b7	0.03293773
24	0x3e3bd0c3	0.18341355
25	0xbc1492c1	-0.009068192
26	0x3e2fb281	0.17157938
27	0xbe087708	-0.13326657
28	0xbd35356d	-0.044240404
29	0x3df06d94	0.1173965
30	0xbab12cc3	-0.0013517368
31	0x3d9db699	0.07700843
32	0xbd40c016	-0.047058187
33	0x3e0cd94a	0.13754764
34	0xbd35f312	-0.044421263
35	0x3e5a3eb1	0.21312977
36	0x3dd6aad1	0.104817994
37	0xbcdf4c8c	-0.02725818
38	0x3e52c99a	0.20584717
39	0xbb91dd0e	-0.0044514006
40	0xbc05a65d	-0.00815734
41	0xbc633850	-0.013868406
42	0xbe401872	-0.18759325
43	0xbb1371e8	-0.0022498313
44	0x3d162fde	0.036666743
45	0xbd437c19	-0.04772577
46	0x3d180b6f	0.03712028
47	0xbd3760d5	-0.04477008
48	0xbb160dfb	-0.0022896517
49	0x3d6e5023	0.058181893
50	0x3dce5c95	0.10076252
51	0xbd9fb9f6	-0.07799141
52	0x3d4b31dd	0.0496081
53	0xbe01d885	-0.12680252
54	0x3e1f8a40	0.15580082
55	0x3e36882c	0.17825383
56	0xbcb88a29	-0.022526817
57	0x3bd2408a	0.006416385
58	0x3e4aed3c	0.1981706
59	0x3b0f9f1c	0.0021914905
60	0xbd40f0af	-0.047104534
61	0x3a86db50	0.0010288749
62	0xbdd96a78	-0.106160104
63	0xbe584a9c	-0.21122211
64	0x3beed23e	0.0072882464
65	0x3cc3b8b4	0.023891784
66	0x3e0fe435	0.14051898
67	0xb7546695	-1.2660069e-05
68	0x3e1018a3	0.14071898
69	0x3c7bafbb	0.015361722
70	0xbc23bfd0	-0.009994462
71	0x3cccae14	0.02498535
72	0x3e2ba3aa	0.16761652
73	0x3e392d8a	0.18083778
74	0xbe48fd95	-0.19627984
75	0xba8cb30c	-0.0010734512
76	0x3b2422d5	0.0025045176
77	0xbb6afe6e	-0.0035857218
78	0xbd8b4303	-0.06799891
79	0x3e54bf2e	0.20776054
80	0x3b330471	0.002731588
81	0x3cc48788	0.023990408
82	0xbd324a66	-0.043527983
83	0x3936e934	0.00017443747
84	0x3e38e0fb	0.18054573
85	0xbdbd6885	-0.09248451
86	0x3a58b988	0.00082673924
87	0xbc0376dc	-0.008023944
88	0xbbc331f6	-0.0059568835
89	0x3e583ca0	0.21116877
90	0x3be2b0c5	0.006918045
91	0x3e19d020	0.150208
92	0xbdf50099	-0.119630046
93	0x3deb20ca	0.114808634
94	0x3b892b75	0.0041860887
95	0x3b143a16	0.002261763
96	0x3dc7e1c7	0.097598605
97	0x3dac8dc8	0.0842548
98	0xbdebdf3c	-0.11517188
99	0xbe4298e0	-0.1900363
100	0x3dd3d40a	0.103431776
101	0xbcd8f0a2	-0.02648193
102	0xbe2a93e0	-0.16657972
103	0xbd33f9a0	-0.043939233
104	0x3d90960f	0.070598714
105	0xbe56cfa5	-0.20977648
106	0x3e250dde	0.16118571
107	0x3e34c63d	0.17653747
108	0x3e0b8d90	0.1362822
109	0x3e04a743	0.1295443
110	0xbc16d7fd	-0.009206769
111	0xbe5242a7	-0.20533238
112	0x3d50a832	0.050941654
113	0x3bb75ba7	0.0055956426
114	0xbe04a0e1	-0.12951995
115	0xbde47987	-0.11155992
116	0x3e11b0f2	0.14227656
117	0x3e0bcc87	0.1365224
118	0xbc9c9a63	-0.019116586
119	0xbcca83a3	-0.024720972
120	0xbe1cf390	-0.15327287
121	0xbc0395a9	-0.008031287
122	0x3e347368	0.17622149
123	0x3de70485	0.11280159
124	0x3c593f09	0.013259658
125	0x3c467545	0.01211292
126	0x3c09e6d8	0.008416854
127	0x3d05e731	0.032691184
128	0x3e10a171	0.14124085
129	0x3d70eace	0.058817677
130	0x3ba36ca3	0.0049873157
131	0xbc28f660	-0.010312647
132	0xbc7b9cc8	-0.015357204
133	0xbbad6b10	-0.005292304
134	0xbbdfabb9	-0.006825891
135	0xbc3f5aaf	-0.0116793355
136	0xbbe82907	-0.007084969
137	0xbe0016cb	-0.12508695
138	0xbc1ee674	-0.009698499
139	0xbc5a29a6	-0.013315594
140	0x3d2fefa9	0.042953167
141	0xbc3c9ae9	-0.011511543
142	0x3d143274	0.03618093
143	0x3e0758f2	0.13217524
144	0xbc04b327	-0.008099354
145	0x3da9f143	0.0829797
146	0xbe0dc8fe	-0.13846204
147	0x3d49b36c	0.049243376
148	0x3e15ec32	0.14640883
149	0xbe227b03	-0.15867238
150	0xbd5eac29	-0.054363403
151	0xbd32e581	-0.043675903
152	0xbd8d801d	-0.06909201
153	0xbe489592	-0.19588307
154	0xbdc04791	-0.0938865
155	0xbe57bef0	-0.2106893
156	0x3b964f11	0.004587062
157	0xbda5efcd	-0.08102379
158	0xbc9240e0	-0.0178532
159	0xbbb6ba50	-0.0055764094
160	0x3dc878e8	0.09788686
161	0xbc426593	-0.0118650375
162	0x3da0f5c1	0.07859374
163	0xbbd12b78	-0.0063833557
164	0xbe4638b5	-0.1935757
165	0x3e2f928a	0.17145744
166	0x3dbde7b4	0.092727095
167	0xbdd3dfea	-0.103454426
168	0xbe4552bc	-0.19269842
169	0x3b502784	0.0031761834
170	0xbcc0f404	-0.023553856
171	0x3e0e1567	0.13875352
172	0x3ca87026	0.020561289
173	0xbe1ed217	-0.1550983
174	0x3d985ff3	0.07440176
175	0x3e2bfb28	0.16795027
176	0x3e12cda2	0.14336255
177	0x3e5cf1aa	0.21576563
178	0x3e3e91d1	0.18610312
179	0xbe422e8f	-0.18963073
180	0xbd1634fa	-0.036671616
181	0xbcaafcb4	-0.020872451
182	0x3e30228f	0.17200683
183	0xbb164745	-0.0022930664
184	0x3b8b62d3	0.004253724
185	0xbddc6fb0	-0.1076349
186	0xbe44584c	-0.19174308
187	0x3a862f9c	0.0010237577
188	0xbcada497	-0.021196647
189	0xbc7cd6bd	-0.015432057
190	0x3d4d6770	0.050147474
191	0xbdcfd523	-0.101480745
192	0x3dcbc009	0.09948737
193	0x3d969828	0.0735324
194	0x3d19b27d	0.037523735
195	0xb98b8346	-0.00026609952
196	0xbe0ef197	-0.13959347
197	0xbba03e82	-0.004890264
198	0xbe10ddf5	-0.1414717
199	0x3e32b248	0.17450821
200	0x3b6b5fd8	0.0035915282
201	0x3b88d96f	0.0041763107
202	0x3e1e5da1	0.15465404
203	0x3d48a64a	0.04898671
204	0xbcbb0f29	-0.022834377
205	0x3b21e9d2	0.0024706018
206	0xba1cdf83	-0.00059842336
207	0xbe1509bf	-0.14554499
208	0xbda9d704	-0.08292964
209	0x3db09f2f	0.08624112
210	0x3e3dfc40	0.18553257
211	0xbc7e5399	-0.015522861
212	0x3b1c2f17	0.0023831779
213	0xbe379f63	-0.17931895
214	0x3e00b142	0.12567618
215	0xbda60fe5	-0.081085004
216	0xbd697489	-0.056995902
217	0x3d377ff9	0.04479978
218	0xbc5878e8	-0.01321242
219	0x39a7f51b	0.0003203534
220	0x3dfc8a27	0.12331038
221	0xbd83fbfc	-0.064445466
222	0x3e47b8a6	0.19504032
223	0x3c2c3906	0.010511642
224	0xbcb7d944	-0.022442468
225	0x3d860ef9	0.065458246
226	0xbd71918c	-0.058976695
227	0xbdbd8b33	-0.09255066
228	0x3bd7cf83	0.0065860166
229	0x3a5b7b13	0.00083725265
230	0x3e5a10d9	0.2129549
231	0x3a9b14f6	0.0011831808
232	0x3e1462d8	0.14490831
233	0x3e31c37b	0.17359726
234	0xbe55f1e6	-0.20893058
235	0x3ca90baa	0.020635445
236	0x3e2d8444	0.16944987
237	0x3c1f081d	0.009706524
238	0xbca70b82	-0.02039123
239	0x3d997907	0.07493787
240	0xbe440089	-0.19140829
241	0x3e45209a	0.19250718
242	0x3e37b6c0	0.17940807
243	0x3acfd45d	0.0015856136
244	0x3cd4c26a	0.02597161
245	0x3be7977d	0.0070676194
246	0x39dca948	0.00042087794
247	0xbdfc5761	-0.12321354
248	0x3d266544	0.04062392
249	0x3d8af787	0.06785493
250	0xbd0d7bb9	-0.03454182
251	0xbe303888	-0.17209065
252	0xbd766e96	-0.060164057
253	0x3df8cbb0	0.12148225
254	0x3d823f20	0.063596964
255	0x3e3074d9	0.17232074

conv1.nn.2.bias f4 [7040]
0	0xbe7e4e53	-0.24834566
1	0xbdf1ea50	-0.1181227
2	0xbdfeda16	-0.1244394
3	0xbe364a18	-0.17801702
4	0xbe866202	-0.2624665
5	0xbe8f2530	-0.2795806
6	0xbe068aca	-0.13138881
7	0x3e46e54a	0.19423404
8	0x3da334b4	0.07969037
9	0xbce5a811	-0.028034242
10	0xbe040aa1	-0.1289468
11	0x3e09c5ca	0.13454357
12	0x3e0cfb8c	0.13767833
13	0x3e3636d2	0.1779435
14	0xbe31a937	-0.17349707
15	0x3ce8dbfe	0.028425213
16	0x3dbc99f9	0.092090555
17	0x3bef24e0	0.007298097
18	0x3d2dbdd2	0.042417355
19	0x3e4980e4	0.19678074
20	0x3e3a47ff	0.18191527
21	0x3d4bff0e	0.049803786
22	0x3e1d0557	0.15334068
23	0x3ded6174	0.11590853
24	0xbe0162ec	-0.12635392
25	0xbdfb6015	-0.122741856
26	0xbe2acb21	-0.1667905
27	0x3cb9a4a1	0.022661509
28	0x3d4b9a4c	0.049707696
29	0xbe3a2a50	-0.18180203
30	0x3e7ae3f5	0.24501021
31	0xbe8bec24	-0.27328598
32	0x3d344aef	0.044016775
33	0xbd51a3d5	-0.051181633
34	0x3e6db693	0.23214178
35	0x3e14bb0a	0.14524475
36	0x3e277d83	0.16356473
37	0x3e1cf363	0.1532722
38	0x3e4cf027	0.20013486
39	0x3db5ed06	0.08883099
40	0xbdc8ccb4	-0.09804669
41	0xbbddce76	-0.006768997
42	0xbe1c4340	-0.15260029
43	0x3cea055c	0.028567009
44	0x3e14960b	0.14510362
45	0x3e40631e	0.1878781
46	0xbd6c1e8b	-0.057646316
47	0x3e2c0dbb	0.16802113
48	0xbca65170	-0.020302504
49	0x3dac9144	0.08426145
50	0x3d110bd9	0.03541169
51	0xbdce76da	-0.10081263
52	0x3e2bdc17	0.16783176
53	0xbe67d032	-0.22638014
54	0x3d4e0e94	0.05030687
55	0xbdb972dc	-0.09055111
56	0x3df45d70	0.11931884
57	0xbe59c265	-0.21265562
58	0xbc970737	-0.018436057
59	0x3d08aced	0.03336804
60	0xbe87503f	-0.2642841
61	0xbdf92b1a	-0.12166424
62	0xbd9f43eb	-0.07776626
63	0xbe15e577	-0.14638315
64	0x3e71a525	0.23598154
65	0x3e4e5f5d	0.20153566
66	0x3e4694da	0.1939272
67	0xbe48a69b	-0.19594805
68	0x3d8b645a	0.0680625
69	0xbe6fe098	-0.2342552
70	0xbe0059cb	-0.12534253
71	0xbdd859db	-0.105640136
72	0x3e699046	0.22808942
73	0x3e5e6774	0.21719152
74	0x3abd7e4f	0.0014457199
75	0xbdcb3a0e	-0.099231824
76	0xbe787a97	-0.24265514
77	0x3dac7d23	0.084223054
78	0xbe07e673	-0.13271503
79	0x3e2aca7d	0.16678806
80	0xbe04299e	-0.129065
81	0xbe75a99b	-0.2399048
82	0x3d84d66a	0.06486209
83	0x3d60231d	0.054720987
84	0x3e7cd9b7	0.24692427
85	0xbdf943fa	-0.121711686
86	0x3d2ff614	0.042959288
87	0xbe3e3626	-0.18575343
88	0x3e27b183	0.16376309
89	0xbd089e70	-0.033354223
90	0xbdd018d7	-0.10160988
91	0x3d0ebf3c	0.034850344
92	0x3e5b40b7	0.21411406
93	0x3e63da52	0.22251251
94	0x3d657714	0.056021765
95	0x3a1e948c	0.0006049357
96	0x3e0a9cf0	0.1353643
97	0xbe01cb79	-0.12675275
98	0xbe85e12e	-0.2614836
99	0x3d28973b	0.04115985
100	0xbde56901	-0.112016685
101	0xbe486e77	-0.19573389
102	0xbe7672a0	-0.24067163
103	0xbe48ec44	-0.19621378
104	0xbe7b60fc	-0.24548715
105	0x3d39a7ab	0.045325916
106	0x3d3b1ebc	0.045683607
107	0xbe5fea2a	-0.2186667
108	0x3e3de00f	0.18542503
109	0xbd93b226	-0.072117135
110	0x3ce3c1db	0.027802398
111	0xbe89f340	-0.26943398
112	0x3e507518	0.20357168
113	0x3e1fe454	0.15614444
114	0xbe33f0c0	-0.17572308
115	0x3e1e0c24	0.15434319
116	0xbe04252e	-0.12904808
117	0xbe3f42d4	-0.18677837
118	0xbe6d2521	-0.23158695
119	0xbd59720a	-0.05308727
120	0x3e8b4652	0.27202088
121	0x3e0d46cb	0.13796537
122	0x3e85572f	0.26043078
123	0xbe46ca93	-0.19413213
124	0x3d1417ff	0.036155697
125	0x3c9e03d8	0.019288942
126	0x3e139174	0.14410955
127	0xbd8227b8	-0.06355232
128	0x3c2bab9f	0.010477929
129	0x3ddce252	0.10785355
130	0xbd08d61b	-0.033407312
131	0x3dbe8b69	0.09303934
132	0x3da6e0b9	0.08148331
133	0x3e7e0101	0.2480507
134	0xbe73b3e8	-0.23799098
135	0x3e604ab4	0.21903497
136	0x3daf95d8	0.08573502
137	0xbe034444	-0.1281901
138	0xbde5232e	-0.111883506
139	0x3da433dc	0.08017704
140	0xbd43f948	-0.047845155
141	0x3c9758a3	0.018474882
142	0x3de34ebc	0.11099002
143	0x3d7f4cb9	0.062329028
144	0x3d56a5d9	0.05240426
145	0xbe135b50	-0.14390302
146	0x3e06b8d6	0.13156447
147	0xbc839f08	-0.016067043
148	0xbe759b96	-0.23985133
149	0x3e6b42ef	0.22974752
150	0xbcb66413	-0.022264516
151	0xbe74eef5	-0.2391928
152	0xbd774356	-0.06036695
153	0x3e680c6a	0.22660986
154	0xbdc4758c	-0.09592733
155	0x3d0540fa	0.03253267
156	0xbe859cce	-0.26096195
157	0x3e31ac7c	0.17350954
158	0x3e28c214	0.16480285
159	0x3e557fc9	0.20849527
160	0x3e22984d	0.1587841
161	0x3e8df68f	0.27727172
162	0xbdd927c1	-0.106032856
163	0xbc6ed096	-0.014576098
164	0x3ba5a2f5	0.0050548264
165	0xbd8d9d50	-0.069147706
166	0x3e11e118	0.14246023
167	0x3d056649	0.03256825
168	0xbdcc7f78	-0.0998525
169	0x3e685144	0.2268725
170	0xbe13d4f2	-0.14436701
171	0x3e052f85	0.13006409
172	0x3deb180e	0.114791974
173	0xbe4b49d9	-0.1985239
174	0x3d422b2d	0.047404457
175	0xbe1c5508	-0.15266812
176	0x3d12a5b1	0.035802547
177	0xbd8a6c47	-0.067589335
178	0x3e6bf62b	0.23043124
179	0xbb10ef4d	-0.002211529
180	0xbe53924b	-0.20661275
181	0xbe86b3ce	-0.26309055
182	0xbe41fc1f	-0.18943833
183	0x3dbd0c53	0.09230866
184	0xbe8626ce	-0.2620148
185	0xbde9b541	-0.114115246
186	0x3e58f602	0.21187595
187	0xbe7dd39f	-0.24787758
188	0x3dcee0b7	0.10101455
189	0x3e5637e0	0.20919752
190	0xbe1882b4	-0.1489361
191	0xbe5e0058	-0.21679819
192	0x3e3be092	0.18347386
193	0x3e8d3f58	0.2758739
194	0x3d71d8e6	0.05904474
195	0x3c5124a2	0.012765082
196	0x3d8af1fb	0.06784435
197	0xbe22e9e0	-0.15909529
198	0xbe095e94	-0.13414985
199	0x3ca9e341	0.020738246
200	0xbe676472	-0.2259691
201	0x3e151eaf	0.14562486
202	0x3e0543c2	0.13014129
203	0xbbf8bb96	-0.0075907214
204	0x3d40a636	0.04703351
205	0xbd1a09f8	-0.037607163
206	0x3e8415d0	0.25797892
207	0x3e8c65a6	0.27421302
208	0x3e5158a7	0.20443974
209	0xbd01d75f	-0.031699535
210	0xbdf00126	-0.11718969
211	0xbe480685	-0.19533737
212	0xbe7a46f5	-0.2444113
213	0xbe198fb0	-0.14996219
214	0x3da85b85	0.08220581
215	0x3e35f7b4	0.17770272
216	0xbcfd4d6b	-0.030920705
217	0xbe43173c	-0.19051832
218	0x3e84e27b	0.2595404
219	0xbe60a687	-0.21938525
220	0xbd5bc72e	-0.05365675
221	0xbe7a1097	-0.24420391
222	0xbdc874b9	-0.09787888
223	0x3e81559f	0.25260636
224	0x3e79ede9	0.24407162
225	0x3e80b1e3	0.25135717
226	0x3d90c408	0.0706864
227	0xbd1aae71	-0.037764017
228	0xbd76938a	-0.060199298
229	0xbe12c1ea	-0.14331785
230	0xbd03aa0d	-0.032144595
231	0x3e2b9478	0.16755855
232	0x3e2b1f0a	0.16711059
233	0xbdeed4a6	-0.11661653
234	0xbe03318a	-0.12811866
235	0x3db16e18	0.08663577
236	0xbdbe6d29	-0.092981644
237	0xbe8a1563	-0.26969442
238	0x3d3eace9	0.04655162
239	0x3caddf7d	0.021224732
240	0x3e44a428	0.19203246
241	0xbde4f811	-0.111801274
242	0x3e59e0df	0.21277188
243	0xbe57ca8d	-0.2107336
244	0x3d11b0b3	0.035568904
245	0xbdc2ba33	-0.09508171
246	0xbe523849	-0.20529284
247	0x3d08d481	0.033405785
248	0xbda5802e	-0.08081089
249	0x3d75a727	0.059973862
250	0xbd9d257d	-0.07673166
251	0x3e053dd8	0.13011873
252	0xbdd28ccc	-0.10280761
253	0xbe85403c	-0.2602557
254	0xbe144a50	-0.14481473
255	0xbd3135db	-0.04326425

pool1.select.weight f4 [1, 32]
0	0x3d9260b7	0.07147353
1	0xbdcd719e	-0.100314364
2	0xbdb21f9a	-0.08697434
3	0x3e06b447	0.13154708
4	0x3e016dab	0.12639491
5	0x3dd39b81	0.103323944
6	0xbb6dbb52	-0.0036274982
7	0xbd06ba4c	-0.03289251
8	0xbda32e5d	-0.079678275
9	0xbd572f67	-0.05253544
10	0x3d208944	0.039193407
11	0xbd1ddab4	-0.03853865
12	0x3c6e4dee	0.014544947
13	0xbe06ac36	-0.13151631
14	0xbd4486d6	-0.047980152
15	0x3e0b5183	0.13605313
16	0xbd070688	-0.032965213
17	0xbd0a78a8	-0.033806473
18	0xbe32a757	-0.17446648
19	0x3de80c42	0.11330463
20	0xbcca78a4	-0.024715729
21	0x3d5b25eb	0.05350296
22	0xbc8b5bd5	-0.017011562
23	0x3c95c90e	0.018284347
24	0x3c9d651d	0.019213254
25	0x3c577de2	0.013152571
26	0xbe2e04ed	-0.16994067
27	0xbe24bc29	-0.16087402
28	0xbd29a324	-0.04141535
29	0xbe062bc0	-0.13102627
30	0x3d72d8de	0.059288852
31	0x3e144141	0.14478017

n2.0.weight f4 [8, 116]
0	0xb7316cbc	-1.0575339e-05
1	0xba5d6051	-0.0008444833
2	0xba8e722f	-0.001086777
3	0xbbd32452	-0.0064435387
4	0x3b9a2213	0.004703769
5	0x3c06752b	0.008206646
6	0x3c89c61d	0.0168181
7	0xb6097f00	-2.0488515e-06
8	0x3dc52399	0.0962593
9	0xba3e29fd	-0.00072541815
10	0x3abb1250	0.0014272425
11	0x37cd0899	2.4441908e-05
12	0x3d0f9345	0.035052557
13	0xbb5787ab	-0.003288726
14	0xbb6e00c3	-0.0036316372
15	0x3d29d7e5	0.04146566
16	0xbb830537	-0.0039984244
17	0xb68f7730	-4.2756074e-06
18	0xb50ce044	-5.2480414e-07
19	0x3b07f567	0.0020745636
20	0x3d498ae3	0.04920472
21	0xbaa9a419	-0.0012942582
22	0x3ba86b7c	0.0051397663
23	0x38053dbd	3.176717e-05
24	0xb9493fa5	-0.00019192563
25	0x3c501599	0.012700462
26	0x3cd81b45	0.02638019
27	0xbb50538e	-0.0031788084
28	0x374491d5	1.17164645e-05
29	0xb6c52d78	-5.8763508e-06
30	0xb792b092	-1.7486778e-05
31	0xb8cbc8e9	-9.717217e-05
32	0xba896cd8	-0.0010484708
33	0x38b271cb	8.508897e-05
34	0x3bb10fdb	0.0054035014
35	0xbb1fb190	-0.002436731
36	0x3c152b53	0.009104568
37	0xbba5339b	-0.0050415522
38	0x3d807289	0.06271846
39	0xbb42c85e	-0.002972148
40	0x3cd343dd	0.025789196
41	0xbb5b6307	-0.0033475773
42	0xb5299e34	-6.318762e-07
43	0x3a1a894c	0.00058950926
44	0x3700b7a2	7.67215e-06
45	0x3713cb14	8.809166e-06
46	0xbb0105da	-0.0019687326
47	0x3ba5745d	0.005049272
48	0xb52b3da2	-6.379215e-07
49	0xb882f4de	-6.244493e-05
50	0x361ba3c7	2.319213e-06
51	0xb8bfccd4	-9.145742e-05
52	0x37e8bc29	2.7744174e-05
53	0xbb206eb2	-0.0024480042
54	0x3d19726b	0.037462633
55	0x3c7669cc	0.015039872
56	0x368d51ff	4.211673e-06
57	0xbb6eed5e	-0.00364574
58	0x38ba9bbd	8.89818e-05
59	0xb82ebc5c	-4.1660256e-05
60	0x358dcb2c	1.056445e-06
61	0x37e73edd	2.7566619e-05
62	0x38be8855	9.0853e-05
63	0xb5fb856e	-1.873979e-06
64	0xb642f9db	-2.9053688e-06
65	0xb8c8d895	-9.577085e-05
66	0x395aace7	0.00020854511
67	0xb8998cbe	-7.321824e-05
68	0x3c59ae60	0.013286203
69	0xb8d365f2	-0.00010080253
70	0xba365ce4	-0.0006956591
71	0xbaab4d70	-0.0013069343
72	0x3bccc85c	0.0062494706
73	0xbbb9c92e	-0.0056697344
74	0xbb4985d1	-0.0030749927
75	0x3d48c7c6	0.049018644
76	0xbbf8fefd	-0.0075987563
77	0x3c90ab08	0.017659679
78	0xb7866e4c	-1.6025406e-05
79	0x366f0e7e	3.562221e-06
80	0x3d1b8cd2	0.037976094
81	0x378aec39	1.6560882e-05
82	0x3d811af3	0.06303968
83	0x3bfe35a2	0.0077578584
84	0xbb22fac2	-0.0024868702
85	0x395613dd	0.0002041603
86	0xbac4763d	-0.0014988851
87	0xb83809a6	-4.3878004e-05
88	0xba887d86	-0.0010413385
89	0xb9245c46	-0.00015674633
90	0x3d694ede	0.05695998
91	0x3bab91a4	0.0052358676
92	0xbb60dc3b	-0.0034310955
93	0x3da3875c	0.07984802
94	0x3d62e153	0.055390667
95	0xbb2c27ba	-0.0026268796
96	0x3dbff173	0.09372225
97	0x3b2f30fe	0.0026732082
98	0xbb181c2f	-0.0023210158
99	0xba0ec91f	-0.00054468395
100	0xbae1db9f	-0.001723159
101	0xbbe76f81	-0.007062853
102	0x3d66e228	0.056368023
103	0xba8908df	-0.0010454914
104	0xbabbfe8e	-0.0014342831
105	0xbbccb285	-0.006246867
106	0xba232506	-0.00062234735
107	0xba1fd993	-0.000609779
108	0x3cd6cb35	0.026219944
109	0xba8a66ae	-0.0010559165
110	0x3d165ea9	0.03671137
111	0xbaa54287	-0.0012608328
112	0xb875bcdb	-5.8588437e-05
113	0x3d1b5d63	0.037930857
114	0x3d446c18	0.04795465
115	0x38ad9d9e	8.278641e-05
116	0x3ae2a34e	0.00172911
117	0xb4057beb	-1.2431671e-07
118	0x3ca94e9a	0.020667363
119	0x3bf8207a	0.007572231
120	0xbb44fa8c	-0.0030056564
121	0xbbc8ea74	-0.0061314646
122	0x3c15871c	0.009126451
123	0xb8af19e9	-8.3494764e-05
124	0xba9ba90a	-0.0011875939
125	0x3c29f752	0.010373907
126	0xb7ab2777	-2.0403166e-05
127	0x36202e07	2.386865e-06
128	0xb5a54c03	-1.231558e-06
129	0x3c8e099d	0.017338568
130	0x3d1f32b7	0.038866725
131	0xba04d9d5	-0.000506786
132	0xb637a815	-2.7366962e-06
133	0xb8029954	-3.1137213e-05
134	0xb8058c0e	-3.1840107e-05
135	0x3d1e9f19	0.038725946
136	0x3d314919	0.043282602
137	0xbc1b224b	-0.009468625
138	0xbaa4e634	-0.0012580813
139	0xb9e10577	-0.00042919416
140	0xbbede3fb	-0.0072598434
141	0xbad2f507	-0.0016094752
142	0x3b88aeb7	0.0041712183
143	0xbae8e946	-0.0017769716
144	0x3763eb0d	1.3584981e-05
145	0x3a98a3fe	0.0011645553
146	0xb709a72d	-8.20476e-06
147	0xb8039106	-3.1367897e-05
148	0x3cede082	0.029037718
149	0xba2615ab	-0.0006335626
150	0x3bf073c9	0.0073380214
151	0x3d805362	0.06265904
152	0xbc07dac5	-0.008291905
153	0x3d17c2f4	0.037051156
154	0xbb0658c3	-0.0020499683
155	0x3d29bfdb	0.041442733
156	0x3d67b786	0.056571506
157	0x3da0eda5	0.07857827
158	0x3800a132	3.0667703e-05
159	0xb9575b43	-0.00020537995
160	0x38bba75b	8.948027e-05
161	0xb6d07224	-6.212171e-06
162	0xb7be0758	-2.2653185e-05
163	0xb92a3eec	-0.00016235904
164	0xb453a699	-1.9711514e-07
165	0xbb691934	-0.0035568
166	0xb89e9901	-7.562526e-05
167	0x37061214	7.9912315e-06
168	0xb9d9a366	-0.00041511207
169	0x3cabd72f	0.020976631
170	0x3d05be57	0.032652225
171	0xbaacb834	-0.0013177455
172	0x3a8f8282	0.0010948929
173	0xb7f00c6f	-2.861602e-05
174	0xba9df0be	-0.0012049896
175	0x3880e094	6.1453466e-05
176	0x36e489cd	6.8109716e-06
177	0x38c18cd9	9.229192e-05
178	0x37af3644	2.0886895e-05
179	0xbb3c170a	-0.0028700256
180	0xb840f27e	-4.6002206e-05
181	0x3b019844	0.0019774595
182	0xbab242d3	-0.0013600237
183	0xb87a48ed	-5.9672562e-05
184	0x3ca513e1	0.02015108
185	0x3999e5e1	0.00029353707
186	0x3c883fd9	0.016632007
187	0xb90f5a96	-0.00013671289
188	0x3a66bccc	0.00088019366
189	0x3d0ed23d	0.034868468
190	0xb9e1d509	-0.00043074068
191	0xbbbc3c4f	-0.005744494
192	0x3da61045	0.08108572
193	0x3d52c215	0.051454622
194	0x3afbc881	0.0019209535
195	0xb7258738	-9.8662495e-06
196	0x3b7f7767	0.0038981081
197	0x38a92e78	8.0672035e-05
198	0x3d25fe93	0.040525984
199	0x3d276335	0.040866096
200	0x3c0a5952	0.008444147
201	0x39bc794e	0.00035948533
202	0x3d1920df	0.037384864
203	0x3d009101	0.031388287
204	0xb88e4448	-6.783806e-05
205	0xbb99b3b0	-0.00469061
206	0xbb3d781b	-0.00289107
207	0xba6095b9	-0.0008567232
208	0xbb0b6d9c	-0.002127505
209	0x3cc34993	0.023838794
210	0x3d67db53	0.05660565
211	0xbb38c4cb	-0.002819347
212	0xb9196214	-0.00014627754
213	0x3d9a981c	0.07548544
214	0xbb1e92fc	-0.0024196496
215	0xb9d0ed25	-0.00039849538
216	0x3da37771	0.07981766
217	0xbb61bd6a	-0.0034445175
218	0xbb1808ed	-0.002319868
219	0x3d65ea78	0.05613181
220	0xbbea05d4	-0.007141808
221	0x3d0d3b35	0.034480292
222	0xbbdb6736	-0.0066956533
223	0xba28870a	-0.0006428814
224	0x3c91642e	0.017747965
225	0xbb5d28ff	-0.003374636
226	0x3c825dbb	0.015913835
227	0xb9b91ece	-0.000353089
228	0x3ce433a4	0.027856655
229	0xbb28a4de	-0.0025733034
230	0xba39899d	-0.0007077696
231	0x3cd20407	0.025636686
232	0xb7860921	-1.5978296e-05
233	0xbb137709	-0.002250137
234	0xbb3a9bc5	-0.0028474194
235	0xbb5e6de3	-0.003394001
236	0x3b7217dd	0.0036940493
237	0x3dc095f6	0.09403603
238	0x3d03aa4d	0.032144833
239	0xb5d8c0fb	-1.6149419e-06
240	0x3d7f7e6b	0.06237642
241	0x3bb55f92	0.0055350745
242	0x35ed2875	1.766965e-06
243	0xb8b533dd	-8.640413e-05
244	0x3b82eda8	0.003995616
245	0x3c1871cb	0.009304474
246	0xbb5c7fbd	-0.0033645474
247	0xb987fb6a	-0.00025936525
248	0xb8383dab	-4.392645e-05
249	0xb65426b7	-3.1612997e-06
250	0x3d0f30e5	0.03495874
251	0xb70f7595	-8.550841e-06
252	0xbbb1873d	-0.005417733
253	0x3d1a6bf5	0.037700612
254	0xba13ed23	-0.0005642941
255	0xbb709f34	-0.0036715986
