Contrast/BrainGNN/save/model1.pth (torch, 403178 bytes, 30 tensors)

n1.0.weight f4 [8, 116]
00000000: ea24 cab2 ccd4 003c e781 e5bb d4e2 15b9
00000010: 5d11 a2ba 8f46 88b9 2a01 aeb7 8bf0 07bb
00000020: 731a ca3c f3ee a4b7 ebce 2db6 96f2 ffbb
00000030: a254 3b3c b335 033d 9800 cfb5 46b2 04bb
00000040: 8b00 94ba 9204 863d 9be3 61bc 0aac dbbb
00000050: 5048 c63c 6b74 f93b 45da 1b3d 8018 1cb9
00000060: da8c f3b7 8baf 5dbb 5a14 32b4 232c 07bc
00000070: f766 feba a961 8bb7 a610 a7bb 1331 17b9
00000080: 3211 e0b8 a78c b53c 6ddc 173d e5f2 3eb6
00000090: c1bf f7b8 fed1 793d 5a63 e33c eca9 1d3d
000000a0: 2aa3 1ebb dd67 053c 1747 073d eede 0e3c
000000b0: 11b0 803d ea9f 1e3d 578d 813c b423 293c
000000c0: d1f2 473d 662f 443d 6c34 e43d fb9c c7ba
000000d0: 9df0 1c3d d4c1 043d 414f eab3 5a40 65bb
000000e0: 5f97 b6b9 4d1a 4d3b 38d9 26b8 2e01 153d
000000f0: 30d0 263d c873 c8b7 27bf 403c e10a bab9
00000100: b799 493d 4543 9eb9 78de c9bb f186 593c
00000110: 90b6 b03c 8053 81bb bb11 1bba 768c 12b8
00000120: bb2b 4abc 225a 89ba 7bbf 9f3d 6c5d 293c
00000130: 60ca 883c 3100 d53c 6623 323c 5b6f 1e3c
00000140: 7ef6 73ba 1e1b 9eb9 02c8 62b8 0128 abbb
00000150: a8fc aabb 46a5 a7b8 1dcd 2fb9 9755 9ebb
00000160: f92c 97bb f250 55b8 b9db 0bb9 7e27 0dbb
00000170: a8ed 4fb6 bbd9 1fba 528b 7c3d 2c27 083d
00000180: f86d 2c3d 53cf 8a3c f4c4 abba 67c1 7ab7
00000190: 6cdb 66b9 5fe6 0db8 84a9 36b6 a1b9 42b6
000001a0: 7cad 7eb8 c2d8 81b6 6603 af3c 0749 3aba
000001b0: 9384 30bc bca1 2abb 996d 80ba a419 a5b7
000001c0: b544 bcb9 a09f f2b8 4dd9 8fba f3f7 333d
000001d0: 84b2 db3c 63d2 57ba 55bc 7dbb de9e dabb
000001e0: 6319 163d 02de bc3c 6c10 57ba e0b3 2cb9
000001f0: 7e60 793c 7137 a4b9 9b81 543c eb5f 8f3c
00000200: 4e08 493b 5bee 8d3d e8da 813d a826 ba3c
00000210: 8df0 b2ba 885a 4b3d 238f b3b8 ce9f 9cba
00000220: 93ad 67bc c8df a23d c9bd 32ba f0ff 323d
00000230: fb7f 2c3d 2ecd bcb6 6b4c 183d 60ba 5f3d
00000240: a04d 0b3c 714a 953c c0bf dd3c 1c2d a63d
00000250: 130b bfb4 f5d7 15ba 40a7 433d 1e84 83b9
00000260: d9f0 1b3d 6e69 173d 91ee f33c 85f0 123d
00000270: 68a5 da3c 5c57 4f3b 0444 353d 9e00 18bb
00000280: 5858 43bb 4a0c 60bb e5ca 943c 29b2 0ebb
00000290: bd85 2d3d 3271 e53d 6206 1c3d 7f01 96bb
000002a0: 7797 8c3c 0f58 623d 11a8 4bb9 320a cd3c
000002b0: 882c 003c 2d91 7d3c a519 543d 834b 633d
000002c0: 6c55 663d ebdd 29bc 4309 baba 3aca 873c
000002d0: 7cfa 83bb a2bd ebbb deda 9b3c 541d 43ba
000002e0: 6765 f8ba 9c63 e63c de92 8b3c 8a04 4f3c
000002f0: 9498 38bb 8344 b0b8 24f2 f13c 09a9 25ba
00000300: 3331 40bb 34e2 da3c 2949 29ba 1142 033d
00000310: cd5f 67ba 742a e33c 0294 173d 3077 b43c
00000320: 06a0 f33c 2b8a dd3c 3556 4e3d 2afe 8c3c
00000330: 2d82 4cb8 11f2 f0b8 8c91 243d f4df 7e3d
00000340: 2978 3cb9 c95b dd3c 04a2 da3b f02c 57bb
00000350: 8476 dfb7 acdf 27b3 c961 933c 83ca 2fba
00000360: 9d38 423c 7128 7a36 5c06 623b d23f a4b7
00000370: 562f 43b6 0371 0cb9 ef07 e738 3a7b 47ba
00000380: 867f 8aba 27c6 5b3d d0ab 1bba 6ad7 ea3b
00000390: bc85 7b3c 89b0 f5b1 6ace 1b3c a2b6 abb7
000003a0: 8029 f83c 3da9 b8ba 1b26 223d 3c30 a5bb
000003b0: 5f13 383c 00bb 563b 6119 2a3d 5bd0 a03c
000003c0: 40c3 113d b41d dd3b 959a 423c 9369 a83c
000003d0: 9f20 533c a216 a23c ede7 993c fb75 0c3d
000003e0: ba39 303c 5fc4 bfbb 7b88 85ba bcfb 303d
000003f0: e88b 76b7 d15e eb3c ceb7 1dbb 8d17 e0bb
-2.3532682e-08 0.007863235 -0.007004011 -0.00014294247 -0.0012364794 -0.00025992512 -2.0742958e-05 -0.002074274
0.024670815 -1.9661593e-05 -2.589945e-06 -0.007810901 0.011433752 0.032033633 -1.5422875e-06 -0.002024786
-0.0011291666 0.065438405 -0.0137871755 -0.0067038583 0.024204403 0.007612755 0.038049955 -0.00014886446
-2.9033446e-05 -0.0033826556 -1.6584946e-07 -0.008250269 -0.0019409348 -1.6615568e-05 -0.00509842 -0.00014418764
-0.00010684355 0.022161795 0.03707545 -2.845359e-06 -0.00011813595 0.06099128 0.027757335 0.03849213
-0.002420614 0.008142439 0.03302678 0.008720143 0.06283582 0.038726725 0.015814466 0.010323454
0.048815552 0.047896765 0.11142811 -0.0015229279 0.038315404 0.03241141 -1.091089e-07 -0.0034980983
-0.00034826525 0.0031296194 -3.9779785e-05 0.03637808 0.040725887 -2.3895773e-05 0.011764324 -0.0003548479
0.04921886 -0.00030186228 -0.0061605535 0.013276801 0.021571428 -0.0039467216 -0.0005915423 -3.4939927e-05
-0.012339528 -0.0010479132 0.07800194 0.010337215 0.016698062 0.026001068 0.010872697 0.009670104
-0.00093064446 -0.00030156312 -5.406887e-05 -0.0052232747 -0.0052181073 -7.993965e-05 -0.00016765711 -0.0048319804
-0.0046135155 -5.0858544e-05 -0.00013337926 -0.0021538432 -3.0983738e-06 -0.0006097813 0.061656304 0.033240482
0.042097062 0.016944563 -0.0013104961 -1.4946191e-05 -0.0002201625 -3.383157e-05 -2.7218784e-06 -2.9016303e-06
-6.071989e-05 -3.8697335e-06 0.021363925 -0.0007106219 -0.010773796 -0.0026036343 -0.0009798288 -1.9681473e-05
-0.00035909345 -0.00011569192 -0.0010974795 0.043937635 0.026818521 -0.0008232949 -0.003871699 -0.0066717705
0.036645304 0.02305508 -0.0008204046 -0.00016470207 0.015220759 -0.00031321825 0.0129703535 0.017501792
0.0030675116 0.06930228 0.06340581 0.02272351 -0.0013652012 0.049646884 -8.5620464e-05 -0.0011949481
-0.014140504 0.07952839 -0.00068184413 0.043701112 0.04211424 -5.6267227e-06 0.037182253 0.0546211
0.008502394 0.018223973 0.027068973 0.08114073 -3.558458e-07 -0.0005716079 0.047766924 -0.00025084702
0.038071487 0.03696578 0.029776843 0.03587391 0.0266902 0.0031637764 0.044254318 -0.0023193727
-0.0029807296 -0.0034187012 0.018163154 -0.0021773672 0.04236387 0.11203231 0.038092025 -0.004577815
0.017162068 0.05525976 -0.00019422198 0.025029276 0.007823117 0.015476507 0.05178227 0.055491935
0.05623381 -0.010367851 -0.0014193434 0.016575921 -0.004027663 -0.007194237 0.019025262 -0.000744303
-0.0018951119 0.02812367 0.017037805 0.01263536 -0.0028167116 -8.405095e-05 0.029534407 -0.00063194387
-0.00293262 0.02671919 -0.000645774 0.032045428 -0.0008826226 0.027730204 0.037006386 0.02202949
0.029739391 0.027043423 0.050375182 0.017211039 -4.8758626e-05 -0.0001148918 0.040177867 0.062225297
-0.0001797384 0.027021306 0.006672146 -0.0032833181 -2.663886e-05 -3.9086146e-08 0.017990964 -0.0006705897
0.011854318 3.7276443e-06 0.0034488654 -1.9580042e-05 -2.9084817e-06 -0.0001339354 0.00011016416 -0.000760961
-0.0010566569 0.05365577 -0.0005938383 0.0071667926 0.015351709 -7.150508e-09 0.009509662 -2.0469834e-05
0.030293226 -0.0014088523 0.03958712 -0.0050411504 0.011235087 0.003276527 0.04152811 0.019630602
0.035586596 0.0067479257 0.011877676 0.020558154 0.012886195 0.019786183 0.018787349 0.034292202
0.010755951 -0.0058522667 -0.0010187769 0.043208823 -1.4695317e-05 0.028731735 -0.0024065855 -0.006838745

n1.2.weight f4 [7040, 8]
00000000: 976e 34bb 3625 02ba cb86 aeba 8f33 5dbb
00000010: 6879 913b c70c d73a 7096 9a3c 5b29 ac3c
00000020: 6d5a 493c 0c8e 063b 0df0 f93b d865 163b
00000030: f9de f33c 0d85 b63b d65c 14ba 3de2 9c3b
00000040: 485f 4bbb 3710 dbbb 116d fabb 05cf ddba
00000050: d30b 58bb 6e50 933a 1516 1739 13cc d53b
00000060: a39c 033d 1923 7cbc 8173 1abc df3d 1dbc
00000070: e264 87bc 8417 c2ba 81d5 9a3b 0b4b 8dbc
00000080: 3ac2 5dba bca8 343d 376c 043c 67f8 3739
00000090: 4402 3b3a 4136 b8ba 85d7 803b aa3a 3ebc
000000a0: 37d3 903b 440a 083d fb6f 153c 86af 273b
000000b0: 504b 9a3c 546d 173a c1bd 4f3c b834 223c
000000c0: 1917 373b 1c7a 2b3b b2e8 84ba 2696 503c
000000d0: 009e 91bc 79e8 f8b9 0c30 673b d66b c4bb
000000e0: 4a6f 613c 50b9 f2bc dd5a 273b a20a 893c
000000f0: 4070 123c 750e 6a3c 723e 24bd 4307 2b3c
00000100: 9b70 b73c dc42 8dbb d809 3ebd beac afb9
00000110: fad1 0fbd 03c1 163c 4f25 be39 b4ea 5ebd
00000120: ee4c 0cbb c5e5 83ba 922e 223c b5f0 6dba
00000130: 3176 0bba 758e a43b d848 67bc 1324 97bc
00000140: 0812 63bb 6f9a 06bd 82c9 b4bb 2327 07bd
00000150: 624d c4bb aec0 dd3b 4c2a e53b 4ad0 6d37
00000160: f3da debb a0f1 1e3d fd18 e33c fb49 02bc
00000170: 6ccc 143d 067c 0dbc e2a0 503c cfc2 97bc
00000180: 87dc dcbb 920d 26bb 2fa3 afbb 0740 ffba
00000190: f745 353b ae22 173c 34db afbb 1f92 b9bb
000001a0: db72 1abb fa48 8fbb ba2f bc3b 7eb3 b0bc
000001b0: 491a 2a3d 90b4 27bb e389 21bd a4a1 cdbc
000001c0: afa3 d7bc 33cd a6bc 386f d9bc 9ce7 7fbb
000001d0: a21e 93bc f5db a5bc 8194 0ebd 4a19 773d
000001e0: 2c13 a83a e0da e83a 5453 9dbb 2758 01bd
000001f0: 4e7b cd3a 6b4d 23b9 02b6 05bd 3f88 c5bc
00000200: fb95 75bc 2f60 a5ba d9d5 f1b9 9296 a63b
00000210: d7e7 abba 8409 c4bc 982a afbb 1617 e3bc
00000220: 974d 9dbc 370f 7d3b a39c d43a bdc6 01bb
00000230: 17c7 f9ba 5588 aa39 da0e 503c d888 01bc
00000240: f7f9 a33a ed07 73ba 947f 99bb 5976 f0ba
00000250: d4dd 3cbc 93ed b4bc 5918 a3bb 27f5 f539
00000260: 0c51 f1bb 9f9e 343c 6ab7 a0b8 3daf a1ba
00000270: 2775 8ebb 8728 13bc f328 86bb b8cb 8c3c
00000280: 535f 043c b89e 0a3d 6881 eb3b 3c81 c33c
00000290: bebd 1abc 412c a0bc 21e8 7dbb 5787 953a
000002a0: b0c8 74bc 6d09 453b 91a4 f6bc 6216 323b
000002b0: 6932 4bbc b571 c5bb 8400 2e3c fbaa 5cbb
000002c0: 121d e9bb 2c2a 48bc b72d 153c d152 c0bb
000002d0: 8303 853c 6a57 43bc 9d25 693b 5ea4 aab9
000002e0: 972b 83bc 7300 173b c741 393c 268a 013c
000002f0: e171 d33c 3ea2 21bc becd 553c 56d6 c1ba
00000300: 7bce 9f3a d6de 653c 6b1c 6d3c afd8 95bb
00000310: f8ef 2aba 5b30 ecbb 24f5 e03b eeb9 833a
00000320: 970f 24bd 4070 0cbb c2b8 da3b e0da ddbc
00000330: a2c1 a53c 0b1d d13a 3085 a5bc 09d0 74bc
00000340: 9a8d 3fbb 7c34 92bc 2e2f 59bb a05a 9ebb
00000350: 8a6d 413b 9ae0 15bc b749 823b 6b5d 3cbc
00000360: e063 753c 5bcc 2d3d 8dc1 2c3c b07a aebc
00000370: 7e9e 06b9 7fa7 5c3c 3d5a 51bb 1d43 163d
00000380: b461 09bd 712d e6ba dc2d babc 155b debc
00000390: ff31 c93b dd8b 47bc 0c95 703c 157b fd3a
000003a0: 9c0b 0cbb 9f43 c0bb 01d9 2a3c e3ef 313d
000003b0: 7cce 353b c61f 913b 6561 ca3b b294 b9bc
000003c0: 560f fb3b 4f5f acbb e64e 813c 97be c4bb
000003d0: 424e 0c3c cf8f a4ba e27e 493d 6523 1abd
000003e0: 3dbb 89bc 0a62 75ba 0c48 0a3c 19e5 3ebb
000003f0: 9333 9dbc 61c7 87bc 54f7 0dbd 083e 6c3c
-0.0027531737 -0.00049646513 -0.0013315318 -0.0033752655 0.0044395216 0.0016407006 0.018870562 0.021015814
0.012289626 0.0020531444 0.0076274932 0.0022948887 0.029769408 0.00557006 -0.00056595856 0.004787712
-0.0031032134 -0.0066852826 -0.0076423963 -0.0016922659 -0.0032966032 0.001123918 0.00014408708 0.0065245717
0.032131802 -0.015389227 -0.009426952 -0.009597271 -0.016527597 -0.0014808034 0.0047251587 -0.017247697
-0.0008459423 0.04410623 0.008082441 0.00017544777 0.00071338215 -0.0014054255 0.003931942 -0.011610666
0.00441971 0.033212915 0.0091209365 0.0025586798 0.01883474 0.0005776484 0.012679518 0.009900264
0.0027937351 0.0026165312 -0.0010140149 0.012731111 -0.017775536 -0.00047475452 0.003527644 -0.0059943004
0.013759444 -0.02962938 0.0025536336 0.016728703 0.008937895 0.014285673 -0.040098615 0.010438743
0.022392562 -0.004310949 -0.046396106 -0.00033507304 -0.03511236 0.009201291 0.0003626742 -0.05442305
-0.0021408158 -0.0010062983 0.009898799 -0.00090767007 -0.0005320041 0.005021865 -0.014116488 -0.018449819
-0.0034648199 -0.032862123 -0.0055171857 -0.032996308 -0.00599067 0.006767354 0.0069935676 1.4174797e-05
-0.006801003 0.03880465 0.027721876 -0.007952209 0.036327764 -0.0086355265 0.01273367 -0.01852551
-0.006740156 -0.0025337678 -0.005360029 -0.0019474038 0.002766011 0.009224577 -0.005366707 -0.005663171
-0.0023566994 -0.004372713 0.005742994 -0.021569964 0.041528974 -0.0025589801 -0.03943814 -0.02510149
-0.026323168 -0.020361518 -0.026542291 -0.0039047962 -0.017958943 -0.020246485 -0.034809593 0.060326852
0.0012823096 0.0017765425 -0.0048011933 -0.03157821 0.0015677006 -0.00015573732 -0.03264428 -0.024112819
-0.014989371 -0.0012617166 -0.0004612643 0.0050838673 -0.0013115358 -0.023930319 -0.0053456537 -0.02772097
-0.019202037 0.0038613805 0.0016220998 -0.0019802295 -0.0019056526 0.00032526502 0.012698853 -0.007906161
0.0012510408 -0.00092708954 -0.004684398 -0.0018345817 -0.011527497 -0.02208594 -0.0049772677 0.00046912694
-0.007364398 0.011024146 -7.663558e-05 -0.001233555 -0.0043474617 -0.00898183 -0.004094237 0.017186984
0.008079368 0.033842772 0.0071870573 0.023865335 -0.009444652 -0.019552352 -0.0038743096 0.0011408132
-0.014940426 0.0030065433 -0.030107768 0.0027173986 -0.012402155 -0.006025518 0.01062024 -0.0033671248
-0.007114061 -0.012217086 0.009105138 -0.0058692475 0.016237026 -0.011922697 0.0035575398 -0.0003254739
-0.016011996 0.002304104 0.011307186 0.007906472 0.025811138 -0.009865342 0.013049541 -0.0014788609
0.0012192273 0.014030179 0.014472107 -0.00457295 -0.00065207435 -0.007207913 0.0068651605 0.0010049918
-0.04005393 -0.002142921 0.006674857 -0.027081907 0.020233933 0.001595409 -0.02020511 -0.014942178
-0.0029228688 -0.017847292 -0.0033139694 -0.0048325807 0.0029514753 -0.0091477875 0.0039760727 -0.011496882
0.014977425 0.042431217 0.010544193 -0.021298736 -0.00012838279 0.013467669 -0.0031944655 0.036685098
-0.033540443 -0.001756115 -0.022726946 -0.02714304 0.006139993 -0.012179342 0.014683973 0.001933905
-0.0021369224 -0.005867436 0.010427714 0.043441664 0.0027741482 0.0044288365 0.006176161 -0.022653911
0.0076617403 -0.005260385 0.015784692 -0.0060041654 0.00856358 -0.0012555065 0.04919327 -0.03763141
-0.016812915 -0.0009360617 0.008440029 -0.0029128252 -0.019189632 -0.016574563 -0.0346597 0.014419086

n1.2.bias f4 [7040]
00000000: ea19 e93d 13b3 743d 38ba 96bd 735c 2abe
00000010: f1c5 09bd 8435 87bd d480 b53d 5c68 55bd
00000020: 2340 23be 90a4 033e 1123 c1bd 0cae 843b
00000030: ea5f 5fbd 1534 b6bb aac3 bd3c 04cf aa3d
00000040: 624a e8bd c6ec d1bc 4dd1 54bd 8caf 0f3c
00000050: 28ca 003e 4dad fc3a 634f 8bbc f6e7 22be
00000060: 77d3 f53d 13b8 88bd 5b37 563d 3665 ffbd
00000070: 7840 043e 7637 25bd 6543 c8bd ddba 85ba
00000080: 60b8 01be c437 6dbd 3e1b e53d 9ada 93bd
00000090: e50f b43d a058 03bd b04f 093e 1f58 c1bd
000000a0: 020d 93bd f559 18be 2322 ffbd 0557 633d
000000b0: d31d f33d 664e e0bd 60fc d13d 9b1e 2c3e
000000c0: af4e e63d d604 c9bd 716b fabd d41f 093d
000000d0: ded1 123d f93b e23d 2aef f03d e865 23be
000000e0: 06b3 7e3d 05e8 1e3d f8c3 22be da26 303d
000000f0: da1c 71bd db33 d43c 883f 4ebb d0e7 5f3d
00000100: 2df6 3c3c 08ac f73d 16ea 133d 9b72 183e
00000110: 7f6f e73d 60dd 83bd eeae 8c3d 3c1e 0ebd
00000120: 737c 9b3d d126 c43d 40e4 08bd fe73 8dba
00000130: aee2 cd3d f8b3 c3bd 7dd2 f03c 0c99 b8bc
00000140: aed7 f0bc 1807 073e dc08 5d3d 4ffb 87bd
00000150: 97e8 4cbc ba06 033e 495d 2d3e a75b 1abe
00000160: 3741 0fbd 4f2f 953d 653a ccbc 4923 143e
00000170: 7af8 533d 7ef2 d6bd 02d2 103e 874d d43d
00000180: d43d febc df2a bbbd 3e2c 56bd cbab 823d
00000190: 5a47 c13d 1483 2abe 5b2c 463d 3686 bcbd
000001a0: 03e1 a63c 3f5b f33d ab94 d1ba 4b20 c93d
000001b0: 0048 32bd de56 12bd 11f9 0e3e 12c1 f13d
000001c0: 29d5 6dbd e238 293d 80fb f6bd e82b 8bbd
000001d0: 7673 483d dd36 943d 6d3e 363d 4336 4dbd
000001e0: b57e fb3d d2d8 f73c 4e39 cb3d cc61 c03b
000001f0: 63f6 5cbd 4e22 7dbd f94f 37bd 9e0d e9bd
00000200: c9fe d4bc 3b03 0abe a48c d63d d71c cfbd
00000210: 5e63 603d 36c8 fc3d eef3 4fbb f54c c73d
00000220: 699e 793d 4ece efbd 2f81 a3bd ebe1 ec3d
00000230: dd47 033d b1b6 17be 35f7 b73d 1740 053d
00000240: 818f c4bd 073a 483d 8f72 f8bd af87 933d
00000250: 38e3 773d 6702 693d 2616 d7bd de58 683d
00000260: 46a0 2bbd 64a8 c93d 4530 193d 2f44 bebd
00000270: 4e3e 98bd 4e99 e9bc d574 a23d c2f6 c8bd
00000280: 5bc1 d3bd ce28 033e 6e3a b9bd 4e4a 8f3d
00000290: 90d3 19be 5053 3cbc 432d bb3d f3ae 1f3e
000002a0: 0a56 06bd 18f2 12be c19f 1f3c 9470 95bd
000002b0: a419 c0bd f576 11be 8849 1a3e 3416 3f3d
000002c0: 40bb a6bd eb82 093e b39d de3b c6f2 c53d
000002d0: b4b6 c53d a2a0 693d f841 26be c2f7 25be
000002e0: 464e 123e b008 663d c417 98bd 4218 1a3e
000002f0: cc2c f9bb f9ad 443d 569a 853d c53b 363d
00000300: 9025 85bd e897 153e cc9b 2dbd dc8b 863d
00000310: 7ab4 8e3d abed 1dbe 8cc5 abbc 1ef4 f73d
00000320: 5d69 133e 01a1 be3b 7eda bb3d dfca 24be
00000330: 1f1a 8f3d bb58 e7bd 3548 cf3d 8179 30bd
00000340: 48bc 9b3d 94d4 753d 29cf e6bc 26b5 b43d
00000350: c0f5 1e3d 2fe1 49bd d1d4 50bd 87ad babd
00000360: 805c ea3d 57e1 f33c b639 793d 065f 0ebd
00000370: 664b eb3d 10fb 72bd 75fd 2bbd 75e3 933c
00000380: 2709 ae3d f1e9 84bc a259 933d 10e7 d33c
00000390: 1c8f 823d 2390 843d 69db 0c3e 24a5 b23c
000003a0: 63eb fbbd fa87 113e 8f86 483b c1de e5bd
000003b0: 6310 b73c cf70 303e e034 efbd 4f11 88bc
000003c0: 3ccb 9f3c 80e0 59bb 8702 cfbd b360 e03c
000003d0: 1ca8 333d a8af aebd fce7 adbc 8787 873d
000003e0: 1bab dd3d eedd 083e a6a5 8c3d 6804 89bd
000003f0: c69f 963d 752a 0fbe c7c8 ef3d fc8c f23d
0.11381896 0.05974109 -0.07359737 -0.16636829 -0.033636037 -0.06602004 0.08862463 -0.052101478
-0.15942435 0.12855744 -0.094305165 0.0040490683 -0.05453483 -0.005560408 0.023164589 0.08340266
-0.113423124 -0.025625598 -0.051957417 0.008769881 0.12577116 0.0019277722 -0.017005628 -0.15908799
0.12003224 -0.06675734 0.052298885 -0.12470476 0.12915218 -0.040336095 -0.097784795 -0.0010202784
-0.1266799 -0.05791451 0.11186837 -0.07219429 0.08792094 -0.03206694 0.13409305 -0.09440636
-0.071802154 -0.14878066 -0.12457683 0.05550291 0.11870923 -0.10952453 0.10253215 0.1680855
0.112454765 -0.098153755 -0.12227524 0.03347762 0.035844676 0.11046595 0.11764367 -0.15956843
0.06218245 0.03879549 -0.15895069 0.0430058 -0.058865406 0.025903633 -0.0031470973 0.054664433
0.011533302 0.12093359 0.036111914 0.14887469 0.11300563 -0.06438708 0.06869303 -0.034696802
0.07592096 0.09577716 -0.0334208 -0.0010792015 0.10053001 -0.09555811 0.029397244 -0.022533916
-0.02939972 0.131863 0.053963527 -0.0663973 -0.012506626 0.12795535 0.16930117 -0.15074025
-0.034974303 0.07284414 -0.024930188 0.14466585 0.051750638 -0.104954705 0.14142612 0.1036635
-0.031035341 -0.091390364 -0.052288286 0.06380423 0.09437437 -0.16651565 0.048382144 -0.09205286
0.020370966 0.11882638 -0.0015989741 0.098206125 -0.043525696 -0.035727374 0.13962199 0.11804403
-0.058064613 0.041314013 -0.120596886 -0.06795484 0.048938237 0.07237027 0.044493128 -0.050100576
0.12280027 0.030254755 0.099230394 0.0058710333 -0.05394591 -0.061800294 -0.044754002 -0.113795504
-0.026000397 -0.13477795 0.10476044 -0.10112923 0.054782264 0.12342875 -0.0031731087 0.09731475
0.060942087 -0.11709271 -0.07983624 0.11566528 0.032050956 -0.14815785 0.08982698 0.032531824
-0.09597684 0.048883464 -0.12131225 0.07203614 0.060519427 0.056887057 -0.10502271 0.056725375
-0.041900896 0.09846571 0.03739955 -0.09290349 -0.07433759 -0.028515484 0.0793244 -0.0981269
-0.10339614 0.12808535 -0.09044348 0.06996594 -0.15022111 -0.011494473 0.09139492 0.15594082
-0.032796897 -0.14350164 0.009742678 -0.07296863 -0.093798906 -0.14205535 0.15067112 0.046652034
-0.08141184 0.13428847 0.0067937016 0.09665446 0.096539885 0.057037957 -0.16236103 -0.16207793
0.14287671 0.05616063 -0.07426408 0.15048316 -0.007604217 0.048017476 0.06523578 0.044490594
-0.06501305 0.14608729 -0.042384908 0.06569645 0.06968017 -0.15422694 -0.020968221 0.121071085
0.14395662 0.005817533 0.091725335 -0.16093014 0.06987404 -0.11296221 0.10121194 -0.043084625
0.07604271 0.060017183 -0.028174954 0.08823614 0.038808584 -0.049287017 -0.050984208 -0.09115129
0.11443424 0.029770536 0.060846053 -0.03475859 0.114889905 -0.059321463 -0.041989762 0.018052796
0.084978394 -0.016224833 0.071948305 0.025867015 0.06374952 0.064728044 0.13755573 0.02180726
-0.12300756 0.14212027 0.0030597781 -0.112241276 0.022346681 0.17230533 -0.11680007 -0.016609816
0.01950609 -0.0033245385 -0.10107904 0.02738986 0.043861493 -0.085295975 -0.021228783 0.06617647
0.108236514 0.1336591 0.068675324 -0.066902936 0.07354693 -0.1398104 0.11708217 0.11843297

conv1.bias f4 [32]
00000000: 3a64 babc 24be cfbb 4797 cabc 8eb7 68bc
00000010: 9dea 9f3b 3072 ffbb 378d 293c 0880 ad3c
00000020: fa1d 5d3c f50b 313b b01b 9fbc 2c70 05bd
00000030: 73b5 0bbc 498b f1bb 5ce8 603d 487d 713c
00000040: 8a35 c03b 453e 223c db0b 393b e3cc 6a3c
00000050: a953 0ebd 0ae3 153c 5c54 b83c e7dd 0c3d
00000060: 43bb 91bc ce2e 243c 534e 5aba fd40 c73c
00000070: a3cc 2c3d 9d4c 81bc 9637 72bc 0477 43bd
-0.02275287 -0.006339805 -0.024730338 -0.014203919 0.004880263 -0.0077955946 0.01034861 0.021179214
0.0134959165 0.0027015184 -0.019422382 -0.03257768 -0.008527148 -0.0073713404 0.054909095 0.014739342
0.0058657574 0.0099025415 0.0028235826 0.014331075 -0.034747753 0.009148369 0.022501163 0.03439131
-0.017789489 0.010020925 -0.0008327711 0.024322981 0.042187344 -0.015783602 -0.0147837605 -0.047720924

conv1.nn.0.weight f4 [8, 116]
00000000: ea24 cab2 ccd4 003c e781 e5bb d4e2 15b9
00000010: 5d11 a2ba 8f46 88b9 2a01 aeb7 8bf0 07bb
00000020: 731a ca3c f3ee a4b7 ebce 2db6 96f2 ffbb
00000030: a254 3b3c b335 033d 9800 cfb5 46b2 04bb
00000040: 8b00 94ba 9204 863d 9be3 61bc 0aac dbbb
00000050: 5048 c63c 6b74 f93b 45da 1b3d 8018 1cb9
00000060: da8c f3b7 8baf 5dbb 5a14 32b4 232c 07bc
00000070: f766 feba a961 8bb7 a610 a7bb 1331 17b9
00000080: 3211 e0b8 a78c b53c 6ddc 173d e5f2 3eb6
00000090: c1bf f7b8 fed1 793d 5a63 e33c eca9 1d3d
000000a0: 2aa3 1ebb dd67 053c 1747 073d eede 0e3c
000000b0: 11b0 803d ea9f 1e3d 578d 813c b423 293c
000000c0: d1f2 473d 662f 443d 6c34 e43d fb9c c7ba
000000d0: 9df0 1c3d d4c1 043d 414f eab3 5a40 65bb
000000e0: 5f97 b6b9 4d1a 4d3b 38d9 26b8 2e01 153d
000000f0: 30d0 263d c873 c8b7 27bf 403c e10a bab9
00000100: b799 493d 4543 9eb9 78de c9bb f186 593c
00000110: 90b6 b03c 8053 81bb bb11 1bba 768c 12b8
00000120: bb2b 4abc 225a 89ba 7bbf 9f3d 6c5d 293c
00000130: 60ca 883c 3100 d53c 6623 323c 5b6f 1e3c
00000140: 7ef6 73ba 1e1b 9eb9 02c8 62b8 0128 abbb
00000150: a8fc aabb 46a5 a7b8 1dcd 2fb9 9755 9ebb
00000160: f92c 97bb f250 55b8 b9db 0bb9 7e27 0dbb
00000170: a8ed 4fb6 bbd9 1fba 528b 7c3d 2c27 083d
00000180: f86d 2c3d 53cf 8a3c f4c4 abba 67c1 7ab7
00000190: 6cdb 66b9 5fe6 0db8 84a9 36b6 a1b9 42b6
000001a0: 7cad 7eb8 c2d8 81b6 6603 af3c 0749 3aba
000001b0: 9384 30bc bca1 2abb 996d 80ba a419 a5b7
000001c0: b544 bcb9 a09f f2b8 4dd9 8fba f3f7 333d
000001d0: 84b2 db3c 63d2 57ba 55bc 7dbb de9e dabb
000001e0: 6319 163d 02de bc3c 6c10 57ba e0b3 2cb9
000001f0: 7e60 793c 7137 a4b9 9b81 543c eb5f 8f3c
00000200: 4e08 493b 5bee 8d3d e8da 813d a826 ba3c
00000210: 8df0 b2ba 885a 4b3d 238f b3b8 ce9f 9cba
00000220: 93ad 67bc c8df a23d c9bd 32ba f0ff 323d
00000230: fb7f 2c3d 2ecd bcb6 6b4c 183d 60ba 5f3d
00000240: a04d 0b3c 714a 953c c0bf dd3c 1c2d a63d
00000250: 130b bfb4 f5d7 15ba 40a7 433d 1e84 83b9
00000260: d9f0 1b3d 6e69 173d 91ee f33c 85f0 123d
00000270: 68a5 da3c 5c57 4f3b 0444 353d 9e00 18bb
00000280: 5858 43bb 4a0c 60bb e5ca 943c 29b2 0ebb
00000290: bd85 2d3d 3271 e53d 6206 1c3d 7f01 96bb
000002a0: 7797 8c3c 0f58 623d 11a8 4bb9 320a cd3c
000002b0: 882c 003c 2d91 7d3c a519 543d 834b 633d
000002c0: 6c55 663d ebdd 29bc 4309 baba 3aca 873c
000002d0: 7cfa 83bb a2bd ebbb deda 9b3c 541d 43ba
000002e0: 6765 f8ba 9c63 e63c de92 8b3c 8a04 4f3c
000002f0: 9498 38bb 8344 b0b8 24f2 f13c 09a9 25ba
00000300: 3331 40bb 34e2 da3c 2949 29ba 1142 033d
00000310: cd5f 67ba 742a e33c 0294 173d 3077 b43c
00000320: 06a0 f33c 2b8a dd3c 3556 4e3d 2afe 8c3c
00000330: 2d82 4cb8 11f2 f0b8 8c91 243d f4df 7e3d
00000340: 2978 3cb9 c95b dd3c 04a2 da3b f02c 57bb
00000350: 8476 dfb7 acdf 27b3 c961 933c 83ca 2fba
00000360: 9d38 423c 7128 7a36 5c06 623b d23f a4b7
00000370: 562f 43b6 0371 0cb9 ef07 e738 3a7b 47ba
00000380: 867f 8aba 27c6 5b3d d0ab 1bba 6ad7 ea3b
00000390: bc85 7b3c 89b0 f5b1 6ace 1b3c a2b6 abb7
000003a0: 8029 f83c 3da9 b8ba 1b26 223d 3c30 a5bb
000003b0: 5f13 383c 00bb 563b 6119 2a3d 5bd0 a03c
000003c0: 40c3 113d b41d dd3b 959a 423c 9369 a83c
000003d0: 9f20 533c a216 a23c ede7 993c fb75 0c3d
000003e0: ba39 303c 5fc4 bfbb 7b88 85ba bcfb 303d
000003f0: e88b 76b7 d15e eb3c ceb7 1dbb 8d17 e0bb
-2.3532682e-08 0.007863235 -0.007004011 -0.00014294247 -0.0012364794 -0.00025992512 -2.0742958e-05 -0.002074274
0.024670815 -1.9661593e-05 -2.589945e-06 -0.007810901 0.011433752 0.032033633 -1.5422875e-06 -0.002024786
-0.0011291666 0.065438405 -0.0137871755 -0.0067038583 0.024204403 0.007612755 0.038049955 -0.00014886446
-2.9033446e-05 -0.0033826556 -1.6584946e-07 -0.008250269 -0.0019409348 -1.6615568e-05 -0.00509842 -0.00014418764
-0.00010684355 0.022161795 0.03707545 -2.845359e-06 -0.00011813595 0.06099128 0.027757335 0.03849213
-0.002420614 0.008142439 0.03302678 0.008720143 0.06283582 0.038726725 0.015814466 0.010323454
0.048815552 0.047896765 0.11142811 -0.0015229279 0.038315404 0.03241141 -1.091089e-07 -0.0034980983
-0.00034826525 0.0031296194 -3.9779785e-05 0.03637808 0.040725887 -2.3895773e-05 0.011764324 -0.0003548479
0.04921886 -0.00030186228 -0.0061605535 0.013276801 0.021571428 -0.0039467216 -0.0005915423 -3.4939927e-05
-0.012339528 -0.0010479132 0.07800194 0.010337215 0.016698062 0.026001068 0.010872697 0.009670104
-0.00093064446 -0.00030156312 -5.406887e-05 -0.0052232747 -0.0052181073 -7.993965e-05 -0.00016765711 -0.0048319804
-0.0046135155 -5.0858544e-05 -0.00013337926 -0.0021538432 -3.0983738e-06 -0.0006097813 0.061656304 0.033240482
0.042097062 0.016944563 -0.0013104961 -1.4946191e-05 -0.0002201625 -3.383157e-05 -2.7218784e-06 -2.9016303e-06
-6.071989e-05 -3.8697335e-06 0.021363925 -0.0007106219 -0.010773796 -0.0026036343 -0.0009798288 -1.9681473e-05
-0.00035909345 -0.00011569192 -0.0010974795 0.043937635 0.026818521 -0.0008232949 -0.003871699 -0.0066717705
0.036645304 0.02305508 -0.0008204046 -0.00016470207 0.015220759 -0.00031321825 0.0129703535 0.017501792
0.0030675116 0.06930228 0.06340581 0.02272351 -0.0013652012 0.049646884 -8.5620464e-05 -0.0011949481
-0.014140504 0.07952839 -0.00068184413 0.043701112 0.04211424 -5.6267227e-06 0.037182253 0.0546211
0.008502394 0.018223973 0.027068973 0.08114073 -3.558458e-07 -0.0005716079 0.047766924 -0.00025084702
0.038071487 0.03696578 0.029776843 0.03587391 0.0266902 0.0031637764 0.044254318 -0.0023193727
-0.0029807296 -0.0034187012 0.018163154 -0.0021773672 0.04236387 0.11203231 0.038092025 -0.004577815
0.017162068 0.05525976 -0.00019422198 0.025029276 0.007823117 0.015476507 0.05178227 0.055491935
0.05623381 -0.010367851 -0.0014193434 0.016575921 -0.004027663 -0.007194237 0.019025262 -0.000744303
-0.0018951119 0.02812367 0.017037805 0.01263536 -0.0028167116 -8.405095e-05 0.029534407 -0.00063194387
-0.00293262 0.02671919 -0.000645774 0.032045428 -0.0008826226 0.027730204 0.037006386 0.02202949
0.029739391 0.027043423 0.050375182 0.017211039 -4.8758626e-05 -0.0001148918 0.040177867 0.062225297
-0.0001797384 0.027021306 0.006672146 -0.0032833181 -2.663886e-05 -3.9086146e-08 0.017990964 -0.0006705897
0.011854318 3.7276443e-06 0.0034488654 -1.9580042e-05 -2.9084817e-06 -0.0001339354 0.00011016416 -0.000760961
-0.0010566569 0.05365577 -0.0005938383 0.0071667926 0.015351709 -7.150508e-09 0.009509662 -2.0469834e-05
0.030293226 -0.0014088523 0.03958712 -0.0050411504 0.011235087 0.003276527 0.04152811 0.019630602
0.035586596 0.0067479257 0.011877676 0.020558154 0.012886195 0.019786183 0.018787349 0.034292202
0.010755951 -0.0058522667 -0.0010187769 0.043208823 -1.4695317e-05 0.028731735 -0.0024065855 -0.006838745

conv1.nn.2.weight f4 [7040, 8]
00000000: 976e 34bb 3625 02ba cb86 aeba 8f33 5dbb
00000010: 6879 913b c70c d73a 7096 9a3c 5b29 ac3c
00000020: 6d5a 493c 0c8e 063b 0df0 f93b d865 163b
00000030: f9de f33c 0d85 b63b d65c 14ba 3de2 9c3b
00000040: 485f 4bbb 3710 dbbb 116d fabb 05cf ddba
00000050: d30b 58bb 6e50 933a 1516 1739 13cc d53b
00000060: a39c 033d 1923 7cbc 8173 1abc df3d 1dbc
00000070: e264 87bc 8417 c2ba 81d5 9a3b 0b4b 8dbc
00000080: 3ac2 5dba bca8 343d 376c 043c 67f8 3739
00000090: 4402 3b3a 4136 b8ba 85d7 803b aa3a 3ebc
000000a0: 37d3 903b 440a 083d fb6f 153c 86af 273b
000000b0: 504b 9a3c 546d 173a c1bd 4f3c b834 223c
000000c0: 1917 373b 1c7a 2b3b b2e8 84ba 2696 503c
000000d0: 009e 91bc 79e8 f8b9 0c30 673b d66b c4bb
000000e0: 4a6f 613c 50b9 f2bc dd5a 273b a20a 893c
000000f0: 4070 123c 750e 6a3c 723e 24bd 4307 2b3c
00000100: 9b70 b73c dc42 8dbb d809 3ebd beac afb9
00000110: fad1 0fbd 03c1 163c 4f25 be39 b4ea 5ebd
00000120: ee4c 0cbb c5e5 83ba 922e 223c b5f0 6dba
00000130: 3176 0bba 758e a43b d848 67bc 1324 97bc
00000140: 0812 63bb 6f9a 06bd 82c9 b4bb 2327 07bd
00000150: 624d c4bb aec0 dd3b 4c2a e53b 4ad0 6d37
00000160: f3da debb a0f1 1e3d fd18 e33c fb49 02bc
00000170: 6ccc 143d 067c 0dbc e2a0 503c cfc2 97bc
00000180: 87dc dcbb 920d 26bb 2fa3 afbb 0740 ffba
00000190: f745 353b ae22 173c 34db afbb 1f92 b9bb
000001a0: db72 1abb fa48 8fbb ba2f bc3b 7eb3 b0bc
000001b0: 491a 2a3d 90b4 27bb e389 21bd a4a1 cdbc
000001c0: afa3 d7bc 33cd a6bc 386f d9bc 9ce7 7fbb
000001d0: a21e 93bc f5db a5bc 8194 0ebd 4a19 773d
000001e0: 2c13 a83a e0da e83a 5453 9dbb 2758 01bd
000001f0: 4e7b cd3a 6b4d 23b9 02b6 05bd 3f88 c5bc
00000200: fb95 75bc 2f60 a5ba d9d5 f1b9 9296 a63b
00000210: d7e7 abba 8409 c4bc 982a afbb 1617 e3bc
00000220: 974d 9dbc 370f 7d3b a39c d43a bdc6 01bb
00000230: 17c7 f9ba 5588 aa39 da0e 503c d888 01bc
00000240: f7f9 a33a ed07 73ba 947f 99bb 5976 f0ba
00000250: d4dd 3cbc 93ed b4bc 5918 a3bb 27f5 f539
00000260: 0c51 f1bb 9f9e 343c 6ab7 a0b8 3daf a1ba
00000270: 2775 8ebb 8728 13bc f328 86bb b8cb 8c3c
00000280: 535f 043c b89e 0a3d 6881 eb3b 3c81 c33c
00000290: bebd 1abc 412c a0bc 21e8 7dbb 5787 953a
000002a0: b0c8 74bc 6d09 453b 91a4 f6bc 6216 323b
000002b0: 6932 4bbc b571 c5bb 8400 2e3c fbaa 5cbb
000002c0: 121d e9bb 2c2a 48bc b72d 153c d152 c0bb
000002d0: 8303 853c 6a57 43bc 9d25 693b 5ea4 aab9
000002e0: 972b 83bc 7300 173b c741 393c 268a 013c
000002f0: e171 d33c 3ea2 21bc becd 553c 56d6 c1ba
00000300: 7bce 9f3a d6de 653c 6b1c 6d3c afd8 95bb
00000310: f8ef 2aba 5b30 ecbb 24f5 e03b eeb9 833a
00000320: 970f 24bd 4070 0cbb c2b8 da3b e0da ddbc
00000330: a2c1 a53c 0b1d d13a 3085 a5bc 09d0 74bc
00000340: 9a8d 3fbb 7c34 92bc 2e2f 59bb a05a 9ebb
00000350: 8a6d 413b 9ae0 15bc b749 823b 6b5d 3cbc
00000360: e063 753c 5bcc 2d3d 8dc1 2c3c b07a aebc
00000370: 7e9e 06b9 7fa7 5c3c 3d5a 51bb 1d43 163d
00000380: b461 09bd 712d e6ba dc2d babc 155b debc
00000390: ff31 c93b dd8b 47bc 0c95 703c 157b fd3a
000003a0: 9c0b 0cbb 9f43 c0bb 01d9 2a3c e3ef 313d
000003b0: 7cce 353b c61f 913b 6561 ca3b b294 b9bc
000003c0: 560f fb3b 4f5f acbb e64e 813c 97be c4bb
000003d0: 424e 0c3c cf8f a4ba e27e 493d 6523 1abd
000003e0: 3dbb 89bc 0a62 75ba 0c48 0a3c 19e5 3ebb
000003f0: 9333 9dbc 61c7 87bc 54f7 0dbd 083e 6c3c
-0.0027531737 -0.00049646513 -0.0013315318 -0.0033752655 0.0044395216 0.0016407006 0.018870562 0.021015814
0.012289626 0.0020531444 0.0076274932 0.0022948887 0.029769408 0.00557006 -0.00056595856 0.004787712
-0.0031032134 -0.0066852826 -0.0076423963 -0.0016922659 -0.0032966032 0.001123918 0.00014408708 0.0065245717
0.032131802 -0.015389227 -0.009426952 -0.009597271 -0.016527597 -0.0014808034 0.0047251587 -0.017247697
-0.0008459423 0.04410623 0.008082441 0.00017544777 0.00071338215 -0.0014054255 0.003931942 -0.011610666
0.00441971 0.033212915 0.0091209365 0.0025586798 0.01883474 0.0005776484 0.012679518 0.009900264
0.0027937351 0.0026165312 -0.0010140149 0.012731111 -0.017775536 -0.00047475452 0.003527644 -0.0059943004
0.013759444 -0.02962938 0.0025536336 0.016728703 0.008937895 0.014285673 -0.040098615 0.010438743
0.022392562 -0.004310949 -0.046396106 -0.00033507304 -0.03511236 0.009201291 0.0003626742 -0.05442305
-0.0021408158 -0.0010062983 0.009898799 -0.00090767007 -0.0005320041 0.005021865 -0.014116488 -0.018449819
-0.0034648199 -0.032862123 -0.0055171857 -0.032996308 -0.00599067 0.006767354 0.0069935676 1.4174797e-05
-0.006801003 0.03880465 0.027721876 -0.007952209 0.036327764 -0.0086355265 0.01273367 -0.01852551
-0.006740156 -0.0025337678 -0.005360029 -0.0019474038 0.002766011 0.009224577 -0.005366707 -0.005663171
-0.0023566994 -0.004372713 0.005742994 -0.021569964 0.041528974 -0.0025589801 -0.03943814 -0.02510149
-0.026323168 -0.020361518 -0.026542291 -0.0039047962 -0.017958943 -0.020246485 -0.034809593 0.060326852
0.0012823096 0.0017765425 -0.0048011933 -0.03157821 0.0015677006 -0.00015573732 -0.03264428 -0.024112819
-0.014989371 -0.0012617166 -0.0004612643 0.0050838673 -0.0013115358 -0.023930319 -0.0053456537 -0.02772097
-0.019202037 0.0038613805 0.0016220998 -0.0019802295 -0.0019056526 0.00032526502 0.012698853 -0.007906161
0.0012510408 -0.00092708954 -0.004684398 -0.0018345817 -0.011527497 -0.02208594 -0.0049772677 0.00046912694
-0.007364398 0.011024146 -7.663558e-05 -0.001233555 -0.0043474617 -0.00898183 -0.004094237 0.017186984
0.008079368 0.033842772 0.0071870573 0.023865335 -0.009444652 -0.019552352 -0.0038743096 0.0011408132
-0.014940426 0.0030065433 -0.030107768 0.0027173986 -0.012402155 -0.006025518 0.01062024 -0.0033671248
-0.007114061 -0.012217086 0.009105138 -0.0058692475 0.016237026 -0.011922697 0.0035575398 -0.0003254739
-0.016011996 0.002304104 0.011307186 0.007906472 0.025811138 -0.009865342 0.013049541 -0.0014788609
0.0012192273 0.014030179 0.014472107 -0.00457295 -0.00065207435 -0.007207913 0.0068651605 0.0010049918
-0.04005393 -0.002142921 0.006674857 -0.027081907 0.020233933 0.001595409 -0.02020511 -0.014942178
-0.0029228688 -0.017847292 -0.0033139694 -0.0048325807 0.0029514753 -0.0091477875 0.0039760727 -0.011496882
0.014977425 0.042431217 0.010544193 -0.021298736 -0.00012838279 0.013467669 -0.0031944655 0.036685098
-0.033540443 -0.001756115 -0.022726946 -0.02714304 0.006139993 -0.012179342 0.014683973 0.001933905
-0.0021369224 -0.005867436 0.010427714 0.043441664 0.0027741482 0.0044288365 0.006176161 -0.022653911
0.0076617403 -0.005260385 0.015784692 -0.0060041654 0.00856358 -0.0012555065 0.04919327 -0.03763141
-0.016812915 -0.0009360617 0.008440029 -0.0029128252 -0.019189632 -0.016574563 -0.0346597 0.014419086

conv1.nn.2.bias f4 [7040]
00000000: ea19 e93d 13b3 743d 38ba 96bd 735c 2abe
00000010: f1c5 09bd 8435 87bd d480 b53d 5c68 55bd
00000020: 2340 23be 90a4 033e 1123 c1bd 0cae 843b
00000030: ea5f 5fbd 1534 b6bb aac3 bd3c 04cf aa3d
00000040: 624a e8bd c6ec d1bc 4dd1 54bd 8caf 0f3c
00000050: 28ca 003e 4dad fc3a 634f 8bbc f6e7 22be
00000060: 77d3 f53d 13b8 88bd 5b37 563d 3665 ffbd
00000070: 7840 043e 7637 25bd 6543 c8bd ddba 85ba
00000080: 60b8 01be c437 6dbd 3e1b e53d 9ada 93bd
00000090: e50f b43d a058 03bd b04f 093e 1f58 c1bd
000000a0: 020d 93bd f559 18be 2322 ffbd 0557 633d
000000b0: d31d f33d 664e e0bd 60fc d13d 9b1e 2c3e
000000c0: af4e e63d d604 c9bd 716b fabd d41f 093d
000000d0: ded1 123d f93b e23d 2aef f03d e865 23be
000000e0: 06b3 7e3d 05e8 1e3d f8c3 22be da26 303d
000000f0: da1c 71bd db33 d43c 883f 4ebb d0e7 5f3d
00000100: 2df6 3c3c 08ac f73d 16ea 133d 9b72 183e
00000110: 7f6f e73d 60dd 83bd eeae 8c3d 3c1e 0ebd
00000120: 737c 9b3d d126 c43d 40e4 08bd fe73 8dba
00000130: aee2 cd3d f8b3 c3bd 7dd2 f03c 0c99 b8bc
00000140: aed7 f0bc 1807 073e dc08 5d3d 4ffb 87bd
00000150: 97e8 4cbc ba06 033e 495d 2d3e a75b 1abe
00000160: 3741 0fbd 4f2f 953d 653a ccbc 4923 143e
00000170: 7af8 533d 7ef2 d6bd 02d2 103e 874d d43d
00000180: d43d febc df2a bbbd 3e2c 56bd cbab 823d
00000190: 5a47 c13d 1483 2abe 5b2c 463d 3686 bcbd
000001a0: 03e1 a63c 3f5b f33d ab94 d1ba 4b20 c93d
000001b0: 0048 32bd de56 12bd 11f9 0e3e 12c1 f13d
000001c0: 29d5 6dbd e238 293d 80fb f6bd e82b 8bbd
000001d0: 7673 483d dd36 943d 6d3e 363d 4336 4dbd
000001e0: b57e fb3d d2d8 f73c 4e39 cb3d cc61 c03b
000001f0: 63f6 5cbd 4e22 7dbd f94f 37bd 9e0d e9bd
00000200: c9fe d4bc 3b03 0abe a48c d63d d71c cfbd
00000210: 5e63 603d 36c8 fc3d eef3 4fbb f54c c73d
00000220: 699e 793d 4ece efbd 2f81 a3bd ebe1 ec3d
00000230: dd47 033d b1b6 17be 35f7 b73d 1740 053d
00000240: 818f c4bd 073a 483d 8f72 f8bd af87 933d
00000250: 38e3 773d 6702 693d 2616 d7bd de58 683d
00000260: 46a0 2bbd 64a8 c93d 4530 193d 2f44 bebd
00000270: 4e3e 98bd 4e99 e9bc d574 a23d c2f6 c8bd
00000280: 5bc1 d3bd ce28 033e 6e3a b9bd 4e4a 8f3d
00000290: 90d3 19be 5053 3cbc 432d bb3d f3ae 1f3e
000002a0: 0a56 06bd 18f2 12be c19f 1f3c 9470 95bd
000002b0: a419 c0bd f576 11be 8849 1a3e 3416 3f3d
000002c0: 40bb a6bd eb82 093e b39d de3b c6f2 c53d
000002d0: b4b6 c53d a2a0 693d f841 26be c2f7 25be
000002e0: 464e 123e b008 663d c417 98bd 4218 1a3e
000002f0: cc2c f9bb f9ad 443d 569a 853d c53b 363d
00000300: 9025 85bd e897 153e cc9b 2dbd dc8b 863d
00000310: 7ab4 8e3d abed 1dbe 8cc5 abbc 1ef4 f73d
00000320: 5d69 133e 01a1 be3b 7eda bb3d dfca 24be
00000330: 1f1a 8f3d bb58 e7bd 3548 cf3d 8179 30bd
00000340: 48bc 9b3d 94d4 753d 29cf e6bc 26b5 b43d
00000350: c0f5 1e3d 2fe1 49bd d1d4 50bd 87ad babd
00000360: 805c ea3d 57e1 f33c b639 793d 065f 0ebd
00000370: 664b eb3d 10fb 72bd 75fd 2bbd 75e3 933c
00000380: 2709 ae3d f1e9 84bc a259 933d 10e7 d33c
00000390: 1c8f 823d 2390 843d 69db 0c3e 24a5 b23c
000003a0: 63eb fbbd fa87 113e 8f86 483b c1de e5bd
000003b0: 6310 b73c cf70 303e e034 efbd 4f11 88bc
000003c0: 3ccb 9f3c 80e0 59bb 8702 cfbd b360 e03c
000003d0: 1ca8 333d a8af aebd fce7 adbc 8787 873d
000003e0: 1bab dd3d eedd 083e a6a5 8c3d 6804 89bd
000003f0: c69f 963d 752a 0fbe c7c8 ef3d fc8c f23d
0.11381896 0.05974109 -0.07359737 -0.16636829 -0.033636037 -0.06602004 0.08862463 -0.052101478
-0.15942435 0.12855744 -0.094305165 0.0040490683 -0.05453483 -0.005560408 0.023164589 0.08340266
-0.113423124 -0.025625598 -0.051957417 0.008769881 0.12577116 0.0019277722 -0.017005628 -0.15908799
0.12003224 -0.06675734 0.052298885 -0.12470476 0.12915218 -0.040336095 -0.097784795 -0.0010202784
-0.1266799 -0.05791451 0.11186837 -0.07219429 0.08792094 -0.03206694 0.13409305 -0.09440636
-0.071802154 -0.14878066 -0.12457683 0.05550291 0.11870923 -0.10952453 0.10253215 0.1680855
0.112454765 -0.098153755 -0.12227524 0.03347762 0.035844676 0.11046595 0.11764367 -0.15956843
0.06218245 0.03879549 -0.15895069 0.0430058 -0.058865406 0.025903633 -0.0031470973 0.054664433
0.011533302 0.12093359 0.036111914 0.14887469 0.11300563 -0.06438708 0.06869303 -0.034696802
0.07592096 0.09577716 -0.0334208 -0.0010792015 0.10053001 -0.09555811 0.029397244 -0.022533916
-0.02939972 0.131863 0.053963527 -0.0663973 -0.012506626 0.12795535 0.16930117 -0.15074025
-0.034974303 0.07284414 -0.024930188 0.14466585 0.051750638 -0.104954705 0.14142612 0.1036635
-0.031035341 -0.091390364 -0.052288286 0.06380423 0.09437437 -0.16651565 0.048382144 -0.09205286
0.020370966 0.11882638 -0.0015989741 0.098206125 -0.043525696 -0.035727374 0.13962199 0.11804403
-0.058064613 0.041314013 -0.120596886 -0.06795484 0.048938237 0.07237027 0.044493128 -0.050100576
0.12280027 0.030254755 0.099230394 0.0058710333 -0.05394591 -0.061800294 -0.044754002 -0.113795504
-0.026000397 -0.13477795 0.10476044 -0.10112923 0.054782264 0.12342875 -0.0031731087 0.09731475
0.060942087 -0.11709271 -0.07983624 0.11566528 0.032050956 -0.14815785 0.08982698 0.032531824
-0.09597684 0.048883464 -0.12131225 0.07203614 0.060519427 0.056887057 -0.10502271 0.056725375
-0.041900896 0.09846571 0.03739955 -0.09290349 -0.07433759 -0.028515484 0.0793244 -0.0981269
-0.10339614 0.12808535 -0.09044348 0.06996594 -0.15022111 -0.011494473 0.09139492 0.15594082
-0.032796897 -0.14350164 0.009742678 -0.07296863 -0.093798906 -0.14205535 0.15067112 0.046652034
-0.08141184 0.13428847 0.0067937016 0.09665446 0.096539885 0.057037957 -0.16236103 -0.16207793
0.14287671 0.05616063 -0.07426408 0.15048316 -0.007604217 0.048017476 0.06523578 0.044490594
-0.06501305 0.14608729 -0.042384908 0.06569645 0.06968017 -0.15422694 -0.020968221 0.121071085
0.14395662 0.005817533 0.091725335 -0.16093014 0.06987404 -0.11296221 0.10121194 -0.043084625
0.07604271 0.060017183 -0.028174954 0.08823614 0.038808584 -0.049287017 -0.050984208 -0.09115129
0.11443424 0.029770536 0.060846053 -0.03475859 0.114889905 -0.059321463 -0.041989762 0.018052796
0.084978394 -0.016224833 0.071948305 0.025867015 0.06374952 0.064728044 0.13755573 0.02180726
-0.12300756 0.14212027 0.0030597781 -0.112241276 0.022346681 0.17230533 -0.11680007 -0.016609816
0.01950609 -0.0033245385 -0.10107904 0.02738986 0.043861493 -0.085295975 -0.021228783 0.06617647
0.108236514 0.1336591 0.068675324 -0.066902936 0.07354693 -0.1398104 0.11708217 0.11843297

pool1.select.weight f4 [1, 32]
00000000: 09de dcbd e0cf ad3c a491 353c 79e3 9c3d
00000010: c147 05be c3c5 2d3e 92fb 32bd 464f 0abe
00000020: b4a5 84bd ce11 82bd 3a98 1a3d 12ea 23be
00000030: 6644 fbbc feb9 1c3e ded1 07be ee9c c83d
00000040: 953f 8dbd 4e38 adbd 38ba f03a 4160 2e3d
00000050: b71e d7bc c6d5 e93b f794 e53d 21bf 123e
00000060: 0ccf ea3c e513 c03d c4c6 c2bd 596d 6abd
00000070: 87c9 af3d 492f 53bc 46dc da3c 809f 133e
-0.10784537 0.021217287 0.011082087 0.076605745 -0.13015653 0.16969971 -0.043696947 -0.13506803
-0.06476918 -0.06351052 0.03774283 -0.1600726 -0.030672263 0.15305325 -0.13263652 0.09795557
-0.06896893 -0.08458005 0.0018366044 0.042572264 -0.026259763 0.0071360795 0.112100534 0.14330722
0.02866318 0.093787946 -0.09510568 -0.05723319 0.0858336 -0.012889692 0.026716363 0.14416313

n2.0.weight f4 [8, 116]
00000000: bd05 03ba 93fd 4fb8 fcce 90b8 a353 b6ba
00000010: c332 a036 be52 2e3a 4660 4cba 06b7 ecb9
00000020: 96a2 e5b8 2b7e 95b7 ae83 9a3b 0182 bdb9
00000030: 27e7 73b9 fbf0 083c 5aa9 d9ba 6f89 4a3a
00000040: 507b 6db6 acea 72b8 ec1b 04b4 fabf 44b9
00000050: fc4c d1b8 1fba d03b 85d6 08b9 6cde 453d
00000060: 0d77 55b4 5a03 13b6 cccb ddb6 a4f1 d435
00000070: 6575 ee3a 3c49 d4ba 5f94 de3a 6751 8b3b
00000080: 0521 98b5 5ae1 8dba 7730 9f3a e4d1 8d3c
00000090: 80ac 66b9 c859 a83b 5c62 892e 56af a338
000000a0: a679 9eb8 8209 ad38 c4b1 a8b7 014e 333b
000000b0: aca1 dab6 273f 1a37 238b 26ba 12b3 e4ba
000000c0: d07d 5a38 33e5 12ba 6a55 20b9 3374 39b4
000000d0: 37b5 e6b8 02c9 7bb6 0944 dab8 75b8 093d
000000e0: 1be5 45b3 0c8d 72b6 82aa 2a39 4ebb 33b9
000000f0: 8906 18ae d0a0 26b7 3e93 b2b8 46d2 58ba
00000100: cf31 e5b7 615c 8db5 8e58 343c 896b 3cbb
00000110: eba6 ad3c 18a0 88bb 17e5 673c 812f 7eb5
00000120: f4d5 88b8 9d6a 38ba c377 4db6 e83a 00b9
00000130: 850f d5b9 decb f63c 1761 953b 69ad 89b9
00000140: ede6 01ba 1887 04ba 8139 2a3d 97a3 ca39
00000150: 4984 0fb8 bf8d b63b 61a8 363b 39fb 04ba
00000160: b079 cb3b 056a 08ba 8d20 c9b6 8007 023c
00000170: fc2e 0ab8 6511 e73b 4b57 57b7 ab46 443d
00000180: d819 753b 75f6 5f39 38ec 283c 7265 923b
00000190: 8aa0 1fb9 ae56 51b7 445d 3fb1 252e 172f
000001a0: 2702 a52e 9248 7238 fbcc 853c 23d2 ab3a
000001b0: 37dd e13b e3ef 493c 2f5d 323b 7010 7bb6
000001c0: 928b a339 1e9f bdb5 1d67 3f3b a8d6 20b7
000001d0: c4df 17b7 dbbe 61b7 7700 273b 6b0a ddb9
000001e0: 1e15 023b c4ab 91b2 d588 863c 7dc8 05bb
000001f0: 744c c33c eb0a aeb8 cdad 143d 80f6 62b9
00000200: 8e21 923b c46c b7b4 7d80 f0b8 5b6f 173d
00000210: fbfa 8e3a 2bcd 2db4 d29c 35b8 ea0a 8d3b
00000220: c440 83ba 83e8 b9b9 0aea 8c3b 9803 b53c
00000230: 866a 8239 c244 31ba 00df 04ba 6fa6 e23b
00000240: 5b4d d4b8 0d9b 4b3b c880 033b 714a 8eb6
00000250: e0fb 0d3d ae15 973c 9943 be3b d834 5bb4
00000260: 328e a73b c028 a6b6 476f d3af 3ca3 873c
00000270: 8832 d2b8 819c 013b 81a7 99b6 7244 133b
00000280: 4a84 1ebb 7ad5 0fb7 ac14 963b 995c 8db9
00000290: e86d 7cb7 729c e2b9 d33e 9ab7 4045 02b9
000002a0: db3e 84b6 56e0 70b9 695f 183c 6b57 d73b
000002b0: 5e09 6a3b 6826 6e3a 1db6 1d37 5ef1 45b9
000002c0: bfff 1c2c 6cb6 5bb5 04ab 19b6 c60a a1b8
000002d0: 8902 683a 4192 912e 0d3a 7b3b 7bbd 683b
000002e0: 2dcd 0f3d 6e4f 123b de3a 893b 61e1 19b9
000002f0: 03c6 80b7 1517 30ba 52ba d9b5 5781 68ba
00000300: 99c9 be3c c01b 203d c918 863c 1784 7bb7
00000310: 7007 2f3b 0f1d 8fb5 1deb 133d 2f65 abb6
00000320: 6766 913b 42f9 b5b8 fb2f 3bb9 0b1e b63b
00000330: 93a0 4b3c 01f2 70b9 d884 03b8 0c5b ad3c
00000340: 68b1 75ba b637 83b7 18f2 973b 32b1 6cba
00000350: e6e6 dfb7 3a03 11b8 349e a6b6 7e45 b3b9
00000360: 6755 c338 bc78 c93b 7fdc 532e e46f eeb2
00000370: 38ad 743a 2ec5 94b4 3806 8ead 90b8 2f2e
00000380: c1dc 963b c700 b93b 5850 aa3b fb5f 1f3a
00000390: a73c beb7 d87a eeb9 4220 29b7 2b9e 7f3c
000003a0: 2365 34b3 3144 51b8 a192 543d e0ea fdb7
000003b0: bf9c 40ba 12cc 9fb8 0399 283d bbe7 933b
000003c0: aa8b 93b7 c601 7a3b 4ff6 233d 8f32 f9b8
000003d0: f27b 1b3b be14 423c 4dcc bcb3 e893 d13c
000003e0: ea63 acb7 049b 2ab3 2528 1cba 87ae 7db6
000003f0: 19e4 3b3d 1568 3cb9 ace3 023c 3d0d 3d3d
-0.00049981085 -4.9588805e-05 -6.905009e-05 -0.0013910424 4.774281e-06 0.0006649903 -0.0007796328 -0.0004514979
-0.00010949855 -1.7820936e-05 0.0047154045 -0.0003614575 -0.00023260397 0.0083582355 -0.0016606257 0.00077261677
-3.538753e-06 -5.791585e-05 -1.2303616e-07 -0.00018763533 -9.980236e-05 0.0063698436 -0.00013049885 0.04830782
-1.9880481e-07 -2.1906658e-06 -6.6100383e-06 1.5865558e-06 0.0018192945 -0.0016196142 0.0016981474 0.0042516473
-1.1334492e-06 -0.0010824606 0.0012145181 0.017311998 -0.0002199877 0.005137656 6.247511e-11 7.8051045e-05
-7.556686e-05 8.251054e-05 -2.010994e-05 0.0027359726 -6.5157274e-06 9.193819e-06 -0.00063531304 -0.0017448387
5.2092422e-05 -0.00056036114 -0.00015290608 -1.727174e-07 -0.000110010085 -3.7518917e-06 -0.000104077226 0.033623178
-4.6076007e-08 -3.614291e-06 0.00016275982 -0.00017140547 -3.4566603e-11 -9.931813e-06 -8.5151274e-05 -0.0008271079
-2.7322121e-05 -1.0532204e-06 0.011007441 -0.002875062 0.021197757 -0.0041694753 0.01415374 -9.46915e-07
-6.524837e-05 -0.00070349296 -3.061709e-06 -0.00012228976 -0.0004063809 0.030126508 0.004558693 -0.00026259877
-0.000495537 -0.0005055531 0.041558746 0.00038650326 -3.4217057e-05 0.0055710967 0.0027871358 -0.00050728355
0.0062095746 -0.00052037864 -5.994056e-06 0.007936358 -3.294552e-05 0.007051634 -1.2835323e-05 0.047918957
0.0037399437 0.0002135875 0.010310225 0.0044676596 -0.00015223227 -1.2477552e-05 -2.7847173e-09 1.3749764e-10
7.5037136e-11 5.7764883e-05 0.016333094 0.001310889 0.006892826 0.01232526 0.0027216186 -3.7411482e-06
0.0003119377 -1.4127907e-06 0.0029205747 -9.586722e-06 -9.052401e-06 -1.3455482e-05 0.0025482455 -0.00042160167
0.0019849013 -1.6958332e-08 0.016422668 -0.002041369 0.023840167 -8.299e-05 0.03629856 -0.00021644868
0.0044595664 -3.4165544e-07 -0.000114680246 0.03697143 0.0010908538 -1.618652e-07 -4.3299813e-05 0.0043042796
-0.0010013808 -0.00035459184 0.0043003606 0.02209644 0.00024874898 -0.000676226 -0.000506863 0.006916813
-0.00010123356 0.003106776 0.0020065773 -4.240596e-06 0.034664035 0.018442955 0.005806398 -2.0415189e-07
0.0051133865 -4.9519294e-06 -3.8459744e-10 0.016557328 -0.000100229925 0.0019777121 -4.5792553e-06 0.0022471217
-0.0024187737 -8.573168e-06 0.004580101 -0.00026962606 -1.504596e-05 -0.0004322264 -1.8387485e-05 -0.00012423564
-3.941224e-06 -0.00022971755 0.009300091 0.0065717003 0.003571115 0.00090847025 9.400331e-06 -0.000188773
2.23109e-12 -8.1849316e-07 -2.289832e-06 -7.679085e-05 0.00088504754 6.6198165e-11 0.0038334162 0.003551333
0.03510778 0.0022325176 0.0041879257 -0.00014675177 -1.5350995e-05 -0.00067173067 -1.6221986e-06 -0.0008869371
0.023289489 0.039088964 0.01636924 -1.499152e-05 0.0026707314 -1.0662787e-06 0.036112893 -5.1079764e-06
0.004437256 -8.6771804e-05 -0.00017851584 0.0055577806 0.012428421 -0.00022978337 -3.1356554e-05 0.021161579
-0.0009372444 -1.564236e-05 0.004637014 -0.00090290897 -2.6691192e-05 -3.45737e-05 -4.965603e-06 -0.00034193316
9.314232e-05 0.006148426 4.8171685e-11 -2.7757729e-08 0.0009333673 -2.7710615e-07 -1.6146293e-11 3.9954318e-11
0.0046039526 0.0056458446 0.005197566 0.0006079671 -2.2678008e-05 -0.00045486423 -1.0080696e-05 0.015601675
-4.20015e-08 -4.989299e-05 0.05189765 -3.0269322e-05 -0.0007347576 -7.619722e-05 0.04116155 0.0045137084
-1.7588802e-05 0.003814803 0.04002982 -0.000118826625 0.0023725 0.011845766 -8.791594e-08 0.025583223
-2.0550524e-05 -3.9722195e-08 -0.000595691 -3.7801526e-06 0.045871828 -0.0001796785 0.0079888515 0.046155203
