Contrast/BrainGNN/save/model5.pth (torch, 403178 bytes, 30 tensors)

n1.0.weight f4 [8, 116]
-2.2014235e-06 0.07109571 -0.0065783365 0.006632184 -7.0139167e-06 -0.0085214935 0.0015667304 0.058762748
0.061518393 0.0643425 0.067459024 0.08263686 -0.00088254915 -6.513455e-06 -1.9248097e-05 0.009012596
0.037833415 0.03394626 -0.00079371035 0.0032853924 -0.0007716226 0.033731896 -0.0027312636 0.06036522
0.017911766 -0.0006709358 0.07215996 0.018708292 -1.8054398e-05 -0.010509195 0.04211351 0.07363768
0.06723163 0.019074148 0.022997731 0.074909166 0.06982251 -0.003983888 -0.004708859 0.057922676
-0.0056631956 -0.0014258932 -0.00015476294 0.009464479 -0.0019400874 -6.8074064e-06 -0.003725507 0.038853195
0.021797366 0.023932988 0.056838684 0.06802969 -0.004619729 0.16970187 0.028436685 0.021740831
0.022418838 0.072125606 -0.0073141386 0.022411227 -0.0028276236 -0.007838058 -0.00246338 -0.00055268157
0.07519468 -0.0032118086 0.020112062 -0.0009006481 -0.0038771867 0.047722653 0.0132760545 -0.000105557425
0.03520299 0.07708511 -0.002228315 -5.332617e-05 0.026699958 -0.0023679559 0.008194556 0.075521775
0.058792178 0.063357286 -0.00549644 -0.0036548947 0.010463933 0.04356154 -0.0007790014 0.01921426
-0.0034076234 0.042415027 -0.004264018 -0.0025953786 -0.0013847261 0.060977947 -0.0019266965 0.012544045
-0.0034262566 -0.00032913475 -0.0004252785 0.05191244 -0.0026871008 -0.0004335426 -0.0006720924 0.0021210103
-9.767713e-06 0.009966089 0.036661513 0.024365775 -0.0018156208 -0.008514472 0.013603266 0.032018013
0.058225863 -0.0010752698 0.008415286 -8.981191e-06 -0.0003907067 0.012676054 0.008455222 0.047419593
-0.0024545186 -1.8209985e-05 0.055443786 0.025244007 -0.00058586115 0.01630713 -0.0013195956 -0.0006598055
-6.591871e-05 -0.00017645671 0.016152414 0.04468642 0.0062876157 0.052584134 -0.00042419753 0.06351555
0.027174655 -0.0012583684 0.0045086276 -0.003067663 -0.0016216612 0.024059758 0.025009539 -0.001390953
-5.762274e-06 0.027082212 -6.917383e-05 -0.0013216239 -1.4905384e-06 0.024590438 0.0759613 -0.00463069
-0.004673075 0.015600511 -0.00014892222 -0.00072922785 0.014839391 0.045944102 0.020695454 0.030109093
0.04686272 -1.28799265e-05 -0.0042715804 0.010574151 -0.0059671532 0.005250147 -0.0050578443 -0.01024164
-0.00015776014 0.012093812 -0.0027102167 -0.00076661026 -0.0001670565 -0.0048175617 0.03813089 -0.0025828797
0.08557435 0.07770773 0.053964403 0.02264062 -0.0010809666 -6.172754e-07 0.009593284 0.008004675
-0.00048770153 0.009263678 0.051825423 -2.4778574e-05 0.075266875 0.07090265 0.00942328 -7.630767e-05
0.049394403 0.045832377 0.061293308 -2.2012451e-05 -0.0006586747 -0.0005464563 -0.00034088062 -3.826657e-05
-0.00012030869 0.05856891 0.00644907 -0.00044720896 -0.00066047366 -0.005442384 -0.0065581966 -0.0018043367
-8.93149e-05 0.01338002 -3.9785627e-06 0.044012137 0.0041262154 0.0064692786 0.033847295 -0.0031053117
-1.2672981e-05 0.027283674 0.003780864 0.0035845395 -0.0002766085 0.012695182 -2.4422101e-05 0.007549565
-0.0017616136 -0.0034683563 0.021518944 0.0060828826 -0.000868977 -1.0980812e-05 0.010928446 0.041897353
0.007123551 -2.5653495e-05 0.07539253 0.06419037 0.049738526 -1.39719705e-05 -0.00078371115 -0.0062269783
-0.0038152877 0.053024836 0.019050077 -0.0016661071 0.0101225 0.0015125772 -0.0004043654 -0.0018284925
-0.0012703635 0.008082659 0.028179463 0.008245497 0.022842703 0.044328425 -0.001852578 -0.004728861
00000000: 2bbc 13b6 a19a 913d 168f d7bb cb52 d93b
00000010: 1659 ebb6 bc9d 0bbc c05a cd3a 35b1 703d
00000020: b6fa 7b3d 00c6 833d f527 8a3d 843d a93d
00000030: df5a 67ba 278e dab6 f976 a1b7 91a9 133c
00000040: 36f7 1a3d 3c0b 0b3d 0011 50ba bd4f 573b
00000050: b746 4aba 752a 0a3d 00ff 32bb 8541 773d
00000060: b2bb 923c bde1 2fba 9ac8 933d 2242 993c
00000070: 8673 97b7 c22e 2cbc 377f 2c3d 5acf 963d
00000080: bdb0 893d 6341 9c3c bd65 bc3c fa69 993d
00000090: 1bff 8e3d 468b 82bb c64c 9abb 5440 6d3d
000000a0: 5492 b9bb 09e5 baba dc47 22b9 e710 1b3c
000000b0: 884a feba 2d6b e4b6 a327 74bb 8724 1f3d
000000c0: 6490 b23c 1d0f c43c aecf 683d 2653 8b3d
000000d0: 1861 97bb 54c6 2d3e 0df4 e83c d419 b23c
000000e0: b6a7 b73c 97b6 933d 71ab efbb c097 b73c
000000f0: a74f 39bb 336b 00bc a970 21bb d5e1 10ba
00000100: abff 993d 357d 52bb 0dc2 a43c 7919 6cba
00000110: 6618 7ebb d478 433d cf83 593c b65e ddb8
00000120: 0331 103d ccde 9d3d ec08 12bb 8aaa 5fb8
00000130: dfb9 da3c b52f 1bbb 7642 063c 29ab 9a3d
00000140: 11d0 703d 77c1 813d 7b1b b4bb f586 6fbb
00000150: eb70 2b3c 966d 323d e635 4cba 3967 9d3c
00000160: 6f52 5fbb 61bb 2d3d 2db9 8bbb 3a17 2abb
00000170: b37f b5ba 03c4 793d 3589 fcba 8a85 4d3c
00000180: 0c8b 60bb b88f acb9 eaf7 deb9 24a2 543d
00000190: 121a 30bb 1a4d e3b9 5c2f 30ba a600 0b3b
000001a0: 02e0 23b7 cf48 233c 622a 163d bc9a c73c
000001b0: 20fa edba 4980 0bbc 3ce0 5e3c 5225 033d
000001c0: 3e7e 6e3d 11f0 8cba 45e0 093c ecad 16b7
000001d0: c4d7 ccb9 39af 4f3c c587 0a3c 0c3b 423d
000001e0: fddb 20bb a5c1 98b7 0619 633d 85cc ce3c
000001f0: 7a94 19ba 8896 853c 48f6 acba ccf6 2cba
00000200: d73d 8ab8 3d07 39b9 1152 843c 1c09 373d
00000210: 5808 ce3b 7662 573d d466 deb9 7114 823d
00000220: 629d de3c d6ef a4ba 1cbd 933b d80a 49bb
00000230: ec8d d4ba f818 c53c cee0 cc3c a350 b6ba
00000240: 8f59 c1b6 84db dd3c 6b11 91b8 573a adba
00000250: 820e c8b5 e371 c93c 9991 9b3d 0bbd 97bb
00000260: 9820 99bb 4999 7f3c 0128 1cb9 a729 3fba
00000270: eb20 733c e22f 3c3d 8389 a93c 58a7 f63c
00000280: 20f3 3f3d dd16 58b7 9df8 8bbb 343f 2d3c
00000290: 1c88 c3bb 6d09 ac3b 46bc a5bb 8dcc 27bc
000002a0: 6a6c 25b9 2025 463c e49d 31bb 58f6 48ba
000002b0: e32b 2fb9 a3dc 9dbb 232f 1c3d 8845 29bb
000002c0: 9b41 af3d 3b25 9f3d c709 5d3d d278 b93c
000002d0: 38af 8dba d8b2 25b5 262d 1d3c 0a26 033c
000002e0: 31b2 ffb9 afc6 173c e546 543d 95db cfb7
000002f0: 8525 9a3d 6935 913d 1a64 1a3c 5e07 a0b8
00000300: c951 4a3d bbba 3b3d b10e 7b3d 61a7 b8b7
00000310: e9aa 2cba 1040 0fba 39b8 b2b9 6b80 20b8
00000320: 3c4e fcb8 f4e5 6f3d b852 d33b 5f77 eab9
00000330: a323 2dba 0756 b2bb 24e6 d6bb 7e7f ecba
00000340: 924e bbb8 df37 5b3c 987f 85b6 1246 343d
00000350: 3435 873b 3efc d33b 76a3 0a3d 7c82 4bbb
00000360: 0a9e 54b7 0382 df3c 5fc8 773b 98ea 6a3b
00000370: c405 91b9 74ff 4f3c 10de ccb7 5762 f73b
00000380: f2e5 e6ba 5d4d 63bb 7f48 b03c eb52 c73b
00000390: 0fcc 63ba 3a3a 38b7 3a0d 333c 8f9c 2b3d
000003a0: ad6c e93b 7632 d7b7 6667 9a3d 3e76 833d
000003b0: a0ba 4b3d 2869 6ab7 f771 4dba ae0b ccbb
000003c0: e809 7abb 9230 593d e80e 9c3c 4761 daba
000003d0: d8d8 253c ab41 c63a 0101 d4b9 07aa efba
000003e0: 5382 a6ba 216d 043c 9ed8 e63c 1f18 073c
000003f0: 9f20 bb3c b991 353d 34d2 f2ba 90f4 9abb

n1.2.weight f4 [7040, 8]
0.011686202 -0.003377602 0.022797834 0.112357035 -0.033710774 0.07668426 0.034483463 0.017899748
-0.03718797 0.028656848 -0.0029735346 -0.12888564 -0.002236811 0.003869841 -0.07929889 -0.0017876544
-0.005047488 0.07675079 0.0015149383 -0.023207096 0.0039037701 0.0036538274 -0.0052291616 -0.06259082
0.1186816 0.06771702 -0.001920404 -0.0769224 0.00083454355 0.08163261 0.004182163 0.010518864
0.00915184 0.030514313 0.10738384 0.02565395 -0.05551517 0.10118079 -0.042054366 0.0009903999
-0.03929094 -0.023091443 0.0053788126 -0.064504944 0.100498065 0.086493425 0.0045919977 0.023651244
-0.06824637 0.03464562 -0.074576676 0.021297634 0.009944138 0.02225516 0.14591664 -0.09320613
-0.004786147 0.042486567 0.11089927 -0.06478722 -0.13957012 -0.053638976 0.0005531055 0.12908992
-0.0051680137 0.0035729413 -0.026990654 -0.028878104 0.007853006 -0.0002750159 0.09855084 0.034420073
-0.062466037 -0.0020203437 -0.0013127531 -0.035372507 -0.0039005757 0.043923613 0.009806223 -0.013912352
0.13718322 -0.09517095 -0.08462999 -0.087257795 0.010434838 0.0010002168 0.042010047 0.062141757
-0.008275456 0.0008298215 0.009827193 0.0015531142 -0.0132924775 0.043422278 -0.11584189 -0.091152586
0.023655595 0.0007366921 0.071304835 -0.023620624 -0.01199295 -0.058061395 -0.0057618786 -0.08498187
0.108124666 -0.00020842694 -0.03738949 0.0689735 0.013709418 -0.07238637 -0.12457187 -0.012354116
0.032496568 0.11547611 -0.09431146 -0.011214615 0.11129715 -0.019324886 -0.13222492 0.0056943567
0.13467634 -0.07560018 0.002004915 0.021744328 -0.11788452 0.030850897 -0.04709737 -0.0005456164
-0.09007454 -0.11679469 0.0003428227 0.0014184001 -0.005179553 -0.09767539 0.0011293996 0.02560918
-0.120964505 -0.090125196 0.12246847 -0.016313808 0.08427487 0.030854803 -0.045598626 0.048806343
-0.014408745 0.056949742 -0.0046571847 -0.0005381271 0.00705614 -0.0060587768 -0.0638682 0.00068045413
-0.002308116 -0.024142709 0.038992316 0.1124186 0.0031405147 0.047082182 -0.023943987 0.14331535
-0.00957098 -0.026876416 0.016193626 0.1581314 0.07109767 0.11359586 -0.1314381 -0.13818967
-0.022538835 0.0008678004 0.007986146 0.06172082 -0.048880674 0.0044787317 -0.12951389 -0.0037395826
0.11004931 0.007254012 0.0031383052 -0.025081843 0.002858143 -0.07407288 -0.013954879 0.0005514417
0.13585097 0.06391049 0.05325846 -0.011731274 -0.0082530435 -0.09524337 -0.0135660125 -0.13667846
0.018396216 -0.0009234509 -0.07115378 0.0005040031 -0.04391752 -0.0061789304 -0.036863808 -0.0004945987
-0.0752118 0.13702035 0.005920409 0.07737884 0.0007789132 -0.0025217102 0.05740486 -0.09498961
-0.012265738 0.0010455718 -0.123093076 -0.001382574 -0.002928608 0.0046547307 -0.062496345 -0.10376139
0.050134197 -0.0014740722 0.068774946 -0.10706223 -0.02781072 0.013534562 0.0805858 0.00858361
-0.06676501 -0.047629192 0.016075121 0.005020593 -0.039050993 -0.0063898372 0.0025753316 -0.13037354
0.01745139 -0.038087096 0.03525246 -0.049279347 -0.11399402 0.10142526 -0.0030044978 -0.0030665367
0.042505898 0.00093372044 0.0028037368 -0.0076205395 0.13584334 -0.05321787 0.0068975715 -0.028573215
0.06859649 -0.047497418 -0.043125413 0.0012747587 -0.10065392 0.004664848 -0.03543392 -0.0016485939
00000000: 7c77 3f3c c25a 5dbb 86c2 ba3c 721b e63d
00000010: 4f14 0abd a30c 9d3d 883e 0d3d 7ea2 923c
00000020: 6a52 18bd c4c1 ea3c a2df 42bb 99fa 03be
00000030: 7697 12bb 299d 7d3b 7567 a2bd ba4f eaba
00000040: 6665 a5bb 852f 9d3d e590 c63a cf1c bebc
00000050: 65d6 7f3b 0d75 6f3b 6359 abbb 9e2f 80bd
00000060: 570f f33d 39af 8a3d 11b6 fbba 7e89 9dbd
00000070: 45c5 5a3a ff2e a73d 870a 893b 5057 2c3c
00000080: 99f1 153c 27f9 f93c 0fec db3d 3c28 d23c
00000090: e063 63bd e037 cf3d 3341 2cbd 4ed0 813a
000000a0: 89ef 20bd 442a bdbc c040 b03b 2b1b 84bd
000000b0: eed1 cd3d 7723 b13d 7878 963b 41c0 c13c
000000c0: c1c4 8bbd 91e8 0d3d a8bb 98bd 6078 ae3c
000000d0: bdec 223c 7450 b63c 2c6b 153e dbe2 bebd
000000e0: 1cd5 9cbb 6506 2e3d 281f e33d 29af 84bd
000000f0: 78eb 0ebe 8bb4 5bbd 48fe 103a 2630 043e
00000100: 7158 a9bb 0228 6a3b 811b ddbc c691 ecbc
00000110: e5a9 003c 0230 90b9 06d5 c93d 10fc 0c3d
00000120: 63dc 7fbd be67 04bb af10 acba c3e2 10bd
00000130: cda0 7fbb 3fe9 333d 48aa 203c a2f0 63bc
00000140: c279 0c3e fde8 c2bd 7d52 adbd 37b4 b2bd
00000150: e2f6 2a3c b519 833a ba12 2c3d 5b88 7e3d
00000160: c795 07bc 6188 593a 3c02 213c dd91 cb3a
00000170: b1c8 59bc 8fdb 313d 833e edbd 35ae babd
00000180: 61c9 c13c 921e 413a 4508 923d 0a80 c1bc
00000190: 147e 44bc c9d1 6dbd 24ce bcbb fa0a aebd
000001a0: 7770 dd3d 2e8d 5ab9 b925 19bd fa41 8d3d
000001b0: 779d 603c 4e3f 94bd 891f ffbd eb68 4abc
000001c0: 1f1b 053d bd7e ec3d 5e26 c1bd 81bd 37bc
000001d0: c3ef e33d 394f 9ebc f865 07be ba97 ba3b
000001e0: 98e8 093e 44d4 9abd e464 033b 2921 b23c
000001f0: 706d f1bd 05bb fc3c 2ce9 40bd b207 0fba
00000200: 0079 b8bd 0e32 efbd e2bc b339 9ce9 b93a
00000210: 3db9 a9bb 090a c8bd 5d08 943a 58ca d13c
00000220: 3dbc f7bd 8f93 b8bd c0d0 fa3d 89a4 85bc
00000230: 4e98 ac3d 36c3 fc3c a0c5 3abd 29e9 473d
00000240: a812 6cbc 2244 693d 4c9b 98bb 1911 0dba
00000250: 3137 e73b b488 c6bb 55cd 82bd 8160 323a
00000260: c343 17bb eec6 c5bc 68b6 1f3d b93b e63d
00000270: 18d1 4d3b 3fd9 403d 2e26 c4bc 42c1 123e
00000280: 9acf 1cbc ee2b dcbc 7fa8 843c 33ed 213e
00000290: a89b 913d f2a4 e83d b697 06be 9881 0dbe
000002a0: 5da3 b8bc 197d 633a 53d8 023c f8ce 7c3d
000002b0: 1a37 48bd 53c2 923b 4a9f 04be c913 75bb
000002c0: 8861 e13d 10b3 ed3b 06ac 4d3b 7078 cdbc
000002d0: af4f 3b3b 86b3 97bd 01a3 64bc a08e 103a
000002e0: 841c 0b3e 81e3 823d 8b25 5a3d 8834 40bc
000002f0: c637 07bc f50e c3bd fb43 5ebc 70f5 0bbe
00000300: a9b3 963c be13 72ba 13b9 91bd 131f 043a
00000310: dce2 33bd a078 cabb 81fe 16bd f5a7 01ba
00000320: a508 9abd 104f 0c3e feff c13b cc78 9e3d
00000330: fb2f 4c3a 4743 25bb 5c21 6b3d ea89 c2bd
00000340: 3cf6 48bc 910b 893a 3918 fcbd 7c37 b5ba
00000350: e4ed 3fbb b686 983b 2bfc 7fbd da80 d4bd
00000360: 8459 4d3d a835 c1ba e1d9 8c3d 7143 dbbd
00000370: 4fd3 e3bc 11c0 5d3c 2b0a a53d 45a2 0c3c
00000380: 18bc 88bd d416 43bd f9af 833c c983 a43b
00000390: eff3 1fbd d761 d1bb e5c6 283b a480 05be
000003a0: 38f6 8e3c 3701 1cbd e264 103d 24d9 49bd
000003b0: b275 e9bd 0cb8 cf3d 1ce7 44bb f3f7 48bb
000003c0: aa1a 2e3d ebc4 743a e6be 373b b8b5 f9bb
000003d0: 841a 0b3e fbfa 59bd 0605 e23b 6012 eabc
000003e0: 517c 8c3d a78c 42bd 46a4 30bd ce15 a73a
000003f0: a423 cebd 95db 983b 2823 11bd a215 d8ba

n1.2.bias f4 [7040]
-0.17177372 0.14548607 -0.09315924 -0.16028582 -0.115591 0.1521557 0.11173395 -0.111772604
-0.026103953 0.27699414 0.050312452 0.14697756 0.05233408 -0.24827303 -0.060460057 0.06491374
0.115210734 -0.116548635 0.023528833 0.14292558 0.085409634 0.1399019 0.1787831 0.27688882
0.1449195 -0.22672905 -0.13311407 0.2594506 0.075802855 0.004159015 0.12857628 -0.21229991
-0.09100253 0.14430054 -0.0818541 0.028115697 0.1371482 0.009050326 0.08517858 0.14153257
-0.13276245 -0.16296425 -0.11977857 -0.1745688 0.050855804 -0.11384474 0.108122334 0.17053074
0.098333105 0.14490138 -0.0167238 -0.21396664 0.114563 0.08661496 0.15589796 0.03227838
0.009937691 -0.12974508 -0.076434225 0.13947655 -0.24910337 -0.13485725 0.15093873 -0.076648615
0.081521094 0.076507695 -0.08144441 0.007675333 0.17019494 -0.20383455 -0.0016422332 0.11092684
0.13191344 0.005736324 0.10312007 0.19284949 -0.119306326 -0.03288453 0.23062429 0.1380935
0.12531582 -0.038111836 0.16046306 -0.1896716 -0.16284974 -0.16669841 -0.15744302 0.19917385
-0.09487574 0.054698795 0.035862055 -0.14563504 0.10013239 0.24494055 -0.074370295 -0.20291674
-0.0995785 -0.25554577 -0.09208481 -0.108749926 -0.20287754 -0.042239122 -0.23911533 0.01124245
-0.12172893 -0.2592832 -0.14043917 -0.22918771 0.020367261 -0.011034527 -0.0012424433 -0.15425608
-0.105459906 0.058497384 0.12695599 -0.0050524725 0.22819659 -0.11125495 0.016079398 0.24654314
-0.21895596 -0.18402882 0.052620426 -0.047652144 0.07215305 -0.059656292 -0.039693374 0.034239706
0.07550933 -0.13833432 -0.031176843 -0.0016833168 -0.09668192 -0.11634403 -0.21204634 -0.13216892
0.12386455 0.007912375 0.16514811 -0.20827104 -0.09969555 -0.01967881 -0.12811926 0.123379275
-0.09505972 -0.14204344 -0.0041774358 0.19743225 0.04185499 0.11576418 0.016041923 -0.12241307
0.090962656 0.036779936 -0.09475784 0.1926693 0.19072363 -0.027357742 -0.14651963 -0.15894863
0.09926581 0.19286287 0.023677213 0.112165414 0.088507414 -0.20459948 -0.03309815 -0.16267566
-0.10009102 0.031536944 -0.06772215 -0.12826365 -0.020010471 0.21273668 -0.18138683 -0.011565893
0.19259155 0.16602328 -0.058492012 -0.22492944 0.14156166 -0.2230206 0.1110724 -0.12856765
-0.03427175 -0.06182749 -0.0013744545 0.16097088 0.06910294 0.09487215 -0.026217747 -0.22057962
-0.032604076 0.049588446 -0.17409801 -0.07579299 -0.1960533 0.029104535 -0.00895675 0.23320274
-0.12404757 -0.13371792 -0.16491753 -0.056138396 -0.1429527 -0.061886698 -0.2596099 -0.123801336
-0.037378237 0.029409183 -0.13165416 -0.23519464 0.1401518 -0.18455607 0.037948474 0.2121993
0.2145027 0.16675484 0.00025123166 0.19052818 -0.0023121121 -0.24091494 -0.23837298 0.070254326
-0.114289634 -0.060124025 0.25298014 0.11074392 -0.02569984 -0.1889629 -0.16789073 0.06484348
-0.0727668 0.16722916 -0.18647598 -0.18102922 0.010879592 0.19847225 -0.15108126 -0.07203263
-0.06977924 0.009421349 0.12221547 -0.21479318 -0.08942329 -0.109198175 0.010538643 0.22004199
-0.015104373 -0.06120044 0.09699932 0.038710475 0.0033899213 0.046147376 -0.21396343 -0.081449345
00000000: 73e5 2fbe 4dfa 143e 46ca bebd f721 24be
00000010: f9ba ecbd b4ce 1b3e c5d4 e43d 09e9 e4bd
00000020: f5d7 d5bc 2dd2 8d3e 6e14 4e3d 4981 163e
00000030: 435c 563d 493b 7ebe f7a4 77bd 7ff1 843d
00000040: 9bf3 eb3d 0db1 eebd 8abf c03c 155b 123e
00000050: 3feb ae3d 7242 0f3e eb12 373e 5fc4 8d3e
00000060: c765 143e a92b 68be 0e4f 08be b6d6 843e
00000070: 873e 9b3d 5948 883b 80a9 033e 2665 59be
00000080: 895f babd 85c3 133e 1fa3 a7bd e452 e63c
00000090: 9470 0c3e d247 143c 1b72 ae3d eaed 103e
000000a0: e1f2 07be 1ae0 26be 784e f5bd 2ac2 32be
000000b0: 2d4e 503d 6e27 e9bd 3e6f dd3d 9c9f 2e3e
000000c0: de62 c93d 0761 143e 5a00 89bc 121a 5bbe
000000d0: 02a0 ea3d 2f63 b13d b7a3 1f3e 5636 043d
000000e0: b2d1 223c e5db 04be 8c89 9cbd f1d2 0e3e
000000f0: f414 7fbe 0518 0abe af8f 1a3e f3f9 9cbd
00000100: 88f4 a63d 11b0 9c3d 54cc a6bd 5c81 fb3b
00000110: 9547 2e3e 01ba 50be 3440 d7ba 9c2d e33d
00000120: 5114 073e c6f7 bb3b 9e30 d33d 567a 453e
00000130: e056 f4bd eeb1 06bd c628 6c3e 6268 0d3e
00000140: ca52 003e 281b 1cbd 6e50 243e 4639 42be
00000150: 15c2 26be fdb2 2abe be38 21be 3bf4 4b3e
00000160: 364e c2bd d80b 603d 17e4 123d 5a21 15be
00000170: 3612 cd3d b2d1 7a3e 744f 98bd 68c9 4fbe
00000180: d0ef cbbd e5d6 82be f696 bcbd 48b8 debd
00000190: 21bf 4fbe ee02 2dbd a6da 74be 4132 383c
000001a0: 044d f9bd c5c0 84be 49cf 0fbe 2fb0 6abe
000001b0: 3ed9 a63c 29ca 34bc 7bd9 a2ba 4ef5 1dbe
000001c0: 5dfb d7bd f49a 6f3d c000 023e 368f a5bb
000001d0: 5eac 693e a3d9 e3bd f1b8 833c ce75 7c3e
000001e0: fe35 60be 0d72 3cbe 8488 573d e52e 43bd
000001f0: fac4 933d 285a 74bd 8595 22bd ef3e 0c3d
00000200: a3a4 9a3d 83a7 0dbe 9466 ffbc bda2 dcba
00000210: 2c01 c6bd c745 eebd ad22 59be 4a57 07be
00000220: b2ac fd3d e8a2 013c 961c 293e 0145 55be
00000230: 2e2d ccbd 7535 a1bc b231 03be 46ae fc3d
00000240: acae c2bd d673 11be dfe2 88bb ae2b 4a3e
00000250: 2370 2b3d c515 ed3d 5a6a 833c b4b3 fabd
00000260: a14a ba3d 8fa6 163d 6610 c2bd 1a4b 453e
00000270: 0e4d 433e 581d e0bc 3e09 16be 6ec3 22be
00000280: df4b cb3d d87d 453e b7f6 c13c fbb6 e53d
00000290: 6043 b53d 8782 51be ed91 07bd 7394 26be
000002a0: 85fc ccbd e22c 013d e9b1 8abd 8c57 03be
000002b0: 00ed a3bc a5d7 593e 78bd 39be df7e 3dbc
000002c0: b836 453e 0202 2a3e 5295 6fbd e753 66be
000002d0: 8af5 103e 835f 64be ed79 e33d 3da7 03be
000002e0: 8960 0cbd d23e 7dbd 0a27 b4ba 8dd5 243e
000002f0: d885 8d3d 544c c23d 9ac6 d6bc a0df 61be
00000300: da8b 05bd 411d 4b3d c046 32be 5b39 9bbd
00000310: 32c2 48be a26c ee3c 55bf 12bc b3cc 6e3e
00000320: a70c febd 5aed 08be 24e0 28be 60f1 65bd
00000330: 3162 12be e87c 7dbd 97eb 84be 8e8b fdbd
00000340: ec19 19bd 87eb f03c 59d0 06be ddd6 70be
00000350: f483 0f3e 44fc 3cbe dc6f 1b3d c64a 593e
00000360: 99a6 5b3e c8c1 2a3e beb7 8339 d219 433e
00000370: ce86 17bb 68b2 76be 0c18 74be 80e1 8f3d
00000380: af10 eabd 9c44 76bd 9d86 813e b5cd e23d
00000390: 7988 d2bc 7e7f 41be 8ceb 2bbe a9cc 843d
000003a0: c306 95bd 1f3e 2b3e 8ff3 3ebe b95f 39be
000003b0: 5140 323c 4f3c 4b3e 0cb5 1abe d885 93bd
000003c0: 6be8 8ebd 005c 1a3c 1b4c fa3d bef2 5bbe
000003d0: 8f23 b7bd 4ba3 dfbd 46aa 2c3c b052 613e
000003e0: 5578 77bc 50ad 7abd 94a7 c63d e08e 1e3d
000003f0: 7129 5e3b 0805 3d3d 3b19 5bbe eace a6bd

conv1.bias f4 [32]
-7.593172e-05 -0.019698089 -0.015990913 0.03874311 0.05164186 -0.004865577 -0.008380577 -0.030543407
-0.020108089 -0.05549596 0.010182073 0.04634571 -0.04147947 0.026699763 0.0030482386 -0.0069789644
0.023179363 -0.030907596 0.009523162 0.019256193 -0.051801167 -0.024473926 0.059966024 0.046489377
-0.017964475 0.015688606 0.03814688 0.014936033 -0.018492792 -0.029241446 0.03602844 0.0010908074
00000000: 883d 9fb8 e35d a1bc 60ff 82bc 18b1 1e3d
00000010: 6a86 533d 6b6f 9fbb b04e 09bc 2b36 fabc
00000020: b8b9 a4bc bb4f 63bd b6d2 263c 00d5 3d3d
00000030: 60e6 29bd 76b9 da3c f5c4 473b ccaf e4bb
00000040: a6e2 bd3c ed31 fdbc 0907 1c3c 2abf 9d3c
00000050: 762d 54bd 8b7d c8bc ef9e 753d a56b 3e3d
00000060: 3c2a 93bc 6485 803c e73f 1c3d 43b6 743c
00000070: 327e 97bc c28b efbc 8f92 133d 6cf9 8e3a

conv1.nn.0.weight f4 [8, 116]
-2.2014235e-06 0.07109571 -0.0065783365 0.006632184 -7.0139167e-06 -0.0085214935 0.0015667304 0.058762748
0.061518393 0.0643425 0.067459024 0.08263686 -0.00088254915 -6.513455e-06 -1.9248097e-05 0.009012596
0.037833415 0.03394626 -0.00079371035 0.0032853924 -0.0007716226 0.033731896 -0.0027312636 0.06036522
0.017911766 -0.0006709358 0.07215996 0.018708292 -1.8054398e-05 -0.010509195 0.04211351 0.07363768
0.06723163 0.019074148 0.022997731 0.074909166 0.06982251 -0.003983888 -0.004708859 0.057922676
-0.0056631956 -0.0014258932 -0.00015476294 0.009464479 -0.0019400874 -6.8074064e-06 -0.003725507 0.038853195
0.021797366 0.023932988 0.056838684 0.06802969 -0.004619729 0.16970187 0.028436685 0.021740831
0.022418838 0.072125606 -0.0073141386 0.022411227 -0.0028276236 -0.007838058 -0.00246338 -0.00055268157
0.07519468 -0.0032118086 0.020112062 -0.0009006481 -0.0038771867 0.047722653 0.0132760545 -0.000105557425
0.03520299 0.07708511 -0.002228315 -5.332617e-05 0.026699958 -0.0023679559 0.008194556 0.075521775
0.058792178 0.063357286 -0.00549644 -0.0036548947 0.010463933 0.04356154 -0.0007790014 0.01921426
-0.0034076234 0.042415027 -0.004264018 -0.0025953786 -0.0013847261 0.060977947 -0.0019266965 0.012544045
-0.0034262566 -0.00032913475 -0.0004252785 0.05191244 -0.0026871008 -0.0004335426 -0.0006720924 0.0021210103
-9.767713e-06 0.009966089 0.036661513 0.024365775 -0.0018156208 -0.008514472 0.013603266 0.032018013
0.058225863 -0.0010752698 0.008415286 -8.981191e-06 -0.0003907067 0.012676054 0.008455222 0.047419593
-0.0024545186 -1.8209985e-05 0.055443786 0.025244007 -0.00058586115 0.01630713 -0.0013195956 -0.0006598055
-6.591871e-05 -0.00017645671 0.016152414 0.04468642 0.0062876157 0.052584134 -0.00042419753 0.06351555
0.027174655 -0.0012583684 0.0045086276 -0.003067663 -0.0016216612 0.024059758 0.025009539 -0.001390953
-5.762274e-06 0.027082212 -6.917383e-05 -0.0013216239 -1.4905384e-06 0.024590438 0.0759613 -0.00463069
-0.004673075 0.015600511 -0.00014892222 -0.00072922785 0.014839391 0.045944102 0.020695454 0.030109093
0.04686272 -1.28799265e-05 -0.0042715804 0.010574151 -0.0059671532 0.005250147 -0.0050578443 -0.01024164
-0.00015776014 0.012093812 -0.0027102167 -0.00076661026 -0.0001670565 -0.0048175617 0.03813089 -0.0025828797
0.08557435 0.07770773 0.053964403 0.02264062 -0.0010809666 -6.172754e-07 0.009593284 0.008004675
-0.00048770153 0.009263678 0.051825423 -2.4778574e-05 0.075266875 0.07090265 0.00942328 -7.630767e-05
0.049394403 0.045832377 0.061293308 -2.2012451e-05 -0.0006586747 -0.0005464563 -0.00034088062 -3.826657e-05
-0.00012030869 0.05856891 0.00644907 -0.00044720896 -0.00066047366 -0.005442384 -0.0065581966 -0.0018043367
-8.93149e-05 0.01338002 -3.9785627e-06 0.044012137 0.0041262154 0.0064692786 0.033847295 -0.0031053117
-1.2672981e-05 0.027283674 0.003780864 0.0035845395 -0.0002766085 0.012695182 -2.4422101e-05 0.007549565
-0.0017616136 -0.0034683563 0.021518944 0.0060828826 -0.000868977 -1.0980812e-05 0.010928446 0.041897353
0.007123551 -2.5653495e-05 0.07539253 0.06419037 0.049738526 -1.39719705e-05 -0.00078371115 -0.0062269783
-0.0038152877 0.053024836 0.019050077 -0.0016661071 0.0101225 0.0015125772 -0.0004043654 -0.0018284925
-0.0012703635 0.008082659 0.028179463 0.008245497 0.022842703 0.044328425 -0.001852578 -0.004728861
00000000: 2bbc 13b6 a19a 913d 168f d7bb cb52 d93b
00000010: 1659 ebb6 bc9d 0bbc c05a cd3a 35b1 703d
00000020: b6fa 7b3d 00c6 833d f527 8a3d 843d a93d
00000030: df5a 67ba 278e dab6 f976 a1b7 91a9 133c
00000040: 36f7 1a3d 3c0b 0b3d 0011 50ba bd4f 573b
00000050: b746 4aba 752a 0a3d 00ff 32bb 8541 773d
00000060: b2bb 923c bde1 2fba 9ac8 933d 2242 993c
00000070: 8673 97b7 c22e 2cbc 377f 2c3d 5acf 963d
00000080: bdb0 893d 6341 9c3c bd65 bc3c fa69 993d
00000090: 1bff 8e3d 468b 82bb c64c 9abb 5440 6d3d
000000a0: 5492 b9bb 09e5 baba dc47 22b9 e710 1b3c
000000b0: 884a feba 2d6b e4b6 a327 74bb 8724 1f3d
000000c0: 6490 b23c 1d0f c43c aecf 683d 2653 8b3d
000000d0: 1861 97bb 54c6 2d3e 0df4 e83c d419 b23c
000000e0: b6a7 b73c 97b6 933d 71ab efbb c097 b73c
000000f0: a74f 39bb 336b 00bc a970 21bb d5e1 10ba
00000100: abff 993d 357d 52bb 0dc2 a43c 7919 6cba
00000110: 6618 7ebb d478 433d cf83 593c b65e ddb8
00000120: 0331 103d ccde 9d3d ec08 12bb 8aaa 5fb8
00000130: dfb9 da3c b52f 1bbb 7642 063c 29ab 9a3d
00000140: 11d0 703d 77c1 813d 7b1b b4bb f586 6fbb
00000150: eb70 2b3c 966d 323d e635 4cba 3967 9d3c
00000160: 6f52 5fbb 61bb 2d3d 2db9 8bbb 3a17 2abb
00000170: b37f b5ba 03c4 793d 3589 fcba 8a85 4d3c
00000180: 0c8b 60bb b88f acb9 eaf7 deb9 24a2 543d
00000190: 121a 30bb 1a4d e3b9 5c2f 30ba a600 0b3b
000001a0: 02e0 23b7 cf48 233c 622a 163d bc9a c73c
000001b0: 20fa edba 4980 0bbc 3ce0 5e3c 5225 033d
000001c0: 3e7e 6e3d 11f0 8cba 45e0 093c ecad 16b7
000001d0: c4d7 ccb9 39af 4f3c c587 0a3c 0c3b 423d
000001e0: fddb 20bb a5c1 98b7 0619 633d 85cc ce3c
000001f0: 7a94 19ba 8896 853c 48f6 acba ccf6 2cba
00000200: d73d 8ab8 3d07 39b9 1152 843c 1c09 373d
00000210: 5808 ce3b 7662 573d d466 deb9 7114 823d
00000220: 629d de3c d6ef a4ba 1cbd 933b d80a 49bb
00000230: ec8d d4ba f818 c53c cee0 cc3c a350 b6ba
00000240: 8f59 c1b6 84db dd3c 6b11 91b8 573a adba
00000250: 820e c8b5 e371 c93c 9991 9b3d 0bbd 97bb
00000260: 9820 99bb 4999 7f3c 0128 1cb9 a729 3fba
00000270: eb20 733c e22f 3c3d 8389 a93c 58a7 f63c
00000280: 20f3 3f3d dd16 58b7 9df8 8bbb 343f 2d3c
00000290: 1c88 c3bb 6d09 ac3b 46bc a5bb 8dcc 27bc
000002a0: 6a6c 25b9 2025 463c e49d 31bb 58f6 48ba
000002b0: e32b 2fb9 a3dc 9dbb 232f 1c3d 8845 29bb
000002c0: 9b41 af3d 3b25 9f3d c709 5d3d d278 b93c
000002d0: 38af 8dba d8b2 25b5 262d 1d3c 0a26 033c
000002e0: 31b2 ffb9 afc6 173c e546 543d 95db cfb7
000002f0: 8525 9a3d 6935 913d 1a64 1a3c 5e07 a0b8
00000300: c951 4a3d bbba 3b3d b10e 7b3d 61a7 b8b7
00000310: e9aa 2cba 1040 0fba 39b8 b2b9 6b80 20b8
00000320: 3c4e fcb8 f4e5 6f3d b852 d33b 5f77 eab9
00000330: a323 2dba 0756 b2bb 24e6 d6bb 7e7f ecba
00000340: 924e bbb8 df37 5b3c 987f 85b6 1246 343d
00000350: 3435 873b 3efc d33b 76a3 0a3d 7c82 4bbb
00000360: 0a9e 54b7 0382 df3c 5fc8 773b 98ea 6a3b
00000370: c405 91b9 74ff 4f3c 10de ccb7 5762 f73b
00000380: f2e5 e6ba 5d4d 63bb 7f48 b03c eb52 c73b
00000390: 0fcc 63ba 3a3a 38b7 3a0d 333c 8f9c 2b3d
000003a0: ad6c e93b 7632 d7b7 6667 9a3d 3e76 833d
000003b0: a0ba 4b3d 2869 6ab7 f771 4dba ae0b ccbb
000003c0: e809 7abb 9230 593d e80e 9c3c 4761 daba
000003d0: d8d8 253c ab41 c63a 0101 d4b9 07aa efba
000003e0: 5382 a6ba 216d 043c 9ed8 e63c 1f18 073c
000003f0: 9f20 bb3c b991 353d 34d2 f2ba 90f4 9abb

conv1.nn.2.weight f4 [7040, 8]
0.011686202 -0.003377602 0.022797834 0.112357035 -0.033710774 0.07668426 0.034483463 0.017899748
-0.03718797 0.028656848 -0.0029735346 -0.12888564 -0.002236811 0.003869841 -0.07929889 -0.0017876544
-0.005047488 0.07675079 0.0015149383 -0.023207096 0.0039037701 0.0036538274 -0.0052291616 -0.06259082
0.1186816 0.06771702 -0.001920404 -0.0769224 0.00083454355 0.08163261 0.004182163 0.010518864
0.00915184 0.030514313 0.10738384 0.02565395 -0.05551517 0.10118079 -0.042054366 0.0009903999
-0.03929094 -0.023091443 0.0053788126 -0.064504944 0.100498065 0.086493425 0.0045919977 0.023651244
-0.06824637 0.03464562 -0.074576676 0.021297634 0.009944138 0.02225516 0.14591664 -0.09320613
-0.004786147 0.042486567 0.11089927 -0.06478722 -0.13957012 -0.053638976 0.0005531055 0.12908992
-0.0051680137 0.0035729413 -0.026990654 -0.028878104 0.007853006 -0.0002750159 0.09855084 0.034420073
-0.062466037 -0.0020203437 -0.0013127531 -0.035372507 -0.0039005757 0.043923613 0.009806223 -0.013912352
0.13718322 -0.09517095 -0.08462999 -0.087257795 0.010434838 0.0010002168 0.042010047 0.062141757
-0.008275456 0.0008298215 0.009827193 0.0015531142 -0.0132924775 0.043422278 -0.11584189 -0.091152586
0.023655595 0.0007366921 0.071304835 -0.023620624 -0.01199295 -0.058061395 -0.0057618786 -0.08498187
0.108124666 -0.00020842694 -0.03738949 0.0689735 0.013709418 -0.07238637 -0.12457187 -0.012354116
0.032496568 0.11547611 -0.09431146 -0.011214615 0.11129715 -0.019324886 -0.13222492 0.0056943567
0.13467634 -0.07560018 0.002004915 0.021744328 -0.11788452 0.030850897 -0.04709737 -0.0005456164
-0.09007454 -0.11679469 0.0003428227 0.0014184001 -0.005179553 -0.09767539 0.0011293996 0.02560918
-0.120964505 -0.090125196 0.12246847 -0.016313808 0.08427487 0.030854803 -0.045598626 0.048806343
-0.014408745 0.056949742 -0.0046571847 -0.0005381271 0.00705614 -0.0060587768 -0.0638682 0.00068045413
-0.002308116 -0.024142709 0.038992316 0.1124186 0.0031405147 0.047082182 -0.023943987 0.14331535
-0.00957098 -0.026876416 0.016193626 0.1581314 0.07109767 0.11359586 -0.1314381 -0.13818967
-0.022538835 0.0008678004 0.007986146 0.06172082 -0.048880674 0.0044787317 -0.12951389 -0.0037395826
0.11004931 0.007254012 0.0031383052 -0.025081843 0.002858143 -0.07407288 -0.013954879 0.0005514417
0.13585097 0.06391049 0.05325846 -0.011731274 -0.0082530435 -0.09524337 -0.0135660125 -0.13667846
0.018396216 -0.0009234509 -0.07115378 0.0005040031 -0.04391752 -0.0061789304 -0.036863808 -0.0004945987
-0.0752118 0.13702035 0.005920409 0.07737884 0.0007789132 -0.0025217102 0.05740486 -0.09498961
-0.012265738 0.0010455718 -0.123093076 -0.001382574 -0.002928608 0.0046547307 -0.062496345 -0.10376139
0.050134197 -0.0014740722 0.068774946 -0.10706223 -0.02781072 0.013534562 0.0805858 0.00858361
-0.06676501 -0.047629192 0.016075121 0.005020593 -0.039050993 -0.0063898372 0.0025753316 -0.13037354
0.01745139 -0.038087096 0.03525246 -0.049279347 -0.11399402 0.10142526 -0.0030044978 -0.0030665367
0.042505898 0.00093372044 0.0028037368 -0.0076205395 0.13584334 -0.05321787 0.0068975715 -0.028573215
0.06859649 -0.047497418 -0.043125413 0.0012747587 -0.10065392 0.004664848 -0.03543392 -0.0016485939
00000000: 7c77 3f3c c25a 5dbb 86c2 ba3c 721b e63d
00000010: 4f14 0abd a30c 9d3d 883e 0d3d 7ea2 923c
00000020: 6a52 18bd c4c1 ea3c a2df 42bb 99fa 03be
00000030: 7697 12bb 299d 7d3b 7567 a2bd ba4f eaba
00000040: 6665 a5bb 852f 9d3d e590 c63a cf1c bebc
00000050: 65d6 7f3b 0d75 6f3b 6359 abbb 9e2f 80bd
00000060: 570f f33d 39af 8a3d 11b6 fbba 7e89 9dbd
00000070: 45c5 5a3a ff2e a73d 870a 893b 5057 2c3c
00000080: 99f1 153c 27f9 f93c 0fec db3d 3c28 d23c
00000090: e063 63bd e037 cf3d 3341 2cbd 4ed0 813a
000000a0: 89ef 20bd 442a bdbc c040 b03b 2b1b 84bd
000000b0: eed1 cd3d 7723 b13d 7878 963b 41c0 c13c
000000c0: c1c4 8bbd 91e8 0d3d a8bb 98bd 6078 ae3c
000000d0: bdec 223c 7450 b63c 2c6b 153e dbe2 bebd
000000e0: 1cd5 9cbb 6506 2e3d 281f e33d 29af 84bd
000000f0: 78eb 0ebe 8bb4 5bbd 48fe 103a 2630 043e
00000100: 7158 a9bb 0228 6a3b 811b ddbc c691 ecbc
00000110: e5a9 003c 0230 90b9 06d5 c93d 10fc 0c3d
00000120: 63dc 7fbd be67 04bb af10 acba c3e2 10bd
00000130: cda0 7fbb 3fe9 333d 48aa 203c a2f0 63bc
00000140: c279 0c3e fde8 c2bd 7d52 adbd 37b4 b2bd
00000150: e2f6 2a3c b519 833a ba12 2c3d 5b88 7e3d
00000160: c795 07bc 6188 593a 3c02 213c dd91 cb3a
00000170: b1c8 59bc 8fdb 313d 833e edbd 35ae babd
00000180: 61c9 c13c 921e 413a 4508 923d 0a80 c1bc
00000190: 147e 44bc c9d1 6dbd 24ce bcbb fa0a aebd
000001a0: 7770 dd3d 2e8d 5ab9 b925 19bd fa41 8d3d
000001b0: 779d 603c 4e3f 94bd 891f ffbd eb68 4abc
000001c0: 1f1b 053d bd7e ec3d 5e26 c1bd 81bd 37bc
000001d0: c3ef e33d 394f 9ebc f865 07be ba97 ba3b
000001e0: 98e8 093e 44d4 9abd e464 033b 2921 b23c
000001f0: 706d f1bd 05bb fc3c 2ce9 40bd b207 0fba
00000200: 0079 b8bd 0e32 efbd e2bc b339 9ce9 b93a
00000210: 3db9 a9bb 090a c8bd 5d08 943a 58ca d13c
00000220: 3dbc f7bd 8f93 b8bd c0d0 fa3d 89a4 85bc
00000230: 4e98 ac3d 36c3 fc3c a0c5 3abd 29e9 473d
00000240: a812 6cbc 2244 693d 4c9b 98bb 1911 0dba
00000250: 3137 e73b b488 c6bb 55cd 82bd 8160 323a
00000260: c343 17bb eec6 c5bc 68b6 1f3d b93b e63d
00000270: 18d1 4d3b 3fd9 403d 2e26 c4bc 42c1 123e
00000280: 9acf 1cbc ee2b dcbc 7fa8 843c 33ed 213e
00000290: a89b 913d f2a4 e83d b697 06be 9881 0dbe
000002a0: 5da3 b8bc 197d 633a 53d8 023c f8ce 7c3d
000002b0: 1a37 48bd 53c2 923b 4a9f 04be c913 75bb
000002c0: 8861 e13d 10b3 ed3b 06ac 4d3b 7078 cdbc
000002d0: af4f 3b3b 86b3 97bd 01a3 64bc a08e 103a
000002e0: 841c 0b3e 81e3 823d 8b25 5a3d 8834 40bc
000002f0: c637 07bc f50e c3bd fb43 5ebc 70f5 0bbe
00000300: a9b3 963c be13 72ba 13b9 91bd 131f 043a
00000310: dce2 33bd a078 cabb 81fe 16bd f5a7 01ba
00000320: a508 9abd 104f 0c3e feff c13b cc78 9e3d
00000330: fb2f 4c3a 4743 25bb 5c21 6b3d ea89 c2bd
00000340: 3cf6 48bc 910b 893a 3918 fcbd 7c37 b5ba
00000350: e4ed 3fbb b686 983b 2bfc 7fbd da80 d4bd
00000360: 8459 4d3d a835 c1ba e1d9 8c3d 7143 dbbd
00000370: 4fd3 e3bc 11c0 5d3c 2b0a a53d 45a2 0c3c
00000380: 18bc 88bd d416 43bd f9af 833c c983 a43b
00000390: eff3 1fbd d761 d1bb e5c6 283b a480 05be
000003a0: 38f6 8e3c 3701 1cbd e264 103d 24d9 49bd
000003b0: b275 e9bd 0cb8 cf3d 1ce7 44bb f3f7 48bb
000003c0: aa1a 2e3d ebc4 743a e6be 373b b8b5 f9bb
000003d0: 841a 0b3e fbfa 59bd 0605 e23b 6012 eabc
000003e0: 517c 8c3d a78c 42bd 46a4 30bd ce15 a73a
000003f0: a423 cebd 95db 983b 2823 11bd a215 d8ba

conv1.nn.2.bias f4 [7040]
-0.17177372 0.14548607 -0.09315924 -0.16028582 -0.115591 0.1521557 0.11173395 -0.111772604
-0.026103953 0.27699414 0.050312452 0.14697756 0.05233408 -0.24827303 -0.060460057 0.06491374
0.115210734 -0.116548635 0.023528833 0.14292558 0.085409634 0.1399019 0.1787831 0.27688882
0.1449195 -0.22672905 -0.13311407 0.2594506 0.075802855 0.004159015 0.12857628 -0.21229991
-0.09100253 0.14430054 -0.0818541 0.028115697 0.1371482 0.009050326 0.08517858 0.14153257
-0.13276245 -0.16296425 -0.11977857 -0.1745688 0.050855804 -0.11384474 0.108122334 0.17053074
0.098333105 0.14490138 -0.0167238 -0.21396664 0.114563 0.08661496 0.15589796 0.03227838
0.009937691 -0.12974508 -0.076434225 0.13947655 -0.24910337 -0.13485725 0.15093873 -0.076648615
0.081521094 0.076507695 -0.08144441 0.007675333 0.17019494 -0.20383455 -0.0016422332 0.11092684
0.13191344 0.005736324 0.10312007 0.19284949 -0.119306326 -0.03288453 0.23062429 0.1380935
0.12531582 -0.038111836 0.16046306 -0.1896716 -0.16284974 -0.16669841 -0.15744302 0.19917385
-0.09487574 0.054698795 0.035862055 -0.14563504 0.10013239 0.24494055 -0.074370295 -0.20291674
-0.0995785 -0.25554577 -0.09208481 -0.108749926 -0.20287754 -0.042239122 -0.23911533 0.01124245
-0.12172893 -0.2592832 -0.14043917 -0.22918771 0.020367261 -0.011034527 -0.0012424433 -0.15425608
-0.105459906 0.058497384 0.12695599 -0.0050524725 0.22819659 -0.11125495 0.016079398 0.24654314
-0.21895596 -0.18402882 0.052620426 -0.047652144 0.07215305 -0.059656292 -0.039693374 0.034239706
0.07550933 -0.13833432 -0.031176843 -0.0016833168 -0.09668192 -0.11634403 -0.21204634 -0.13216892
0.12386455 0.007912375 0.16514811 -0.20827104 -0.09969555 -0.01967881 -0.12811926 0.123379275
-0.09505972 -0.14204344 -0.0041774358 0.19743225 0.04185499 0.11576418 0.016041923 -0.12241307
0.090962656 0.036779936 -0.09475784 0.1926693 0.19072363 -0.027357742 -0.14651963 -0.15894863
0.09926581 0.19286287 0.023677213 0.112165414 0.088507414 -0.20459948 -0.03309815 -0.16267566
-0.10009102 0.031536944 -0.06772215 -0.12826365 -0.020010471 0.21273668 -0.18138683 -0.011565893
0.19259155 0.16602328 -0.058492012 -0.22492944 0.14156166 -0.2230206 0.1110724 -0.12856765
-0.03427175 -0.06182749 -0.0013744545 0.16097088 0.06910294 0.09487215 -0.026217747 -0.22057962
-0.032604076 0.049588446 -0.17409801 -0.07579299 -0.1960533 0.029104535 -0.00895675 0.23320274
-0.12404757 -0.13371792 -0.16491753 -0.056138396 -0.1429527 -0.061886698 -0.2596099 -0.123801336
-0.037378237 0.029409183 -0.13165416 -0.23519464 0.1401518 -0.18455607 0.037948474 0.2121993
0.2145027 0.16675484 0.00025123166 0.19052818 -0.0023121121 -0.24091494 -0.23837298 0.070254326
-0.114289634 -0.060124025 0.25298014 0.11074392 -0.02569984 -0.1889629 -0.16789073 0.06484348
-0.0727668 0.16722916 -0.18647598 -0.18102922 0.010879592 0.19847225 -0.15108126 -0.07203263
-0.06977924 0.009421349 0.12221547 -0.21479318 -0.08942329 -0.109198175 0.010538643 0.22004199
-0.015104373 -0.06120044 0.09699932 0.038710475 0.0033899213 0.046147376 -0.21396343 -0.081449345
00000000: 73e5 2fbe 4dfa 143e 46ca bebd f721 24be
00000010: f9ba ecbd b4ce 1b3e c5d4 e43d 09e9 e4bd
00000020: f5d7 d5bc 2dd2 8d3e 6e14 4e3d 4981 163e
00000030: 435c 563d 493b 7ebe f7a4 77bd 7ff1 843d
00000040: 9bf3 eb3d 0db1 eebd 8abf c03c 155b 123e
00000050: 3feb ae3d 7242 0f3e eb12 373e 5fc4 8d3e
00000060: c765 143e a92b 68be 0e4f 08be b6d6 843e
00000070: 873e 9b3d 5948 883b 80a9 033e 2665 59be
00000080: 895f babd 85c3 133e 1fa3 a7bd e452 e63c
00000090: 9470 0c3e d247 143c 1b72 ae3d eaed 103e
000000a0: e1f2 07be 1ae0 26be 784e f5bd 2ac2 32be
000000b0: 2d4e 503d 6e27 e9bd 3e6f dd3d 9c9f 2e3e
000000c0: de62 c93d 0761 143e 5a00 89bc 121a 5bbe
000000d0: 02a0 ea3d 2f63 b13d b7a3 1f3e 5636 043d
000000e0: b2d1 223c e5db 04be 8c89 9cbd f1d2 0e3e
000000f0: f414 7fbe 0518 0abe af8f 1a3e f3f9 9cbd
00000100: 88f4 a63d 11b0 9c3d 54cc a6bd 5c81 fb3b
00000110: 9547 2e3e 01ba 50be 3440 d7ba 9c2d e33d
00000120: 5114 073e c6f7 bb3b 9e30 d33d 567a 453e
00000130: e056 f4bd eeb1 06bd c628 6c3e 6268 0d3e
00000140: ca52 003e 281b 1cbd 6e50 243e 4639 42be
00000150: 15c2 26be fdb2 2abe be38 21be 3bf4 4b3e
00000160: 364e c2bd d80b 603d 17e4 123d 5a21 15be
00000170: 3612 cd3d b2d1 7a3e 744f 98bd 68c9 4fbe
00000180: d0ef cbbd e5d6 82be f696 bcbd 48b8 debd
00000190: 21bf 4fbe ee02 2dbd a6da 74be 4132 383c
000001a0: 044d f9bd c5c0 84be 49cf 0fbe 2fb0 6abe
000001b0: 3ed9 a63c 29ca 34bc 7bd9 a2ba 4ef5 1dbe
000001c0: 5dfb d7bd f49a 6f3d c000 023e 368f a5bb
000001d0: 5eac 693e a3d9 e3bd f1b8 833c ce75 7c3e
000001e0: fe35 60be 0d72 3cbe 8488 573d e52e 43bd
000001f0: fac4 933d 285a 74bd 8595 22bd ef3e 0c3d
00000200: a3a4 9a3d 83a7 0dbe 9466 ffbc bda2 dcba
00000210: 2c01 c6bd c745 eebd ad22 59be 4a57 07be
00000220: b2ac fd3d e8a2 013c 961c 293e 0145 55be
00000230: 2e2d ccbd 7535 a1bc b231 03be 46ae fc3d
00000240: acae c2bd d673 11be dfe2 88bb ae2b 4a3e
00000250: 2370 2b3d c515 ed3d 5a6a 833c b4b3 fabd
00000260: a14a ba3d 8fa6 163d 6610 c2bd 1a4b 453e
00000270: 0e4d 433e 581d e0bc 3e09 16be 6ec3 22be
00000280: df4b cb3d d87d 453e b7f6 c13c fbb6 e53d
00000290: 6043 b53d 8782 51be ed91 07bd 7394 26be
000002a0: 85fc ccbd e22c 013d e9b1 8abd 8c57 03be
000002b0: 00ed a3bc a5d7 593e 78bd 39be df7e 3dbc
000002c0: b836 453e 0202 2a3e 5295 6fbd e753 66be
000002d0: 8af5 103e 835f 64be ed79 e33d 3da7 03be
000002e0: 8960 0cbd d23e 7dbd 0a27 b4ba 8dd5 243e
000002f0: d885 8d3d 544c c23d 9ac6 d6bc a0df 61be
00000300: da8b 05bd 411d 4b3d c046 32be 5b39 9bbd
00000310: 32c2 48be a26c ee3c 55bf 12bc b3cc 6e3e
00000320: a70c febd 5aed 08be 24e0 28be 60f1 65bd
00000330: 3162 12be e87c 7dbd 97eb 84be 8e8b fdbd
00000340: ec19 19bd 87eb f03c 59d0 06be ddd6 70be
00000350: f483 0f3e 44fc 3cbe dc6f 1b3d c64a 593e
00000360: 99a6 5b3e c8c1 2a3e beb7 8339 d219 433e
00000370: ce86 17bb 68b2 76be 0c18 74be 80e1 8f3d
00000380: af10 eabd 9c44 76bd 9d86 813e b5cd e23d
00000390: 7988 d2bc 7e7f 41be 8ceb 2bbe a9cc 843d
000003a0: c306 95bd 1f3e 2b3e 8ff3 3ebe b95f 39be
000003b0: 5140 323c 4f3c 4b3e 0cb5 1abe d885 93bd
000003c0: 6be8 8ebd 005c 1a3c 1b4c fa3d bef2 5bbe
000003d0: 8f23 b7bd 4ba3 dfbd 46aa 2c3c b052 613e
000003e0: 5578 77bc 50ad 7abd 94a7 c63d e08e 1e3d
000003f0: 7129 5e3b 0805 3d3d 3b19 5bbe eace a6bd

pool1.select.weight f4 [1, 32]
-0.07683878 0.08920829 0.14199391 -0.03749624 0.14888144 -0.09547265 0.17289108 -0.1113259
-0.07995383 0.16872627 0.0152405035 -0.10327319 0.10166441 0.13702007 0.17292035 -0.10414854
-0.0015491224 0.17328058 0.008158736 -0.013940338 -0.11052373 0.0063913725 -0.12768671 -0.13324669
-0.06862215 -0.05158355 0.11395017 0.15434839 -0.15174508 0.16660222 -0.123467416 -0.033143815
00000000: a65d 9dbd d6b2 b63d da66 113e a895 19bd
00000010: 6074 183e 2a87 c3bd 5c0a 313e d5fe e3bd
00000020: d5be a3bd 94c6 2c3e 4eb3 793c e580 d3bd
00000030: 6e35 d03d fd4e 0c3e 0812 313e d44b d5bd
00000040: ec0b cbba 7770 313e 38ac 053c 0466 64bc
00000050: 445a e2bd b86e d13b 4ec0 02be d271 08be
00000060: c589 8cbd 4649 53bd b55e e93d 810d 1e3e
00000070: 1063 1bbe c699 2a3e 7cdc fcbd cfc1 07bd

n2.0.weight f4 [8, 116]
-2.576151e-05 0.03140283 -0.00018078953 -7.203926e-05 0.0012419631 0.008873991 0.0049865693 0.0011958071
0.06773322 -0.0016170832 0.00037575918 0.019005835 0.03260986 -0.0016522574 0.0034473226 -0.0006928118
0.016926562 0.0013729407 -0.00014250432 -0.0011046055 0.0015915335 0.01931473 0.006596833 -0.0009520096
0.005460445 0.012281167 -0.0044167456 -0.002805242 0.007590592 -0.0028150936 -0.00025374303 0.03510957
-7.955423e-05 0.014240665 -0.00292186 0.01488891 0.0059255757 -0.0007322248 0.016406754 0.013803137
-0.0006648209 0.008990585 -0.00036339692 -0.00016417685 0.0024792987 0.000733469 -0.0049359235 0.012816096
0.03691474 -0.0044695092 -0.0004581861 0.00093352346 0.0001372435 -5.153394e-07 0.0037183498 -4.2940977e-05
0.0070779985 9.4795627e-07 0.00043544933 0.00015951159 -1.10358e-05 2.5789792e-05 -0.0012049288 2.6408823e-06
0.019591741 -3.3866505e-07 -0.0009810888 -0.0021114547 -0.0021400808 -0.0008000108 -0.00054694095 0.0029855762
-0.003971861 0.01289716 -0.00036461116 0.009069308 0.0052574053 0.0031732125 -0.0012952535 -1.1939594e-06
0.008520434 -0.00013879419 0.022051683 -9.847304e-05 -0.006278725 0.006008966 -0.0005882949 0.0019003116
0.0011384696 -0.0023090157 -0.0011159058 0.024879828 -0.00055583345 -0.00046863375 -8.053558e-06 -4.9393766e-06
-0.0035585533 -0.0031888743 0.015586778 -0.0013121059 0.007993046 -6.1126746e-05 0.0004384565 -1.3521478e-05
0.005799858 0.0035645936 -0.0003646172 -0.0006247572 -0.00020173806 -2.927113e-05 0.023042275 0.006622681
-0.0020511937 -0.00013623261 -0.0010675357 -0.0013039742 -0.0011093742 -2.1185177e-05 0.038803037 0.009627616
3.804792e-05 0.004220548 0.0005265329 0.012044644 0.033844884 0.022104224 -0.0009248174 -0.0017672158
0.014526245 -0.00013372267 -0.0018105842 -8.437291e-05 0.051599186 -7.027912e-06 -0.0010983676 -0.00057191955
-6.7736924e-05 -0.0021902095 -0.0009897029 0.014268389 -0.00042007442 -2.8459808e-05 -0.00042722755 -0.0012244968
0.016335001 -4.099061e-05 0.0002452063 -0.0018564856 0.014773245 0.0030249418 -0.0010991769 0.007442229
0.023157053 -0.00061889197 8.547359e-07 -0.0050670765 -2.1684318e-05 -0.002227078 -0.000585051 -5.1136856e-05
-0.00028070653 0.0059445775 -0.00027201505 0.005523229 0.0007451915 2.0278273e-06 0.014334964 0.00030715432
0.0069796033 0.0074404706 0.020521922 -0.0017445503 0.022495836 0.069643945 -0.00069428445 -8.529118e-06
-0.00014643569 -7.997092e-09 -0.0037598922 0.014325891 5.0667368e-05 0.00015549663 -0.000981716 0.014809294
-0.00081717916 0.041018687 0.001641473 1.9021032e-05 0.012692116 0.026995115 -3.2930302e-06 0.02137627
0.025546348 0.0042612413 -0.00053212163 -0.00063184154 0.046736382 0.082975276 0.013241862 -0.0003005436
-0.0054343226 -4.5547035e-06 8.501455e-06 -3.997778e-07 0.0044155526 -0.0020984223 -0.001131737 -3.873898e-05
0.015367556 -0.00021681363 0.021402717 -0.00090022304 0.073389046 0.004963121 0.013617506 -2.2141146e-05
-0.0002513955 0.0060373945 -2.211399e-06 0.016797174 -0.005196562 -0.0025287026 0.012972587 -0.0018132669
-0.00020474383 -0.00014122273 -0.000201606 0.00068104424 -0.0002541662 2.3335115e-05 0.007676417 0.012915806
0.0110178795 0.094819956 0.0051982487 0.025270129 0.004844532 -0.0013198421 0.0034277593 -0.0016351158
0.05027444 -0.00040897587 -0.0054891384 -0.0015415781 0.011198549 0.016974585 0.000738495 -0.00037158187
0.003013592 -0.0003660924 0.0037315008 0.008551459 -9.911674e-06 0.034262955 0.04158228 -0.00015036721
00000000: 6c1a d8b7 41a0 003d 5292 3db9 c913 97b8
00000010: 5ec9 a23a 3764 113c 6066 a33b a1bc 9c3a
00000020: b7b7 8a3d 4ff4 d3ba 8b01 c539 20b2 9b3c
00000030: eb91 053d 8f90 d8ba 7aec 613b d09d 35ba
00000040: 93a9 8a3c 3ff4 b33a 366d 15b9 69c8 90ba
00000050: 019b d03a ed39 9e3c 3f2a d83b 4890 79ba
00000060: 88ed b23b f336 493c 59ba 90bb 27d8 37bb
00000070: 80ba f83b 6f7d 38bb d008 85b9 0dcf 0f3d
00000080: 5ad6 a6b8 ae51 693c ad7c 3fbb 9df0 733c
00000090: 552b c23b c6f2 3fba 7567 863c 8d26 623c
000000a0: 6047 2eba 3f4d 133c 4f86 beb9 e326 2cb9
000000b0: bb7b 223b 4546 403a 87bd a1bb 9afa 513c
000000c0: e933 173d f674 92bb b338 f0b9 b3b7 743a
000000d0: 06e9 0f39 db55 0ab5 8faf 733b 861b 34b8
000000e0: 8eee e73b 0f77 7e35 054d e439 9142 2739
000000f0: 6626 39b7 2857 d837 b4ee 9dba 033a 3136
00000100: dc7e a03c c5d1 b5b4 e197 80ba 5560 0abb
00000110: 9940 0cbb d1b7 51ba 9660 0fba a8a9 433b
00000120: 6326 82bb 9c4e 533c 4829 bfb9 6f97 143c
00000130: 5046 ac3b acf5 4f3b 7fc5 a9ba 2240 a0b5
00000140: 4a99 0b3c 4889 11b9 bba5 b43c 5083 ceb8
00000150: c3bd cdbb dce6 c43b cd37 1aba e013 f93a
00000160: b338 953a db52 17bb 9643 92ba c8d0 cb3c
00000170: 5ab5 11ba f5b2 f5b9 c51d 07b7 ecbc a5b6
00000180: 9e36 69bb 6ffc 50bb af5f 7f3c f8fa abba
00000190: 44f5 023c 2c31 80b8 a3e0 e539 4eda 62b7
000001a0: bc0c be3b f59b 693b 182a bfb9 bfc6 23ba
000001b0: a689 53b9 468b f5b7 27c3 bc3c 1303 d93b
000001c0: 526d 06bb aad9 0eb9 8eec 8bba 1dea aaba
000001d0: 6c68 91ba d2b6 b1b7 efef 1e3d 26bd 1d3c
000001e0: a595 1f38 864c 8a3b 0607 0a3a e656 453c
000001f0: efa0 0a3d eb13 b53c 726f 72ba eca1 e7ba
00000200: 7dff 6d3c e837 0cb9 2051 edba 5cf1 b0b8
00000210: ab59 533d 4ed1 ebb6 1af7 8fba dfec 15ba
00000220: fc0d 8eb8 9e89 0fbb ebb8 81ba f6c5 693c
00000230: 6f3d dcb9 f9bc eeb7 83fd dfb9 4b7f a0ba
00000240: fbd0 853c 55ed 2bb8 088f 8039 5255 f3ba
00000250: 7b0b 723c 1a3e 463b 4212 90ba f1dd f33b
00000260: dcb3 bd3c 233d 22ba 0171 6535 b809 a6bb
00000270: b8e6 b5b7 2bf4 11bb 1c5e 19ba c87b 56b8
00000280: cb2b 93b9 bbca c23b 3e9d 8eb9 34fc b43b
00000290: f458 433a cf15 0836 32dd 6a3c 8e09 a139
000002a0: 28b5 e43b 31cf f33b 971d a83c 65a9 e4ba
000002b0: 3049 b83c 7ca1 8e3d a400 36ba 4818 0fb7
000002c0: 888c 19b9 9563 09b2 8668 76bb 24b7 6a3c
000002d0: ac83 5438 cf0c 2339 ecac 80ba aea2 723c
000002e0: f737 56ba 3603 283d b226 d73a 5b8f 9f37
000002f0: 98f2 4f3c dc24 dd3c d4fd 5cb6 4a1d af3c
00000300: 9346 d13c e2a1 8b3b 147e 0bba 2ba2 25ba
00000310: a66e 3f3d f1ee a93d 65f4 583c 4792 9db9
00000320: 6712 b2bb 9bd4 98b6 79a1 0e37 0ba1 d6b4
00000330: 57b0 903b af85 09bb cb56 94ba aa7b 22b8
00000340: 34c8 7b3c 7758 63b9 c054 af3c f2fc 6bba
00000350: ff4c 963d ada1 a23b f61b 5f3c c0bb b9b7
00000360: bccd 83b9 56d5 c53b 8c67 14b6 3a9a 893c
00000370: ec47 aabb 97b8 25bb f98a 543c 24ab edba
00000380: 81b0 56b9 3015 14b9 3366 53b9 1b88 323a
00000390: 9c41 85b9 c7bf c337 748a fb3b d19c 533c
000003a0: 5684 343c f730 c23d 1256 aa3b 4d03 cf3c
000003b0: e1be 9e3b 8dfe acba 42a4 603b 6251 d6ba
000003c0: 92ec 4d3d d06b d6b9 3bde b3bb c70e caba
000003d0: 1e7a 373c 490e 8b3c 8f97 413a e0d0 c2b9
000003e0: af7f 453b 17f0 bfb9 328c 743b 6b1b 0c3c
000003f0: 514a 26b7 5057 0c3d 2e52 2a3d e4ab 1db9
