Contrast/BrainGNN/save/model9.pth (torch, 403178 bytes, 30 tensors)

n1.0.weight f4 [8, 116]
0	0xb9aa2d5b	-0.0003245872
1	0x3c9cbd17	0.019133134
2	0x3cb41f3e	0.021987554
3	0xbb434865	-0.002979779
4	0x3b72c878	0.0037045758
5	0xbd691138	-0.056901187
6	0x3ce01fc9	0.027358906
7	0x3da8d6fc	0.0824413
8	0xbb6fb9bc	-0.0036579212
9	0x3c6d5bef	0.014487251
10	0xbd09a13e	-0.03360104
11	0xbd883dce	-0.06652413
12	0xbc8e1c8a	-0.017347593
13	0xbd04bd05	-0.032406826
14	0x3d2534b4	0.040333465
15	0xbc7d8e9a	-0.015475893
16	0xbbce8988	-0.006303016
17	0xbb215b7d	-0.0024621182
18	0xbd8641df	-0.06555533
19	0xbc2de5ad	-0.010613841
20	0x3c877c67	0.016538812
21	0x3cf42f39	0.029807674
22	0xbcc4fddb	-0.024046829
23	0xbc8234ed	-0.015894378
24	0xbb9b7389	-0.0047439975
25	0x3d10cb6e	0.035350256
26	0x3c13804c	0.009002756
27	0xbb2a2087	-0.002595933
28	0x3d93bbaa	0.072135285
29	0x3d3baba9	0.045818005
30	0xbd840cb3	-0.06447735
31	0x3b87f6ee	0.0041493094
32	0xbc2d1d7a	-0.01056611
33	0xbc7ad3e6	-0.01530931
34	0x3c880b32	0.0166069
35	0xbc47beed	-0.012191516
36	0xbd11dfec	-0.03561394
37	0xbd1475dc	-0.036245212
38	0xbaab63c4	-0.0013075997
39	0xbd3a4d93	-0.045484137
40	0x3b74ace7	0.0037334503
41	0xbd636fc3	-0.055526506
42	0x3db378c1	0.08763266
43	0x3a89e5c6	0.0010520748
44	0x3cfa1c98	0.030531213
45	0xbd043307	-0.032275226
46	0x3d683c67	0.05669823
47	0xbb37acd6	-0.0028026602
48	0xbd5189ff	-0.051156994
49	0x3d1b8e99	0.03797779
50	0xbcbe6c51	-0.023245009
51	0x3d7b78f5	0.06139465
52	0x3d180f0f	0.037123736
53	0xbb7eca73	-0.0038877993
54	0x3c5c62bd	0.013451275
55	0xbc88736f	-0.016656606
56	0x3b4d09e3	0.003128641
57	0x3dab9490	0.083779454
58	0xbae2d314	-0.0017305338
59	0xbcd21a4d	-0.025647307
60	0xbd38dfc8	-0.04513529
61	0xbd4b16e9	-0.049582396
62	0x3c897b09	0.0167823
63	0x3995e142	0.00028587325
64	0x3d3683f6	0.04455944
65	0xbc543a42	-0.012953343
66	0xbd61fe40	-0.055174112
67	0xbc867fcf	-0.016418366
68	0xbd62a5b2	-0.0553338
69	0xbcf83b95	-0.030301848
70	0xbcd72722	-0.026263777
71	0xbc8a135a	-0.01685493
72	0x3d827859	0.06370611
73	0xbd5664b8	-0.052342147
74	0x3c243918	0.010023378
75	0xbd42a898	-0.047524065
76	0x3d0e03a1	0.03467143
77	0xbd4b62fe	-0.049654953
78	0x3d8a0679	0.06739516
79	0x3d996c47	0.074913554
80	0x3d6d6286	0.057955287
81	0x3da92415	0.08258835
82	0x3d44f729	0.048087273
83	0xbaf788ea	-0.0018885408
84	0x3dae3c5c	0.085076064
85	0x3dbabb10	0.091177106
86	0x3cce8273	0.025208687
87	0x3dae0b64	0.08498266
88	0xbcfb5309	-0.030679243
89	0xbb673657	-0.0035280192
90	0xbd83aca7	-0.06429415
91	0x3d805aac	0.06267294
92	0x3dbf49b5	0.093402304
93	0xbd31c79b	-0.04340325
94	0x3da31f89	0.07964999
95	0x3d95bf47	0.07311874
96	0x3cae2169	0.021256166
97	0xbd1d0790	-0.03833729
98	0xbd8e063e	-0.06934784
99	0x3d628fb4	0.055312827
100	0xbc5708f6	-0.013124695
101	0x3d11679b	0.035499196
102	0x3d16c41b	0.036808114
103	0xb8bd156e	-9.016214e-05
104	0xbd8cc732	-0.06873931
105	0x3cb8fb27	0.022580696
106	0x3d4575b1	0.048207942
107	0xbce1502c	-0.02750405
108	0xbd318e00	-0.043348312
109	0x3d773b0d	0.06035905
110	0x3dbc7ec7	0.09203868
111	0xbd94595c	-0.072436064
112	0x3cec21fc	0.028824799
113	0xbd94ed62	-0.0727184
114	0xbd55e1b7	-0.05221721
115	0x3d79b2ca	0.060961522
116	0x3d472abc	0.04862474
117	0x3c19a14a	0.009376833
118	0xbc5e4cb2	-0.01356809
119	0xbcc7a948	-0.024372712
120	0xbd8e511e	-0.069490656
121	0x3d67e36f	0.056613382
122	0x3d911069	0.07083208
123	0xbb9c8419	-0.0047764895
124	0x3cc5f116	0.02416281
125	0xbd81b399	-0.06333084
126	0x3d1b6462	0.03793753
127	0x3aff7547	0.0019489907
128	0x3b9a9232	0.004717135
129	0x3cb86c01	0.022512438
130	0xbd860779	-0.06544394
131	0xbbec61df	-0.0072138156
132	0xbd6eaa8c	-0.058268115
133	0xbd8227b7	-0.06355231
134	0x3dbe03fc	0.09278104
135	0x3d0daf1f	0.034590837
136	0x3d6e6631	0.058202926
137	0xbd6a366c	-0.057180807
138	0x3d1164c6	0.035496496
139	0xbd1912d0	-0.037371457
140	0x3daf5a52	0.08562149
141	0xbd43c6a1	-0.04779685
142	0x3d3478a1	0.044060353
143	0x3cef7abd	0.02923333
144	0x3c06d3ec	0.008229237
145	0xbd2561d3	-0.040376496
146	0x3d9191eb	0.0710791
147	0x379a9c2b	1.8430952e-05
148	0x3c4f4670	0.012651071
149	0x3d00e240	0.03146577
150	0x3d1e6316	0.038668714
151	0x3d57f1aa	0.052720703
152	0xb9f216ba	-0.0004617477
153	0xbd8e6bf0	-0.06954181
154	0x3d092dd4	0.03349097
155	0xbd0a3cb0	-0.033749282
156	0xbd45dd03	-0.048306476
157	0x3c481ef1	0.012214408
158	0xbd958c4e	-0.073021516
159	0xba8f514f	-0.0010934266
160	0x3d1ee3db	0.03879152
161	0x3d0c8b9a	0.034312822
162	0x3d98f608	0.07468802
163	0xbc3fc06e	-0.011703594
164	0x3b88bd19	0.004172933
165	0xbd550710	-0.05200869
166	0xbcb55a3e	-0.022137757
167	0xbc163dd9	-0.009170019
168	0x3d20dea2	0.03927482
169	0xbd397988	-0.045281917
170	0x3d831e9c	0.06402323
171	0xbc9eb898	-0.01937513
172	0xbb804048	-0.003913913
173	0x3d94ea81	0.072712906
174	0xbd2caacd	-0.042155076
175	0x3d36c1c8	0.044618398
176	0x3d45111b	0.048112016
177	0x3dac872a	0.08424218
178	0xbd843297	-0.06454962
179	0xbbee0fe1	-0.0072650765
180	0x3d0e7714	0.03478153
181	0xbcaa48e5	-0.020786712
182	0xbd5e39f3	-0.054254483
183	0xbd8febf5	-0.07027427
184	0xbcc0fc4b	-0.023557803
185	0x3d9d29b3	0.07673969
186	0xbd1fa5c7	-0.038976457
187	0x3db8f9b9	0.09032006
188	0x3d62fafc	0.05541514
189	0xbb69cf18	-0.0035676416
190	0x3d32d67b	0.043661576
191	0x3b89d80e	0.004206664
192	0x3c9fa6c6	0.019488703
193	0x3b2b3c87	0.0026128606
194	0xbd247366	-0.040149115
195	0x3d27164d	0.040792752
196	0xbd8eafb3	-0.06967106
197	0x3bfcc093	0.0077133863
198	0x3bc8732c	0.006117245
199	0xbc5627c0	-0.013071001
200	0xbd398095	-0.04528864
201	0xbd8651bc	-0.06558558
202	0x3d818c83	0.063256286
203	0x3d4be3a3	0.04977764
204	0x3c863a09	0.016385095
205	0x3d22561e	0.03963291
206	0xbb5d3724	-0.003375479
207	0xbd2bb07f	-0.041916367
208	0x3da08906	0.07838635
209	0x3d19e5ad	0.03757255
210	0x3d2f6a3c	0.042825922
211	0x3d76b5db	0.060232025
212	0xbd780ea4	-0.060560837
213	0xbbc38a43	-0.00596741
214	0x3cfe1a9e	0.031018551
215	0x3ccff071	0.025383206
216	0x3cf8a755	0.030353228
217	0xbd933c0f	-0.0718919
218	0x3c8d32ac	0.017236076
219	0x3d40ba51	0.047052685
220	0xbd565abf	-0.052332636
221	0xbd2596c8	-0.040427
222	0xbad560a2	-0.0016279409
223	0xbbcebf0f	-0.006309397
224	0xbc12c308	-0.008957632
225	0xbd8aff23	-0.06786945
226	0x3d486203	0.048921596
227	0xbb4f39ce	-0.0031620148
228	0x3d5e39fb	0.054254513
229	0xbd50dc92	-0.050991602
230	0xbd43a5d3	-0.047765564
231	0xbc4579bd	-0.01205295
232	0x3d0fba20	0.035089612
233	0xbcaafeda	-0.020873476
234	0x3d89508d	0.06704817
235	0xbceb7ea7	-0.028746916
236	0xbd31fc92	-0.04345376
237	0x3a946cd6	0.001132394
238	0xbd84ab38	-0.0647797
239	0x3d30b895	0.04314478
240	0xbd5602f0	-0.052248895
241	0x3d8071f9	0.062717386
242	0xbccfa8fc	-0.025349133
243	0x3d3fb6ae	0.046805076
244	0xbc3c23dc	-0.011483159
245	0x3daca486	0.08429818
246	0xbbd79bb5	-0.006579841
247	0x3d0ebc42	0.034847505
248	0x3d2daec7	0.04240301
249	0xbcbb6689	-0.022876041
250	0x3dbb523f	0.091465466
251	0x3c8793fb	0.016550055
252	0xbd079b53	-0.033107113
253	0xbc570bc6	-0.013125366
254	0x3d535d98	0.05160293
255	0x3b9bbb38	0.004752543

n1.2.weight f4 [7040, 8]
0	0x3cffd9d4	0.031231798
1	0xbea41b9d	-0.32052317
2	0xbdbacd12	-0.09121145
3	0x3e56da90	0.20981812
4	0x3b93138b	0.0044884137
5	0x3db663bf	0.08905744
6	0x3db5f321	0.08884264
7	0xbbae8d5a	-0.005326909
8	0x3d7739a5	0.06035771
9	0x3d50706f	0.050888475
10	0xbdfbba14	-0.12291351
11	0x3e3fee61	0.18743278
12	0xbe8ee379	-0.27907923
13	0xbca5b762	-0.020229045
14	0xbca71c23	-0.020399159
15	0xbe824ba6	-0.2544834
16	0x3bce6dc3	0.0062997057
17	0x3ea3f428	0.32022214
18	0xbe762cc8	-0.2404052
19	0x3bf213e5	0.0073876255
20	0x3de32a48	0.11092049
21	0xbe954ae8	-0.2915871
22	0x3e9b8d4a	0.30381233
23	0x3ddfd375	0.10929004
24	0xbe4d6ec4	-0.20061785
25	0x3c988192	0.018616471
26	0xbea5c9de	-0.32380575
27	0x3d70a955	0.058755238
28	0x3d04dd82	0.03243781
29	0x3e6e5aa2	0.23276761
30	0xbdf4ac0b	-0.11946877
31	0xbdbd3834	-0.092392355
32	0xbe301fa3	-0.17199568
33	0xbdc88316	-0.09790628
34	0xbe814e73	-0.25255165
35	0xbe807ce4	-0.25095284
36	0xbe2a49a6	-0.16629657
37	0x3da866d2	0.082227364
38	0x3e13fa5c	0.14450973
39	0xbe1ce549	-0.1532184
40	0xbdeee0c4	-0.116639644
41	0xbe947ffb	-0.2900389
42	0xbea8e07d	-0.3298377
43	0x3e1d3c5d	0.15355058
44	0xbd8d85ce	-0.06910287
45	0x3e8e8db2	0.2784248
46	0x3e1caae6	0.15299568
47	0xbe85752a	-0.26065952
48	0x3e88b9db	0.26704296
49	0xbea72aea	-0.32649928
50	0x3e8e84df	0.27835748
51	0xbdb37f81	-0.08764554
52	0x3e58b3f6	0.211624
53	0x3d3f9870	0.046776235
54	0xbe9ba64d	-0.30400315
55	0x3e97a3bf	0.29617116
56	0xbe2d0a9f	-0.16898583
57	0xbe0f6357	-0.14002739
58	0x3e2ad168	0.16681445
59	0xbe80a5ba	-0.2512644
60	0x3e16b73b	0.14718334
61	0x3e9be0f6	0.3044507
62	0x3e4b07ea	0.19827238
63	0xbdd5a49a	-0.10431786
64	0x3ea880fa	0.329109
65	0xbce91ea9	-0.028457003
66	0x3e6683e5	0.22511251
67	0x3e05876a	0.13039938
68	0xbddf15ef	-0.108928554
69	0xbe7e87b8	-0.2485646
70	0xbd31666e	-0.043310575
71	0x3c9103fc	0.017702095
72	0x3e88b002	0.26696783
73	0xbe404806	-0.18777475
74	0xbe171ab2	-0.14756277
75	0xbea0ee1c	-0.31431663
76	0x3ea01098	0.3126266
77	0x3e7ef673	0.248987
78	0x3d8d97e3	0.06913736
79	0xbe6a7171	-0.22894837
80	0x3e0ddb7f	0.13853262
81	0xbe8efee7	-0.2792885
82	0xbe9ead76	-0.30991715
83	0x3e93aff0	0.28845167
84	0xbc295003	-0.010334018
85	0x3ea6613d	0.32496062
86	0x3ea91d5e	0.33030218
87	0xbe530c0d	-0.20610066
88	0xbe88ea32	-0.26741177
89	0x3e5101aa	0.20410791
90	0x3e360b32	0.17777708
91	0xbc8ce26e	-0.017197814
92	0x3e354f04	0.17705923
93	0x3e8ec233	0.27882537
94	0x3be4c044	0.0069809277
95	0x3c38e10d	0.011284125
96	0x3e343c7d	0.176012
97	0xbe6ba623	-0.23012595
98	0x3e25592e	0.161473
99	0x3e1f25ac	0.15541714
100	0x3eaaaeaf	0.33336398
101	0x3e50b02f	0.20379709
102	0x3e19237a	0.1495494
103	0xbe1c0cc1	-0.1523924
104	0xbde9ea83	-0.11421683
105	0xbe808aa2	-0.25105768
106	0xbeaa6bbf	-0.3328533
107	0xbe22dde1	-0.15904953
108	0x3ea1fc4e	0.31637806
109	0xb84ec62c	-4.929879e-05
110	0xbd7bed6e	-0.061505727
111	0xbe1161fe	-0.14197537
112	0xbe338080	-0.17529488
113	0xbe60d4dd	-0.21956201
114	0x3dc99531	0.09842909
115	0x3e5ad81f	0.21371506
116	0xbdbbff1b	-0.09179517
117	0x3ea870ed	0.32898656
118	0x3e853a6e	0.2602114
119	0x3ea31caa	0.31857806
120	0xbe78351d	-0.24239011
121	0x3dfde606	0.12397389
122	0xbd157aa1	-0.0364939
123	0x3e9ffe2c	0.31248605
124	0x3d009131	0.031388465
125	0xbd42abeb	-0.047527235
126	0xbd4d98f2	-0.05019469
127	0x3d33b0c8	0.043869764
128	0x3d9afc6c	0.07567677
129	0x3e25eef7	0.16204439
130	0x3ddf9db6	0.10918753
131	0xbe30cab6	-0.17264828
132	0x3da764e5	0.08173541
133	0xbde9dde1	-0.11419273
134	0x3dfc6844	0.123245746
135	0xbe0f210b	-0.13977449
136	0xbe520fa6	-0.20513782
137	0x3d71ee54	0.059065178
138	0x3e1e4bbe	0.15458581
139	0xbda429a3	-0.08015754
140	0xbea80582	-0.32816702
141	0xbce412b6	-0.027840953
142	0xbe83a35f	-0.2571058
143	0xbe67e398	-0.22645414
144	0xbe470c76	-0.19438347
145	0xbea5bacf	-0.32369086
146	0xbe218bc9	-0.1577598
147	0xbe318300	-0.17335129
148	0x3e371597	0.1787933
149	0xbe989e0f	-0.2980809
150	0xbe8ec3f8	-0.27883887
151	0xbe5c75ca	-0.21529308
152	0x3e68c81f	0.2273259
153	0x3d5188cf	0.05115586
154	0x3e86f65f	0.2635984
155	0xbd98e0e8	-0.074647725
156	0x3e5a88fa	0.21341315
157	0xbea50415	-0.32229677
158	0x3c8588c8	0.016300574
159	0x3da1842c	0.07886538
160	0xbe5791d1	-0.21051718
161	0xbddb34a9	-0.107034035
162	0x3e2e7599	0.17037047
163	0x3daea4f8	0.08527559
164	0xbe931d25	-0.28733173
165	0x3e29fbff	0.16600035
166	0xbc88d47d	-0.016702885
167	0xbcd3fb12	-0.025876556
168	0xbe80e2fe	-0.2517318
169	0xbe570136	-0.20996556
170	0x3e4f3de2	0.2023845
171	0xbba2b85e	-0.004965826
172	0x3e03b356	0.1286138
173	0xbe61e42c	-0.22059697
174	0x3df1e4b6	0.11811201
175	0x3ba1181a	0.004916203
176	0x3e65b48e	0.22432157
177	0xbe09c66d	-0.134546
178	0xbe0d5f0c	-0.13805789
179	0xbe1228d7	-0.14273392
180	0xbde765f7	-0.11298745
181	0xbc801cfa	-0.015638817
182	0xbd3c72be	-0.046007864
183	0xbe45cc31	-0.19316174
184	0xbea79ae1	-0.3273535
185	0xbc15d137	-0.009144119
186	0xbdf9911c	-0.121858805
187	0x3d99d135	0.07510606
188	0x3e0066d2	0.12539223
189	0x3eaabb1b	0.33345875
190	0x3d950de7	0.07278042
191	0x3d8f0492	0.069832936
192	0x3e6712ed	0.22565813
193	0xbdff8604	-0.12476733
194	0x3e83707d	0.2567176
195	0x3d6a0046	0.057129167
196	0xbdf43bb0	-0.11925447
197	0x3ea94ecb	0.33067927
198	0x3e58283b	0.21109097
199	0x3e1e9c65	0.15489347
200	0x3e98098b	0.2969478
201	0x3d9c317b	0.07626625
202	0x3e25f7b3	0.16207771
203	0xbde9356e	-0.11387144
204	0xbe259639	-0.16170587
205	0xbe12a423	-0.14320426
206	0x3ea2e24a	0.3181327
207	0x3d02bf40	0.03192067
208	0xbe3c7b6a	-0.18406454
209	0xbe356cbb	-0.17717259
210	0x3dacbd3b	0.0843453
211	0xbe807d77	-0.25095722
212	0xbe9e0762	-0.30865008
213	0x3e1dfdad	0.15428801
214	0xbcc334d8	-0.023828909
215	0xbe118d1d	-0.14213987
216	0x3e09f2d3	0.13471536
217	0x3e5e8064	0.21728665
218	0xbe7d55aa	-0.2473971
219	0x3dbe1c0f	0.092826955
220	0xbb1e415e	-0.0024147849
221	0x3e180735	0.148465
222	0x3d69fa80	0.05712366
223	0x3d237ed5	0.03991588
224	0x3df651dc	0.12027332
225	0x3e720b3a	0.23637095
226	0x3e9c1bba	0.30489904
227	0x3e80be4a	0.2514518
228	0xbde03ed9	-0.10949487
229	0x3cfa07f0	0.030521363
230	0xbc6f672b	-0.0146119995
231	0xbe9e2053	-0.30884036
232	0x3daa7d68	0.083247006
233	0xbe16db77	-0.14732157
234	0xbdd723cf	-0.10504877
235	0x3e792008	0.24328625
236	0x3e8abaf3	0.27095756
237	0x3ddadd03	0.10686686
238	0xbdf174d3	-0.117898606
239	0xbd83f9bb	-0.06444117
240	0xbd390c15	-0.045177538
241	0x3c3c73de	0.011502234
242	0xbc12a6b4	-0.008950878
243	0x3e90134f	0.2813973
244	0x3e3e4589	0.18581213
245	0x3dd0348f	0.10166275
246	0x3e90c620	0.28276157
247	0x3e916179	0.28394678
248	0x3ea16ebb	0.31529793
249	0xbc2375c0	-0.009976804
250	0x3dc12314	0.09430519
251	0xbe296def	-0.16545843
252	0x3e0a81ce	0.13526079
253	0x3e7f993c	0.24960798
254	0x3d5b3b66	0.053523444
255	0xbcc71a75	-0.024304608

n1.2.bias f4 [7040]
0	0x3d1f1fd2	0.038848706
1	0x3ea199e5	0.31562725
2	0xbcfa77a1	-0.030574622
3	0xbda687f5	-0.081314005
4	0xbe117671	-0.14205338
5	0xbeab632d	-0.33474103
6	0x3ad896cd	0.0016524434
7	0xbe40c435	-0.18824847
8	0xbcb29342	-0.021798734
9	0xbe88af37	-0.26696178
10	0x3e9b7ee9	0.30370262
11	0x3e230b09	0.15922178
12	0xbdae8a7c	-0.085225075
13	0x3dcea1e3	0.10089471
14	0x3d5ddeec	0.054167673
15	0xbe0857e3	-0.13314776
16	0xbe45885d	-0.192903
17	0xbe42a9e6	-0.19010124
18	0xbeb3fb69	-0.35152748
19	0x3ea7ecb8	0.3279779
20	0x3e1071b1	0.1410587
21	0x3e976562	0.29569536
22	0x3de0ce43	0.10976841
23	0xbd5bdd70	-0.053677976
24	0xbe65689e	-0.2240319
25	0x3e9ef1c8	0.3104384
26	0xbe9bbdc3	-0.30418214
27	0xbea16389	-0.31521252
28	0xbe813478	-0.25235343
29	0x3e7511bb	0.23932545
30	0xbc79fc21	-0.015257866
31	0x3e97cb9f	0.29647538
32	0x3c595091	0.013263837
33	0xbe1bd689	-0.15218557
34	0x3e733b12	0.23753002
35	0x3eaf9ce8	0.34299397
36	0xbe624ffa	-0.22100821
37	0xbe8df398	-0.2772491
38	0xbe28b166	-0.16473922
39	0xbe919739	-0.28435686
40	0x3e680faa	0.22662225
41	0x3cd1976e	0.025584903
42	0x3e127c03	0.14305119
43	0xbe1bdb8f	-0.15220474
44	0x3d5c06fd	0.053717602
45	0xbeadfdb5	-0.33982626
46	0xbdf98977	-0.121844225
47	0x3e978892	0.29596382
48	0x3e99e7f2	0.30059773
49	0x3dc8c3d9	0.0980298
50	0x3ea3e385	0.3200952
51	0x3d15a7e5	0.03653707
52	0x3cf496a6	0.029856991
53	0xbd2de7c1	-0.042457346
54	0x3e2f620b	0.17127244
55	0x3d3089d5	0.043100197
56	0x3e886c1d	0.26644984
57	0x3e091da9	0.1339022
58	0x3e95dbb8	0.29269195
59	0x3dd144c0	0.10218191
60	0x3df2046b	0.11817249
61	0xbe456c15	-0.19279511
62	0xbeab40ac	-0.33447778
63	0xbe851e1d	-0.25999537
64	0x3d73ec7b	0.059551697
65	0x3e942126	0.2893154
66	0x3d3ed57e	0.04659032
67	0xbe791f79	-0.24328412
68	0x3e8af228	0.27137876
69	0xbe77224d	-0.24134178
70	0x3e3942d5	0.180919
71	0x3de5436a	0.11194499
72	0x3e062579	0.13100232
73	0x3e1b4971	0.15164734
74	0xbbde66c0	-0.006787151
75	0x3e4ceefc	0.2001304
76	0x3e2db154	0.16962177
77	0x3e0740e3	0.13208346
78	0x3e8fd16e	0.2808947
79	0xbdf4ff3a	-0.11962743
80	0xbdafb84c	-0.08580074
81	0xbdbbbe03	-0.09167101
82	0xbd2af32a	-0.041735806
83	0x3e4bdaf5	0.19907744
84	0x3d80576f	0.06266677
85	0xbe42661d	-0.18984266
86	0x3dee3e32	0.116329566
87	0xbc5368b4	-0.012903381
88	0x3e0c2286	0.13685045
89	0x3e524ff1	0.20538308
90	0xbe420eb7	-0.18950926
91	0x3d8b2ac2	0.06795265
92	0x3e9b8db8	0.3038156
93	0x3d2dc6ad	0.0424258
94	0xbe5bc819	-0.2146305
95	0xbe26330d	-0.16230412
96	0x3d8f07e0	0.06983924
97	0xbe6229cf	-0.22086261
98	0xbdd7daf0	-0.10539806
99	0x3d9c4c5c	0.07631752
100	0xbea0034d	-0.31252518
101	0xbe84c4e8	-0.25931478
102	0xbdabd050	-0.08389342
103	0xbe26b701	-0.16280748
104	0xbe25831d	-0.16163297
105	0x3e7d51a1	0.2473817
106	0x3e71ca53	0.23612337
107	0xbe956ba6	-0.29183692
108	0x3e0ca7c6	0.13735875
109	0x3ea964f6	0.3308484
110	0xbe8b3b1e	-0.2719354
111	0xbe8732e4	-0.26406014
112	0xbe36ad48	-0.17839539
113	0x3e2416d9	0.1602434
114	0xbe2347d9	-0.15945376
115	0x3ce2d5fd	0.027689928
116	0x3dd46169	0.10370142
117	0x3c90a967	0.017658902
118	0xbe32189f	-0.17392205
119	0x3e733b78	0.23753154
120	0xbe9d65bc	-0.3074168
121	0xbde5e663	-0.112255834
122	0x3ea5a1f3	0.3235012
123	0x3e4d4305	0.20045097
124	0x3e072d3c	0.1320085
125	0xbe1cc633	-0.15309982
126	0x3e845069	0.25842598
127	0xbd98f882	-0.07469274
128	0x3aea3b7e	0.0017870513
129	0xbe87440d	-0.26419106
130	0x3ea5bcab	0.32370505
131	0xbe41e8e5	-0.18936498
132	0xbe82922c	-0.25502145
133	0x3e63ca26	0.22245082
134	0x3dce402f	0.10070836
135	0x3df4b45a	0.11948462
136	0xbe043f7a	-0.1291484
137	0xbe2caec5	-0.16863544
138	0xbea28039	-0.3173845
139	0x3e459c85	0.19297989
140	0x3e8afdb8	0.27146697
141	0xbdd5a4d1	-0.10431827
142	0x3e9bc342	0.30422407
143	0xbe69aeec	-0.22820634
144	0x3e805a94	0.25069106
145	0xbe5a51fd	-0.21320339
146	0xbce9d546	-0.02854408
147	0x3e752400	0.23939514
148	0xbd9a8b06	-0.07546048
149	0x3e6c99de	0.2310557
150	0xbe9b3131	-0.30310968
151	0x3db80525	0.08985356
152	0x3e1faa21	0.15592243
153	0xbb2e0bb1	-0.0026557262
154	0x3eac6d76	0.33677262
155	0x3e91fbda	0.2851246
156	0x3e33bfce	0.17553636
157	0x3e2cee3a	0.16887751
158	0x3e2d86e8	0.16945994
159	0x3e6ebcda	0.23314229
160	0xbcfa4f4c	-0.03055539
161	0x3e0f60b9	0.1400174
162	0xbda4479d	-0.08021472
163	0xbd891b02	-0.066946045
164	0x3e5aef23	0.21380286
165	0xbe64b6d0	-0.22335362
166	0x3e84c8d6	0.25934476
167	0x3e97cfd8	0.2965076
168	0xbcde80e0	-0.027161062
169	0xbbb1a7ec	-0.005421629
170	0x3e6f07bd	0.23342796
171	0x3e318297	0.17334972
172	0xbe41ab11	-0.18912913
173	0x3e35312a	0.17694536
174	0x3cdf2290	0.02723816
175	0x3c7b1db7	0.015326909
176	0xbeae998a	-0.34101516
177	0x3e33c5e5	0.1755596
178	0xbe87c6d3	-0.26518878
179	0xbea6a882	-0.32550436
180	0x3dc1d5ec	0.094646305
181	0xbd9fdcaa	-0.0780576
182	0xbe611f97	-0.21984707
183	0x3e1a6980	0.15079308
184	0xbc73e18e	-0.014885319
185	0x3b077182	0.002066702
186	0x3e78afd1	0.24285819
187	0x3e8e7cb6	0.27829522
188	0xbeaad9e0	-0.3336935
189	0x3e46778a	0.19381538
190	0x3c9ee0d9	0.019394325
191	0x3da00b79	0.07814688
192	0x3e30a9b7	0.17252241
193	0x3e38dcd9	0.18052997
194	0x3ea0f5d3	0.3143755
195	0xbe1e6d5e	-0.15471408
196	0xbe81c53b	-0.25345787
197	0xbd0590b9	-0.03260872
198	0xbd38be15	-0.04510315
199	0xbdaa2ee4	-0.08309725
200	0x3dded4dd	0.10880444
201	0x3e0298b8	0.1275357
202	0xbdb44c56	-0.088036224
203	0x3e916fa4	0.28405488
204	0x3ea9ee24	0.331895
205	0xbe7cd856	-0.246919
206	0x3cf531f3	0.029931044
207	0x3de6b14b	0.11264285
208	0x3ddde078	0.1083383
209	0x3c5360ba	0.012901479
210	0xbe8c0244	-0.2734548
211	0xbe8b5933	-0.2721649
212	0xbd810604	-0.062999755
213	0xbc2f0e2e	-0.010684533
214	0x3ead40cf	0.33838508
215	0xbe8cc5b8	-0.27494597
216	0x3e1c92e7	0.15290414
217	0x3e9abafa	0.30220777
218	0xbdea1df8	-0.11431497
219	0xbe290c1a	-0.16508523
220	0xbe59fba7	-0.21287404
221	0xbe2aac91	-0.16667391
222	0x3c8dc0bb	0.017303815
223	0x3e8afd9f	0.27146623
224	0x3d9900c0	0.07470846
225	0x3e7aa75e	0.24477908
226	0xbe87b72a	-0.2650693
227	0xbe46b871	-0.19406296
228	0xbde50ddd	-0.11184285
229	0xbdd84c6f	-0.105614536
230	0x3e8b3428	0.2718823
231	0xbd027f9a	-0.03185997
232	0x3e92395b	0.28559384
233	0xbe9da99e	-0.3079347
234	0x3ddaa9ed	0.10676942
235	0xbddf897c	-0.10914895
236	0xbc569311	-0.013096587
237	0x3e385976	0.18002877
238	0xbe63ce96	-0.22246775
239	0x3ea97e46	0.3310415
240	0x3df96c6a	0.121788815
241	0x3de73ff9	0.11291499
242	0xbcb30e1e	-0.021857318
243	0x3d331c75	0.04372831
244	0x3ea4eee2	0.32213503
245	0xbe13374c	-0.14376563
246	0x3cf0424e	0.029328492
247	0xbd913303	-0.07089808
248	0x3de5130a	0.11185272
249	0x3d5d42bb	0.054018717
250	0x3e93f06c	0.28894365
251	0xbda662d3	-0.08124318
252	0xbe8c71cd	-0.27430573
253	0xbe9c7218	-0.30555797
254	0x3e83b05f	0.25720498
255	0x3e70c65e	0.23513171

conv1.bias f4 [32]
0	0x3d18a735	0.037268836
1	0x3ca1ee22	0.01976687
2	0x3cae99c9	0.021313565
3	0xbc19d3be	-0.009388862
4	0xbc3352c5	-0.010945027
5	0xbd0f1ee5	-0.034941573
6	0x3d998dfc	0.074977845
7	0x3d1f5cc2	0.03890682
8	0x39ce8acc	0.00039394794
9	0xbd766c68	-0.060161978
10	0x3d35eb15	0.044413645
11	0xbcd7f98d	-0.026364112
12	0x3d79900a	0.060928382
13	0xbd280e77	-0.04102942
14	0x3d33bdef	0.043882307
15	0x3d8d68a5	0.06904725
16	0x3d70cf75	0.058791596
17	0x3d504404	0.050846115
18	0x3d225023	0.039627206
19	0x3b29e8b0	0.0025926046
20	0x3cfae814	0.030628242
21	0xbd3a223d	-0.04544281
22	0x3bbded74	0.005796129
23	0x38b77838	8.7485125e-05
24	0xbd2f544d	-0.042805005
25	0x3c82c67e	0.01596379
26	0xbd4914e0	-0.049092174
27	0x3d14a2fd	0.03628825
28	0x3c9b5351	0.018960627
29	0xbcc3aabc	-0.023885123
30	0x3cb8e53a	0.022570241
31	0x3d055596	0.032552324

conv1.nn.0.weight f4 [8, 116]
0	0xb9aa2d5b	-0.0003245872
1	0x3c9cbd17	0.019133134
2	0x3cb41f3e	0.021987554
3	0xbb434865	-0.002979779
4	0x3b72c878	0.0037045758
5	0xbd691138	-0.056901187
6	0x3ce01fc9	0.027358906
7	0x3da8d6fc	0.0824413
8	0xbb6fb9bc	-0.0036579212
9	0x3c6d5bef	0.014487251
10	0xbd09a13e	-0.03360104
11	0xbd883dce	-0.06652413
12	0xbc8e1c8a	-0.017347593
13	0xbd04bd05	-0.032406826
14	0x3d2534b4	0.040333465
15	0xbc7d8e9a	-0.015475893
16	0xbbce8988	-0.006303016
17	0xbb215b7d	-0.0024621182
18	0xbd8641df	-0.06555533
19	0xbc2de5ad	-0.010613841
20	0x3c877c67	0.016538812
21	0x3cf42f39	0.029807674
22	0xbcc4fddb	-0.024046829
23	0xbc8234ed	-0.015894378
24	0xbb9b7389	-0.0047439975
25	0x3d10cb6e	0.035350256
26	0x3c13804c	0.009002756
27	0xbb2a2087	-0.002595933
28	0x3d93bbaa	0.072135285
29	0x3d3baba9	0.045818005
30	0xbd840cb3	-0.06447735
31	0x3b87f6ee	0.0041493094
32	0xbc2d1d7a	-0.01056611
33	0xbc7ad3e6	-0.01530931
34	0x3c880b32	0.0166069
35	0xbc47beed	-0.012191516
36	0xbd11dfec	-0.03561394
37	0xbd1475dc	-0.036245212
38	0xbaab63c4	-0.0013075997
39	0xbd3a4d93	-0.045484137
40	0x3b74ace7	0.0037334503
41	0xbd636fc3	-0.055526506
42	0x3db378c1	0.08763266
43	0x3a89e5c6	0.0010520748
44	0x3cfa1c98	0.030531213
45	0xbd043307	-0.032275226
46	0x3d683c67	0.05669823
47	0xbb37acd6	-0.0028026602
48	0xbd5189ff	-0.051156994
49	0x3d1b8e99	0.03797779
50	0xbcbe6c51	-0.023245009
51	0x3d7b78f5	0.06139465
52	0x3d180f0f	0.037123736
53	0xbb7eca73	-0.0038877993
54	0x3c5c62bd	0.013451275
55	0xbc88736f	-0.016656606
56	0x3b4d09e3	0.003128641
57	0x3dab9490	0.083779454
58	0xbae2d314	-0.0017305338
59	0xbcd21a4d	-0.025647307
60	0xbd38dfc8	-0.04513529
61	0xbd4b16e9	-0.049582396
62	0x3c897b09	0.0167823
63	0x3995e142	0.00028587325
64	0x3d3683f6	0.04455944
65	0xbc543a42	-0.012953343
66	0xbd61fe40	-0.055174112
67	0xbc867fcf	-0.016418366
68	0xbd62a5b2	-0.0553338
69	0xbcf83b95	-0.030301848
70	0xbcd72722	-0.026263777
71	0xbc8a135a	-0.01685493
72	0x3d827859	0.06370611
73	0xbd5664b8	-0.052342147
74	0x3c243918	0.010023378
75	0xbd42a898	-0.047524065
76	0x3d0e03a1	0.03467143
77	0xbd4b62fe	-0.049654953
78	0x3d8a0679	0.06739516
79	0x3d996c47	0.074913554
80	0x3d6d6286	0.057955287
81	0x3da92415	0.08258835
82	0x3d44f729	0.048087273
83	0xbaf788ea	-0.0018885408
84	0x3dae3c5c	0.085076064
85	0x3dbabb10	0.091177106
86	0x3cce8273	0.025208687
87	0x3dae0b64	0.08498266
88	0xbcfb5309	-0.030679243
89	0xbb673657	-0.0035280192
90	0xbd83aca7	-0.06429415
91	0x3d805aac	0.06267294
92	0x3dbf49b5	0.093402304
93	0xbd31c79b	-0.04340325
94	0x3da31f89	0.07964999
95	0x3d95bf47	0.07311874
96	0x3cae2169	0.021256166
97	0xbd1d0790	-0.03833729
98	0xbd8e063e	-0.06934784
99	0x3d628fb4	0.055312827
100	0xbc5708f6	-0.013124695
101	0x3d11679b	0.035499196
102	0x3d16c41b	0.036808114
103	0xb8bd156e	-9.016214e-05
104	0xbd8cc732	-0.06873931
105	0x3cb8fb27	0.022580696
106	0x3d4575b1	0.048207942
107	0xbce1502c	-0.02750405
108	0xbd318e00	-0.043348312
109	0x3d773b0d	0.06035905
110	0x3dbc7ec7	0.09203868
111	0xbd94595c	-0.072436064
112	0x3cec21fc	0.028824799
113	0xbd94ed62	-0.0727184
114	0xbd55e1b7	-0.05221721
115	0x3d79b2ca	0.060961522
116	0x3d472abc	0.04862474
117	0x3c19a14a	0.009376833
118	0xbc5e4cb2	-0.01356809
119	0xbcc7a948	-0.024372712
120	0xbd8e511e	-0.069490656
121	0x3d67e36f	0.056613382
122	0x3d911069	0.07083208
123	0xbb9c8419	-0.0047764895
124	0x3cc5f116	0.02416281
125	0xbd81b399	-0.06333084
126	0x3d1b6462	0.03793753
127	0x3aff7547	0.0019489907
128	0x3b9a9232	0.004717135
129	0x3cb86c01	0.022512438
130	0xbd860779	-0.06544394
131	0xbbec61df	-0.0072138156
132	0xbd6eaa8c	-0.058268115
133	0xbd8227b7	-0.06355231
134	0x3dbe03fc	0.09278104
135	0x3d0daf1f	0.034590837
136	0x3d6e6631	0.058202926
137	0xbd6a366c	-0.057180807
138	0x3d1164c6	0.035496496
139	0xbd1912d0	-0.037371457
140	0x3daf5a52	0.08562149
141	0xbd43c6a1	-0.04779685
142	0x3d3478a1	0.044060353
143	0x3cef7abd	0.02923333
144	0x3c06d3ec	0.008229237
145	0xbd2561d3	-0.040376496
146	0x3d9191eb	0.0710791
147	0x379a9c2b	1.8430952e-05
148	0x3c4f4670	0.012651071
149	0x3d00e240	0.03146577
150	0x3d1e6316	0.038668714
151	0x3d57f1aa	0.052720703
152	0xb9f216ba	-0.0004617477
153	0xbd8e6bf0	-0.06954181
154	0x3d092dd4	0.03349097
155	0xbd0a3cb0	-0.033749282
156	0xbd45dd03	-0.048306476
157	0x3c481ef1	0.012214408
158	0xbd958c4e	-0.073021516
159	0xba8f514f	-0.0010934266
160	0x3d1ee3db	0.03879152
161	0x3d0c8b9a	0.034312822
162	0x3d98f608	0.07468802
163	0xbc3fc06e	-0.011703594
164	0x3b88bd19	0.004172933
165	0xbd550710	-0.05200869
166	0xbcb55a3e	-0.022137757
167	0xbc163dd9	-0.009170019
168	0x3d20dea2	0.03927482
169	0xbd397988	-0.045281917
170	0x3d831e9c	0.06402323
171	0xbc9eb898	-0.01937513
172	0xbb804048	-0.003913913
173	0x3d94ea81	0.072712906
174	0xbd2caacd	-0.042155076
175	0x3d36c1c8	0.044618398
176	0x3d45111b	0.048112016
177	0x3dac872a	0.08424218
178	0xbd843297	-0.06454962
179	0xbbee0fe1	-0.0072650765
180	0x3d0e7714	0.03478153
181	0xbcaa48e5	-0.020786712
182	0xbd5e39f3	-0.054254483
183	0xbd8febf5	-0.07027427
184	0xbcc0fc4b	-0.023557803
185	0x3d9d29b3	0.07673969
186	0xbd1fa5c7	-0.038976457
187	0x3db8f9b9	0.09032006
188	0x3d62fafc	0.05541514
189	0xbb69cf18	-0.0035676416
190	0x3d32d67b	0.043661576
191	0x3b89d80e	0.004206664
192	0x3c9fa6c6	0.019488703
193	0x3b2b3c87	0.0026128606
194	0xbd247366	-0.040149115
195	0x3d27164d	0.040792752
196	0xbd8eafb3	-0.06967106
197	0x3bfcc093	0.0077133863
198	0x3bc8732c	0.006117245
199	0xbc5627c0	-0.013071001
200	0xbd398095	-0.04528864
201	0xbd8651bc	-0.06558558
202	0x3d818c83	0.063256286
203	0x3d4be3a3	0.04977764
204	0x3c863a09	0.016385095
205	0x3d22561e	0.03963291
206	0xbb5d3724	-0.003375479
207	0xbd2bb07f	-0.041916367
208	0x3da08906	0.07838635
209	0x3d19e5ad	0.03757255
210	0x3d2f6a3c	0.042825922
211	0x3d76b5db	0.060232025
212	0xbd780ea4	-0.060560837
213	0xbbc38a43	-0.00596741
214	0x3cfe1a9e	0.031018551
215	0x3ccff071	0.025383206
216	0x3cf8a755	0.030353228
217	0xbd933c0f	-0.0718919
218	0x3c8d32ac	0.017236076
219	0x3d40ba51	0.047052685
220	0xbd565abf	-0.052332636
221	0xbd2596c8	-0.040427
222	0xbad560a2	-0.0016279409
223	0xbbcebf0f	-0.006309397
224	0xbc12c308	-0.008957632
225	0xbd8aff23	-0.06786945
226	0x3d486203	0.048921596
227	0xbb4f39ce	-0.0031620148
228	0x3d5e39fb	0.054254513
229	0xbd50dc92	-0.050991602
230	0xbd43a5d3	-0.047765564
231	0xbc4579bd	-0.01205295
232	0x3d0fba20	0.035089612
233	0xbcaafeda	-0.020873476
234	0x3d89508d	0.06704817
235	0xbceb7ea7	-0.028746916
236	0xbd31fc92	-0.04345376
237	0x3a946cd6	0.001132394
238	0xbd84ab38	-0.0647797
239	0x3d30b895	0.04314478
240	0xbd5602f0	-0.052248895
241	0x3d8071f9	0.062717386
242	0xbccfa8fc	-0.025349133
243	0x3d3fb6ae	0.046805076
244	0xbc3c23dc	-0.011483159
245	0x3daca486	0.08429818
246	0xbbd79bb5	-0.006579841
247	0x3d0ebc42	0.034847505
248	0x3d2daec7	0.04240301
249	0xbcbb6689	-0.022876041
250	0x3dbb523f	0.091465466
251	0x3c8793fb	0.016550055
252	0xbd079b53	-0.033107113
253	0xbc570bc6	-0.013125366
254	0x3d535d98	0.05160293
255	0x3b9bbb38	0.004752543

conv1.nn.2.weight f4 [7040, 8]
0	0x3cffd9d4	0.031231798
1	0xbea41b9d	-0.32052317
2	0xbdbacd12	-0.09121145
3	0x3e56da90	0.20981812
4	0x3b93138b	0.0044884137
5	0x3db663bf	0.08905744
6	0x3db5f321	0.08884264
7	0xbbae8d5a	-0.005326909
8	0x3d7739a5	0.06035771
9	0x3d50706f	0.050888475
10	0xbdfbba14	-0.12291351
11	0x3e3fee61	0.18743278
12	0xbe8ee379	-0.27907923
13	0xbca5b762	-0.020229045
14	0xbca71c23	-0.020399159
15	0xbe824ba6	-0.2544834
16	0x3bce6dc3	0.0062997057
17	0x3ea3f428	0.32022214
18	0xbe762cc8	-0.2404052
19	0x3bf213e5	0.0073876255
20	0x3de32a48	0.11092049
21	0xbe954ae8	-0.2915871
22	0x3e9b8d4a	0.30381233
23	0x3ddfd375	0.10929004
24	0xbe4d6ec4	-0.20061785
25	0x3c988192	0.018616471
26	0xbea5c9de	-0.32380575
27	0x3d70a955	0.058755238
28	0x3d04dd82	0.03243781
29	0x3e6e5aa2	0.23276761
30	0xbdf4ac0b	-0.11946877
31	0xbdbd3834	-0.092392355
32	0xbe301fa3	-0.17199568
33	0xbdc88316	-0.09790628
34	0xbe814e73	-0.25255165
35	0xbe807ce4	-0.25095284
36	0xbe2a49a6	-0.16629657
37	0x3da866d2	0.082227364
38	0x3e13fa5c	0.14450973
39	0xbe1ce549	-0.1532184
40	0xbdeee0c4	-0.116639644
41	0xbe947ffb	-0.2900389
42	0xbea8e07d	-0.3298377
43	0x3e1d3c5d	0.15355058
44	0xbd8d85ce	-0.06910287
45	0x3e8e8db2	0.2784248
46	0x3e1caae6	0.15299568
47	0xbe85752a	-0.26065952
48	0x3e88b9db	0.26704296
49	0xbea72aea	-0.32649928
50	0x3e8e84df	0.27835748
51	0xbdb37f81	-0.08764554
52	0x3e58b3f6	0.211624
53	0x3d3f9870	0.046776235
54	0xbe9ba64d	-0.30400315
55	0x3e97a3bf	0.29617116
56	0xbe2d0a9f	-0.16898583
57	0xbe0f6357	-0.14002739
58	0x3e2ad168	0.16681445
59	0xbe80a5ba	-0.2512644
60	0x3e16b73b	0.14718334
61	0x3e9be0f6	0.3044507
62	0x3e4b07ea	0.19827238
63	0xbdd5a49a	-0.10431786
64	0x3ea880fa	0.329109
65	0xbce91ea9	-0.028457003
66	0x3e6683e5	0.22511251
67	0x3e05876a	0.13039938
68	0xbddf15ef	-0.108928554
69	0xbe7e87b8	-0.2485646
70	0xbd31666e	-0.043310575
71	0x3c9103fc	0.017702095
72	0x3e88b002	0.26696783
73	0xbe404806	-0.18777475
74	0xbe171ab2	-0.14756277
75	0xbea0ee1c	-0.31431663
76	0x3ea01098	0.3126266
77	0x3e7ef673	0.248987
78	0x3d8d97e3	0.06913736
79	0xbe6a7171	-0.22894837
80	0x3e0ddb7f	0.13853262
81	0xbe8efee7	-0.2792885
82	0xbe9ead76	-0.30991715
83	0x3e93aff0	0.28845167
84	0xbc295003	-0.010334018
85	0x3ea6613d	0.32496062
86	0x3ea91d5e	0.33030218
87	0xbe530c0d	-0.20610066
88	0xbe88ea32	-0.26741177
89	0x3e5101aa	0.20410791
90	0x3e360b32	0.17777708
91	0xbc8ce26e	-0.017197814
92	0x3e354f04	0.17705923
93	0x3e8ec233	0.27882537
94	0x3be4c044	0.0069809277
95	0x3c38e10d	0.011284125
96	0x3e343c7d	0.176012
97	0xbe6ba623	-0.23012595
98	0x3e25592e	0.161473
99	0x3e1f25ac	0.15541714
100	0x3eaaaeaf	0.33336398
101	0x3e50b02f	0.20379709
102	0x3e19237a	0.1495494
103	0xbe1c0cc1	-0.1523924
104	0xbde9ea83	-0.11421683
105	0xbe808aa2	-0.25105768
106	0xbeaa6bbf	-0.3328533
107	0xbe22dde1	-0.15904953
108	0x3ea1fc4e	0.31637806
109	0xb84ec62c	-4.929879e-05
110	0xbd7bed6e	-0.061505727
111	0xbe1161fe	-0.14197537
112	0xbe338080	-0.17529488
113	0xbe60d4dd	-0.21956201
114	0x3dc99531	0.09842909
115	0x3e5ad81f	0.21371506
116	0xbdbbff1b	-0.09179517
117	0x3ea870ed	0.32898656
118	0x3e853a6e	0.2602114
119	0x3ea31caa	0.31857806
120	0xbe78351d	-0.24239011
121	0x3dfde606	0.12397389
122	0xbd157aa1	-0.0364939
123	0x3e9ffe2c	0.31248605
124	0x3d009131	0.031388465
125	0xbd42abeb	-0.047527235
126	0xbd4d98f2	-0.05019469
127	0x3d33b0c8	0.043869764
128	0x3d9afc6c	0.07567677
129	0x3e25eef7	0.16204439
130	0x3ddf9db6	0.10918753
131	0xbe30cab6	-0.17264828
132	0x3da764e5	0.08173541
133	0xbde9dde1	-0.11419273
134	0x3dfc6844	0.123245746
135	0xbe0f210b	-0.13977449
136	0xbe520fa6	-0.20513782
137	0x3d71ee54	0.059065178
138	0x3e1e4bbe	0.15458581
139	0xbda429a3	-0.08015754
140	0xbea80582	-0.32816702
141	0xbce412b6	-0.027840953
142	0xbe83a35f	-0.2571058
143	0xbe67e398	-0.22645414
144	0xbe470c76	-0.19438347
145	0xbea5bacf	-0.32369086
146	0xbe218bc9	-0.1577598
147	0xbe318300	-0.17335129
148	0x3e371597	0.1787933
149	0xbe989e0f	-0.2980809
150	0xbe8ec3f8	-0.27883887
151	0xbe5c75ca	-0.21529308
152	0x3e68c81f	0.2273259
153	0x3d5188cf	0.05115586
154	0x3e86f65f	0.2635984
155	0xbd98e0e8	-0.074647725
156	0x3e5a88fa	0.21341315
157	0xbea50415	-0.32229677
158	0x3c8588c8	0.016300574
159	0x3da1842c	0.07886538
160	0xbe5791d1	-0.21051718
161	0xbddb34a9	-0.107034035
162	0x3e2e7599	0.17037047
163	0x3daea4f8	0.08527559
164	0xbe931d25	-0.28733173
165	0x3e29fbff	0.16600035
166	0xbc88d47d	-0.016702885
167	0xbcd3fb12	-0.025876556
168	0xbe80e2fe	-0.2517318
169	0xbe570136	-0.20996556
170	0x3e4f3de2	0.2023845
171	0xbba2b85e	-0.004965826
172	0x3e03b356	0.1286138
173	0xbe61e42c	-0.22059697
174	0x3df1e4b6	0.11811201
175	0x3ba1181a	0.004916203
176	0x3e65b48e	0.22432157
177	0xbe09c66d	-0.134546
178	0xbe0d5f0c	-0.13805789
179	0xbe1228d7	-0.14273392
180	0xbde765f7	-0.11298745
181	0xbc801cfa	-0.015638817
182	0xbd3c72be	-0.046007864
183	0xbe45cc31	-0.19316174
184	0xbea79ae1	-0.3273535
185	0xbc15d137	-0.009144119
186	0xbdf9911c	-0.121858805
187	0x3d99d135	0.07510606
188	0x3e0066d2	0.12539223
189	0x3eaabb1b	0.33345875
190	0x3d950de7	0.07278042
191	0x3d8f0492	0.069832936
192	0x3e6712ed	0.22565813
193	0xbdff8604	-0.12476733
194	0x3e83707d	0.2567176
195	0x3d6a0046	0.057129167
196	0xbdf43bb0	-0.11925447
197	0x3ea94ecb	0.33067927
198	0x3e58283b	0.21109097
199	0x3e1e9c65	0.15489347
200	0x3e98098b	0.2969478
201	0x3d9c317b	0.07626625
202	0x3e25f7b3	0.16207771
203	0xbde9356e	-0.11387144
204	0xbe259639	-0.16170587
205	0xbe12a423	-0.14320426
206	0x3ea2e24a	0.3181327
207	0x3d02bf40	0.03192067
208	0xbe3c7b6a	-0.18406454
209	0xbe356cbb	-0.17717259
210	0x3dacbd3b	0.0843453
211	0xbe807d77	-0.25095722
212	0xbe9e0762	-0.30865008
213	0x3e1dfdad	0.15428801
214	0xbcc334d8	-0.023828909
215	0xbe118d1d	-0.14213987
216	0x3e09f2d3	0.13471536
217	0x3e5e8064	0.21728665
218	0xbe7d55aa	-0.2473971
219	0x3dbe1c0f	0.092826955
220	0xbb1e415e	-0.0024147849
221	0x3e180735	0.148465
222	0x3d69fa80	0.05712366
223	0x3d237ed5	0.03991588
224	0x3df651dc	0.12027332
225	0x3e720b3a	0.23637095
226	0x3e9c1bba	0.30489904
227	0x3e80be4a	0.2514518
228	0xbde03ed9	-0.10949487
229	0x3cfa07f0	0.030521363
230	0xbc6f672b	-0.0146119995
231	0xbe9e2053	-0.30884036
232	0x3daa7d68	0.083247006
233	0xbe16db77	-0.14732157
234	0xbdd723cf	-0.10504877
235	0x3e792008	0.24328625
236	0x3e8abaf3	0.27095756
237	0x3ddadd03	0.10686686
238	0xbdf174d3	-0.117898606
239	0xbd83f9bb	-0.06444117
240	0xbd390c15	-0.045177538
241	0x3c3c73de	0.011502234
242	0xbc12a6b4	-0.008950878
243	0x3e90134f	0.2813973
244	0x3e3e4589	0.18581213
245	0x3dd0348f	0.10166275
246	0x3e90c620	0.28276157
247	0x3e916179	0.28394678
248	0x3ea16ebb	0.31529793
249	0xbc2375c0	-0.009976804
250	0x3dc12314	0.09430519
251	0xbe296def	-0.16545843
252	0x3e0a81ce	0.13526079
253	0x3e7f993c	0.24960798
254	0x3d5b3b66	0.053523444
255	0xbcc71a75	-0.024304608

conv1.nn.2.bias f4 [7040]
0	0x3d1f1fd2	0.038848706
1	0x3ea199e5	0.31562725
2	0xbcfa77a1	-0.030574622
3	0xbda687f5	-0.081314005
4	0xbe117671	-0.14205338
5	0xbeab632d	-0.33474103
6	0x3ad896cd	0.0016524434
7	0xbe40c435	-0.18824847
8	0xbcb29342	-0.021798734
9	0xbe88af37	-0.26696178
10	0x3e9b7ee9	0.30370262
11	0x3e230b09	0.15922178
12	0xbdae8a7c	-0.085225075
13	0x3dcea1e3	0.10089471
14	0x3d5ddeec	0.054167673
15	0xbe0857e3	-0.13314776
16	0xbe45885d	-0.192903
17	0xbe42a9e6	-0.19010124
18	0xbeb3fb69	-0.35152748
19	0x3ea7ecb8	0.3279779
20	0x3e1071b1	0.1410587
21	0x3e976562	0.29569536
22	0x3de0ce43	0.10976841
23	0xbd5bdd70	-0.053677976
24	0xbe65689e	-0.2240319
25	0x3e9ef1c8	0.3104384
26	0xbe9bbdc3	-0.30418214
27	0xbea16389	-0.31521252
28	0xbe813478	-0.25235343
29	0x3e7511bb	0.23932545
30	0xbc79fc21	-0.015257866
31	0x3e97cb9f	0.29647538
32	0x3c595091	0.013263837
33	0xbe1bd689	-0.15218557
34	0x3e733b12	0.23753002
35	0x3eaf9ce8	0.34299397
36	0xbe624ffa	-0.22100821
37	0xbe8df398	-0.2772491
38	0xbe28b166	-0.16473922
39	0xbe919739	-0.28435686
40	0x3e680faa	0.22662225
41	0x3cd1976e	0.025584903
42	0x3e127c03	0.14305119
43	0xbe1bdb8f	-0.15220474
44	0x3d5c06fd	0.053717602
45	0xbeadfdb5	-0.33982626
46	0xbdf98977	-0.121844225
47	0x3e978892	0.29596382
48	0x3e99e7f2	0.30059773
49	0x3dc8c3d9	0.0980298
50	0x3ea3e385	0.3200952
51	0x3d15a7e5	0.03653707
52	0x3cf496a6	0.029856991
53	0xbd2de7c1	-0.042457346
54	0x3e2f620b	0.17127244
55	0x3d3089d5	0.043100197
56	0x3e886c1d	0.26644984
57	0x3e091da9	0.1339022
58	0x3e95dbb8	0.29269195
59	0x3dd144c0	0.10218191
60	0x3df2046b	0.11817249
61	0xbe456c15	-0.19279511
62	0xbeab40ac	-0.33447778
63	0xbe851e1d	-0.25999537
64	0x3d73ec7b	0.059551697
65	0x3e942126	0.2893154
66	0x3d3ed57e	0.04659032
67	0xbe791f79	-0.24328412
68	0x3e8af228	0.27137876
69	0xbe77224d	-0.24134178
70	0x3e3942d5	0.180919
71	0x3de5436a	0.11194499
72	0x3e062579	0.13100232
73	0x3e1b4971	0.15164734
74	0xbbde66c0	-0.006787151
75	0x3e4ceefc	0.2001304
76	0x3e2db154	0.16962177
77	0x3e0740e3	0.13208346
78	0x3e8fd16e	0.2808947
79	0xbdf4ff3a	-0.11962743
80	0xbdafb84c	-0.08580074
81	0xbdbbbe03	-0.09167101
82	0xbd2af32a	-0.041735806
83	0x3e4bdaf5	0.19907744
84	0x3d80576f	0.06266677
85	0xbe42661d	-0.18984266
86	0x3dee3e32	0.116329566
87	0xbc5368b4	-0.012903381
88	0x3e0c2286	0.13685045
89	0x3e524ff1	0.20538308
90	0xbe420eb7	-0.18950926
91	0x3d8b2ac2	0.06795265
92	0x3e9b8db8	0.3038156
93	0x3d2dc6ad	0.0424258
94	0xbe5bc819	-0.2146305
95	0xbe26330d	-0.16230412
96	0x3d8f07e0	0.06983924
97	0xbe6229cf	-0.22086261
98	0xbdd7daf0	-0.10539806
99	0x3d9c4c5c	0.07631752
100	0xbea0034d	-0.31252518
101	0xbe84c4e8	-0.25931478
102	0xbdabd050	-0.08389342
103	0xbe26b701	-0.16280748
104	0xbe25831d	-0.16163297
105	0x3e7d51a1	0.2473817
106	0x3e71ca53	0.23612337
107	0xbe956ba6	-0.29183692
108	0x3e0ca7c6	0.13735875
109	0x3ea964f6	0.3308484
110	0xbe8b3b1e	-0.2719354
111	0xbe8732e4	-0.26406014
112	0xbe36ad48	-0.17839539
113	0x3e2416d9	0.1602434
114	0xbe2347d9	-0.15945376
115	0x3ce2d5fd	0.027689928
116	0x3dd46169	0.10370142
117	0x3c90a967	0.017658902
118	0xbe32189f	-0.17392205
119	0x3e733b78	0.23753154
120	0xbe9d65bc	-0.3074168
121	0xbde5e663	-0.112255834
122	0x3ea5a1f3	0.3235012
123	0x3e4d4305	0.20045097
124	0x3e072d3c	0.1320085
125	0xbe1cc633	-0.15309982
126	0x3e845069	0.25842598
127	0xbd98f882	-0.07469274
128	0x3aea3b7e	0.0017870513
129	0xbe87440d	-0.26419106
130	0x3ea5bcab	0.32370505
131	0xbe41e8e5	-0.18936498
132	0xbe82922c	-0.25502145
133	0x3e63ca26	0.22245082
134	0x3dce402f	0.10070836
135	0x3df4b45a	0.11948462
136	0xbe043f7a	-0.1291484
137	0xbe2caec5	-0.16863544
138	0xbea28039	-0.3173845
139	0x3e459c85	0.19297989
140	0x3e8afdb8	0.27146697
141	0xbdd5a4d1	-0.10431827
142	0x3e9bc342	0.30422407
143	0xbe69aeec	-0.22820634
144	0x3e805a94	0.25069106
145	0xbe5a51fd	-0.21320339
146	0xbce9d546	-0.02854408
147	0x3e752400	0.23939514
148	0xbd9a8b06	-0.07546048
149	0x3e6c99de	0.2310557
150	0xbe9b3131	-0.30310968
151	0x3db80525	0.08985356
152	0x3e1faa21	0.15592243
153	0xbb2e0bb1	-0.0026557262
154	0x3eac6d76	0.33677262
155	0x3e91fbda	0.2851246
156	0x3e33bfce	0.17553636
157	0x3e2cee3a	0.16887751
158	0x3e2d86e8	0.16945994
159	0x3e6ebcda	0.23314229
160	0xbcfa4f4c	-0.03055539
161	0x3e0f60b9	0.1400174
162	0xbda4479d	-0.08021472
163	0xbd891b02	-0.066946045
164	0x3e5aef23	0.21380286
165	0xbe64b6d0	-0.22335362
166	0x3e84c8d6	0.25934476
167	0x3e97cfd8	0.2965076
168	0xbcde80e0	-0.027161062
169	0xbbb1a7ec	-0.005421629
170	0x3e6f07bd	0.23342796
171	0x3e318297	0.17334972
172	0xbe41ab11	-0.18912913
173	0x3e35312a	0.17694536
174	0x3cdf2290	0.02723816
175	0x3c7b1db7	0.015326909
176	0xbeae998a	-0.34101516
177	0x3e33c5e5	0.1755596
178	0xbe87c6d3	-0.26518878
179	0xbea6a882	-0.32550436
180	0x3dc1d5ec	0.094646305
181	0xbd9fdcaa	-0.0780576
182	0xbe611f97	-0.21984707
183	0x3e1a6980	0.15079308
184	0xbc73e18e	-0.014885319
185	0x3b077182	0.002066702
186	0x3e78afd1	0.24285819
187	0x3e8e7cb6	0.27829522
188	0xbeaad9e0	-0.3336935
189	0x3e46778a	0.19381538
190	0x3c9ee0d9	0.019394325
191	0x3da00b79	0.07814688
192	0x3e30a9b7	0.17252241
193	0x3e38dcd9	0.18052997
194	0x3ea0f5d3	0.3143755
195	0xbe1e6d5e	-0.15471408
196	0xbe81c53b	-0.25345787
197	0xbd0590b9	-0.03260872
198	0xbd38be15	-0.04510315
199	0xbdaa2ee4	-0.08309725
200	0x3dded4dd	0.10880444
201	0x3e0298b8	0.1275357
202	0xbdb44c56	-0.088036224
203	0x3e916fa4	0.28405488
204	0x3ea9ee24	0.331895
205	0xbe7cd856	-0.246919
206	0x3cf531f3	0.029931044
207	0x3de6b14b	0.11264285
208	0x3ddde078	0.1083383
209	0x3c5360ba	0.012901479
210	0xbe8c0244	-0.2734548
211	0xbe8b5933	-0.2721649
212	0xbd810604	-0.062999755
213	0xbc2f0e2e	-0.010684533
214	0x3ead40cf	0.33838508
215	0xbe8cc5b8	-0.27494597
216	0x3e1c92e7	0.15290414
217	0x3e9abafa	0.30220777
218	0xbdea1df8	-0.11431497
219	0xbe290c1a	-0.16508523
220	0xbe59fba7	-0.21287404
221	0xbe2aac91	-0.16667391
222	0x3c8dc0bb	0.017303815
223	0x3e8afd9f	0.27146623
224	0x3d9900c0	0.07470846
225	0x3e7aa75e	0.24477908
226	0xbe87b72a	-0.2650693
227	0xbe46b871	-0.19406296
228	0xbde50ddd	-0.11184285
229	0xbdd84c6f	-0.105614536
230	0x3e8b3428	0.2718823
231	0xbd027f9a	-0.03185997
232	0x3e92395b	0.28559384
233	0xbe9da99e	-0.3079347
234	0x3ddaa9ed	0.10676942
235	0xbddf897c	-0.10914895
236	0xbc569311	-0.013096587
237	0x3e385976	0.18002877
238	0xbe63ce96	-0.22246775
239	0x3ea97e46	0.3310415
240	0x3df96c6a	0.121788815
241	0x3de73ff9	0.11291499
242	0xbcb30e1e	-0.021857318
243	0x3d331c75	0.04372831
244	0x3ea4eee2	0.32213503
245	0xbe13374c	-0.14376563
246	0x3cf0424e	0.029328492
247	0xbd913303	-0.07089808
248	0x3de5130a	0.11185272
249	0x3d5d42bb	0.054018717
250	0x3e93f06c	0.28894365
251	0xbda662d3	-0.08124318
252	0xbe8c71cd	-0.27430573
253	0xbe9c7218	-0.30555797
254	0x3e83b05f	0.25720498
255	0x3e70c65e	0.23513171

pool1.select.weight f4 [1, 32]
0	0xbdc74728	-0.09730369
1	0x3dc267b0	0.09492433
2	0xbde73cbf	-0.11290883
3	0xbdb9d542	-0.09073879
4	0x3e10cdc0	0.14140987
5	0xbe189715	-0.14901383
6	0x3e053d1f	0.13011597
7	0xbd08a016	-0.033355795
8	0x3e0d8044	0.1381846
9	0x3dd54de1	0.10415245
10	0x3d2b38d0	0.041802227
11	0xbd748738	-0.059699267
12	0x3d94f6ca	0.07273634
13	0xbe1601ed	-0.14649172
14	0xbd738879	-0.059456322
15	0xba0c535b	-0.0005352997
16	0xbe17b60a	-0.14815536
17	0x3e2a5716	0.16634783
18	0xbde0239b	-0.10944291
19	0x3e276a50	0.16349149
20	0x3d880e66	0.06643371
21	0xbd125bb7	-0.035731997
22	0xbd56002e	-0.052246265
23	0xbe2bcc13	-0.16777067
24	0x3e115b48	0.14194977
25	0x3dddfc03	0.10839083
26	0xbcfe4b60	-0.031041801
27	0xbd41ba10	-0.047296584
28	0x3e089695	0.13338692
29	0x3c89162d	0.016734207
30	0x3d3442f7	0.044009175
31	0x3e2cf72c	0.16891164

n2.0.weight f4 [8, 116]
0	0xbd71f128	-0.059067875
1	0x3aeb29b9	0.0017941511
2	0xbca89ad6	-0.020581644
3	0xbd93d0b4	-0.07217541
4	0x3d91e812	0.07124342
5	0xbcdb3cd6	-0.026762407
6	0xbd16d891	-0.036827628
7	0xbd3befb9	-0.045882914
8	0x3b1177e5	0.0022196707
9	0xbc0930ba	-0.008373434
10	0x3d39e98b	0.04538874
11	0xbb98a001	-0.004657746
12	0xbd1698c4	-0.036766782
13	0xbd7da130	-0.0619213
14	0x3d0591ca	0.03260974
15	0x3d8fba7c	0.07017991
16	0xbcbe5839	-0.023235427
17	0xbd7c4f47	-0.061599042
18	0x3d4ecc0e	0.05048757
19	0x3d49f0a8	0.049301773
20	0x3d88992c	0.0666984
21	0xbd47936d	-0.04872458
22	0x3d7e0378	0.062015027
23	0x3ca2d32f	0.01987609
24	0x3cdb5d02	0.026777748
25	0x3d7e1756	0.062033974
26	0x3c957014	0.01824192
27	0x3ccb5f8d	0.024825836
28	0x3d2843fb	0.041080456
29	0x3d6c9069	0.057754908
30	0x3bd64a40	0.006539613
31	0x3c8b3575	0.016993264
32	0xbb83a656	-0.0040176315
33	0x3b560b28	0.0032660458
34	0x3c79a615	0.015237351
35	0x3db63a00	0.08897781
36	0x3da0327b	0.078221284
37	0xbd525caf	-0.05135792
38	0xbce9955a	-0.0285136
39	0x3cc60fa9	0.02417739
40	0xbba0374a	-0.0048894035
41	0xbd596c3f	-0.053081747
42	0x3d0ad458	0.033893913
43	0x3ce30479	0.027712094
44	0xbb8ce752	-0.0043000365
45	0x3d843a9d	0.06456492
46	0xbb599963	-0.0033202998
47	0x3d739ccd	0.05947571
48	0xbd5e9d05	-0.054348964
49	0x3d362c65	0.04447593
50	0x3d513f8a	0.051085986
51	0xbaba3e9d	-0.0014209334
52	0x3d3f3af5	0.046687085
53	0xbb6da291	-0.0036260227
54	0xbccb2a4f	-0.024800448
55	0xbc008fe9	-0.007846811
56	0xbd8b8025	-0.06811551
57	0xbcaff416	-0.021478694
58	0xbd5ae628	-0.05344215
59	0xbc866039	-0.016403304
60	0x3c986234	0.018601514
61	0x3c977ba3	0.018491572
62	0xbd4b6f35	-0.049666602
63	0xbd8b128c	-0.06790647
64	0xbd521437	-0.05128881
65	0xbd166702	-0.03671933
66	0xbbb2638c	-0.005443996
67	0xbc33e368	-0.010979511
68	0x3b7db5b7	0.0038713047
69	0x3d9038ce	0.07042085
70	0x3d8991f2	0.0671729
71	0xbd8f8934	-0.07008591
72	0x3ceacd57	0.028662367
73	0x3b21144f	0.0024578755
74	0x3c9130fe	0.017723557
75	0xbd3e2666	-0.04642334
76	0x3d9a13d7	0.075233154
77	0x3d4d4943	0.050118696
78	0x3d0b5310	0.03401476
79	0x3d9676c1	0.07346869
80	0xbd40eac9	-0.04709891
81	0x3d790137	0.060792174
82	0xbd7599b4	-0.059961036
83	0x3b2fdae1	0.0026833343
84	0x3cf26f79	0.02959417
85	0xbd2eb792	-0.042655535
86	0xbd6d2505	-0.057896633
87	0xbd5f7b66	-0.05456104
88	0x3942a68b	0.00018563324
89	0xbd2de8e1	-0.04245842
90	0x3ccde1a5	0.02513201
91	0xbc99a180	-0.018753767
92	0xbbdcbea2	-0.0067365924
93	0xbd2f4046	-0.042785905
94	0x3cfc6fcb	0.030815026
95	0x3d364c9c	0.044506654
96	0xbd6959a3	-0.05697025
97	0xbd03d828	-0.032188565
98	0x3d479d4c	0.048733994
99	0xbc8d7c4c	-0.017271183
100	0x3d2fa0d4	0.042877987
101	0x3d8af804	0.067855865
102	0x3d50ce89	0.050978217
103	0xbb6641a5	-0.0035134342
104	0xbd906150	-0.07049811
105	0x3d931b8e	0.0718299
106	0xbd4f48b5	-0.05060645
107	0xbcc5f20f	-0.024163274
108	0x3cf3eb23	0.029775208
109	0x3ccf362b	0.025294384
110	0x3b0e91f1	0.0021754468
111	0xbc4ed99e	-0.012625126
112	0x3c0adcf7	0.008475534
113	0xbd8d993c	-0.06913993
114	0xbb94e647	-0.0045440528
115	0xbd955a46	-0.07292609
116	0xbd7fb473	-0.06242795
117	0x3d8d1363	0.06888463
118	0x3d878ed8	0.06619042
119	0xbaadf242	-0.0013271051
120	0xbc254b9d	-0.010088828
121	0x3b824708	0.0039757527
122	0x3da02d34	0.07821122
123	0xbb3af2d2	-0.002852608
124	0x3ce2c910	0.027683765
125	0x3d62a6aa	0.055334724
126	0xbc95444e	-0.018221047
127	0xbd3546f1	-0.044257108
128	0x3d98f519	0.07468624
129	0x3bd166c2	0.0063904235
130	0xba99a90c	-0.0011723354
131	0xbd842651	-0.06452621
132	0xbb4597d6	-0.0030150316
133	0x3c136b62	0.00899777
134	0x3db233ad	0.087012626
135	0xbd1873fa	-0.03721998
136	0x3ba3f968	0.005004097
137	0xbc641bb6	-0.013922622
138	0x3cc92996	0.024555963
139	0x3d0a0615	0.033697207
140	0x3daab2e8	0.08334905
141	0x3d031fc7	0.032012727
142	0xbc89e6d8	-0.016833708
143	0x3bea05cf	0.0071418057
144	0x3d239b58	0.03994307
145	0x3d23ca48	0.039987832
146	0x3d7ad159	0.061234806
147	0x3c890065	0.016723821
148	0x3b0075ca	0.0019601458
149	0x3cf0a6cf	0.029376416
150	0xbd1610be	-0.03663706
151	0xbba33f81	-0.0049819355
152	0xbafac72f	-0.0019132848
153	0x3b638b44	0.003472046
154	0xbd8602b4	-0.06543484
155	0xbbc0523e	-0.005869179
156	0x3d02b466	0.031910323
157	0xbbf8031f	-0.0075687314
158	0x3d8e6cd4	0.06954351
159	0xbbeb2b3c	-0.007176785
160	0xbd3c0e96	-0.045912348
161	0x3d644669	0.05573121
162	0x3d485f59	0.048919056
163	0xbd8e877c	-0.06959435
164	0x3d36ca97	0.0446268
165	0x3d1102f4	0.035403207
166	0xbd293159	-0.041306827
167	0xbd278d25	-0.04090609
168	0x3bb686d3	0.0055702715
169	0x3d9ffd3d	0.07811973
170	0x3d075a0c	0.03304486
171	0x3d9ba189	0.0759917
172	0x3cfb9fc3	0.030715829
173	0xbc577fa2	-0.013152989
174	0x3d1d87fc	0.038459763
175	0xbd8be12f	-0.0683006
176	0xbbafc7a9	-0.0053643775
177	0x3bfe7fe9	0.007766713
178	0xbc434aaf	-0.011919661
179	0x3cb9e6ac	0.022693
180	0x3d989f9b	0.07452317
181	0xbd2f0e05	-0.04273798
182	0x3d1e6569	0.03867093
183	0xbd343986	-0.04400017
184	0xbd80aca9	-0.06282932
185	0x3da1d9bb	0.07902857
186	0x3cf0b8d7	0.029385014
187	0x3a5ad8d7	0.00083483517
188	0x3c01379a	0.007886792
189	0xba069488	-0.0005133827
190	0x3d2c6112	0.04208476
191	0xba6d7b9c	-0.0009059252
192	0x3b9c8ab8	0.0047772788
193	0x3caeeeff	0.021354197
194	0xbb6cf97e	-0.003615945
195	0xbb3c2800	-0.0028710365
196	0x3cef79c6	0.02923287
197	0xbd5caf03	-0.05387784
198	0x3ca2c101	0.019867422
199	0xbcfe7c92	-0.03106526
200	0x3d84ba56	0.06480853
201	0x3ba8ad34	0.0051476005
202	0xbbd9acea	-0.0066429274
203	0xbc8c4202	-0.017121319
204	0x3d2b8629	0.041875992
205	0xbd805659	-0.062664695
206	0xbc329cf3	-0.010901677
207	0x3943a113	0.00018656654
208	0xbc7b3cee	-0.015334351
209	0xbd38d35b	-0.04512344
210	0xbb9fd140	-0.0048772395
211	0x3c758a2d	0.014986557
212	0xbc56798d	-0.013090503
213	0xbcb5e4ea	-0.022203881
214	0xbb1b9d17	-0.0023744756
215	0xbcaf3712	-0.021388564
216	0xbd91a82a	-0.07112153
217	0x3b09f256	0.0021048984
218	0x3bd6b2b4	0.006552065
219	0xbd00e6f6	-0.03147026
220	0x3cb9eac7	0.022694958
221	0x3c8cc551	0.017183932
222	0x3d32d8b4	0.043663695
223	0x3b5e52fd	0.0033923977
224	0xba51cba7	-0.0008003064
225	0x3d682848	0.05667904
226	0xbb222559	-0.00247415
227	0x3d5eca1f	0.054391976
228	0x3db0fdf7	0.0864219
229	0xbd2c3895	-0.04204615
230	0x3d94bf7d	0.07263086
231	0xbd8b599e	-0.068042025
232	0xbd8accd3	-0.06777348
233	0x3c80b0c2	0.015709285
234	0x3a884b74	0.0010398463
235	0xbb724494	-0.0036967145
236	0x3c80cb84	0.015722044
237	0x3d6e39cd	0.058160592
238	0xbd8be1b8	-0.06830162
239	0x3d9ec508	0.077524245
240	0x3d577555	0.05260213
241	0xbcda1c76	-0.0266249
242	0x3ccc225e	0.024918731
243	0x3c729955	0.014807065
244	0x3d316229	0.043306503
245	0x3c82a7df	0.015949188
246	0x3d8a8076	0.06762783
247	0xbc6f463d	-0.014604148
248	0xbd0b825f	-0.03405988
249	0x3d40e1ba	0.04709027
250	0xbb9dded4	-0.004817823
251	0x3d943ce4	0.072381765
252	0x3b52fe45	0.0032195013
253	0xbd5b8cd2	-0.053601094
254	0xbd85aebb	-0.06527468
255	0x3c8f67e1	0.017505588
